src/ckpt/CartPole-v1/indiv_2.pt (torch_old, 4014 bytes, 8 tensors)

layer1.weight f4 [16, 4]
000000 d6 1e aa 3f ed 18 2b c0 bd 99 39 be 87 42 4e bf
       1.329066 -2.6733963 -0.18125053 -0.8057026
000010 0e 38 26 c0 a5 23 06 3f ac 76 58 c0 4c f3 d8 bf
       -2.5971713 0.5239814 -3.3822432 -1.6949248
000020 cc 93 83 3e 72 45 8d bf 74 e7 2f 3f 10 71 8f bf
       0.25698698 -1.1036818 0.68712544 -1.1206379
000030 cf 94 4e c0 b0 62 b0 3e d3 7e 7a 3f 95 60 49 bf
       -3.2278326 0.34450293 0.9784977 -0.78663
000040 15 75 20 c0 bf 5c 49 3f 11 85 b0 c0 36 1e 4b 3f
       -2.5071461 0.78657144 -5.5162435 0.79342973
000050 80 da 19 bf 9c 5a 71 be 5f e2 12 c0 62 33 0f 40
       -0.6009903 -0.23569721 -2.2950666 2.2375112
000060 90 6f 8e 3f eb a3 9a 3e 4b 02 4d bf 85 7d dd 3d
       1.1127796 0.30203184 -0.80081624 0.108149566
000070 e6 31 5f 40 b1 88 fd be 6e b0 00 40 66 f5 50 40
       3.4874206 -0.4951835 2.0107684 3.264978
000080 94 11 01 40 c8 96 9f 3e 6b 2b 13 40 4b 8b 07 bf
       2.016698 0.31169724 2.299525 -0.5294692
000090 7f d9 3c bf 65 b8 4e 3f 06 69 3a 40 08 f5 8d 3f
       -0.7376937 0.80750114 2.9126601 1.1090403
0000a0 61 8a d4 be 33 0d b5 bf 23 5c eb 3e 66 c8 92 3f
       -0.41511825 -1.4144653 0.45968732 1.1467407
0000b0 c1 a5 45 3e 38 91 37 bf cb 7b a4 bf cb 19 ae 3e
       0.19301511 -0.7170596 -1.2850279 0.34004053
0000c0 bc e6 90 bf c1 ac 4e 3f ae 50 47 40 fd 91 00 c0
       -1.1320415 0.8073235 3.1142993 -2.0089104
0000d0 73 b2 5c be 12 df 1c 40 95 8f c7 3e 7c 56 4e 3f
       -0.21552448 2.4511151 0.38976732 0.80600715
0000e0 b2 44 20 3e 7a dc ad 3f e8 2d 25 3f c6 e0 0d 40
       0.15651205 1.3582909 0.6452317 2.216844
0000f0 40 69 22 40 72 55 82 3e 2e 99 00 bf 55 32 a9 bc
       2.537674 0.25455815 -0.50233734 -0.020653883

layer1.bias f4 [16]
000000 00 00 00 00 00 00 00 00 00 00 00 00 00 00 00 00
       0.0 0.0 0.0 0.0
000010 00 00 00 00 00 00 00 00 00 00 00 00 00 00 00 00
       0.0 0.0 0.0 0.0
000020 00 00 00 00 00 00 00 00 00 00 00 00 00 00 00 00
       0.0 0.0 0.0 0.0
000030 00 00 00 00 00 00 00 00 00 00 00 00 00 00 00 00
       0.0 0.0 0.0 0.0

layer2.weight f4 [16, 16]
000000 b9 d0 fe 3f 9f 3a e6 be 38 f8 e4 bf 6c 04 cc bf
       1.9907447 -0.449666 -1.788825 -1.593885
000010 09 d1 24 3e 7e c9 4c bf 79 5e 32 bf e8 d1 ac 3f
       0.16095366 -0.7999495 -0.69675404 1.3501558
000020 56 5b 48 c0 07 dd e9 bf 39 19 98 bf 75 b4 1b 40
       -3.1305747 -1.8270577 -1.1882697 2.4328892
000030 d8 21 35 be a3 b0 31 c0 e1 a1 a4 3f 17 cb 47 3f
       -0.17688692 -2.776406 1.2861902 0.78044266
000040 6e 7f 22 40 0d e5 43 c0 32 3d 69 bf 9b 3b 6c 3e
       2.5390277 -3.0608552 -0.91109 0.23069613
000050 14 53 bc bf a4 d7 36 bf 66 3d db 3f c0 9a 7c 3f
       -1.4712853 -0.7142279 1.7128112 0.9867363
000060 41 02 2c c0 20 b4 3e 3d f5 82 a1 3f e0 53 8d bf
       -2.6876376 0.0465585 1.261809 -1.1041222
000070 57 29 2a c0 5d 3a 05 c0 5b 40 95 bf 40 58 a3 bf
       -2.6587732 -2.0816872 -1.1660265 -1.2761307
000080 66 b6 57 be 22 73 98 3f 5c 4c 40 3f d6 d0 0d bf
       -0.21065673 1.1910136 0.75116515 -0.55396783
000090 05 5d 10 40 54 db c9 bf 96 1b bd bf 28 34 4b 3f
       2.2556775 -1.5770059 -1.4774044 0.7937646
0000a0 f9 46 4c bf df 2b b3 3e a3 dd 99 bf 6d df 9d 3f
       -0.79795796 0.34994408 -1.2020763 1.2333809
0000b0 35 3a f2 3f a9 bd 85 be 48 85 6c 40 6e e6 8b 40
       1.8924013 -0.26121262 3.6956348 4.3718786
0000c0 05 f1 63 3e 20 f3 60 3f c5 03 da 3e 0f d3 04 c0
       0.2225991 0.8787098 0.42581 -2.075382
0000d0 14 9e 81 bf 5d bc 28 c0 07 69 1c c0 0b ea 7d 3f
       -1.0126367 -2.6364968 -2.4439104 0.99185246
0000e0 a5 74 40 c0 2e 37 26 c0 d6 35 41 40 35 96 b3 3e
       -3.0071194 -2.597118 3.018911 0.35075536
0000f0 dc f0 7d bf 39 00 b7 bf 12 c2 93 40 65 c8 67 c0
       -0.9919565 -1.4296943 4.61744 -3.621606
000100 6d 1d 6a be d0 93 01 40 c3 54 03 40 b8 c2 d1 3f
       -0.22862788 2.0246468 2.0520484 1.6387548
000110 27 18 12 40 27 64 0f 3f 39 be 8e 40 5e cf cc bf
       2.2827241 0.56012195 4.4607205 -1.6000783
000120 5e 97 be be 94 4f f6 bf 72 ad 16 c0 36 5f 54 bf
       -0.3722486 -1.9243035 -2.3543363 -0.8295778
000130 38 36 ce bf c7 f1 24 c0 e6 2b 55 c0 da fd 30 3f
       -1.6110296 -2.577257 -3.3308043 0.69137347
000140 4d 1d 93 40 1c 03 10 bf 77 34 1c 40 96 8a 1a c0
       4.5973268 -0.56254745 2.4407022 -2.4147086
000150 f9 7c 8d bf 9c 11 a7 bf 1b d1 05 40 8c 15 52 3f
       -1.1053764 -1.3052249 2.0908878 0.8206413
000160 83 3e 98 3e 1b b1 67 bf f7 8c 8f bf 19 12 33 c0
       0.29735193 -0.90504616 -1.1214894 -2.7979796
000170 2d 20 9b c0 77 9e a0 3f 7a ef 1b 40 b4 e9 bf bf
       -4.8476777 1.254836 2.4364915 -1.4993196
000180 38 57 95 bf 8b 56 6b 3f 49 49 55 c0 66 4b 10 c0
       -1.1667242 0.9192893 -3.332598 -2.254602
000190 e2 77 2f bf 68 33 f9 3f 60 e8 1f c0 44 b0 31 bf
       -0.685423 1.9468813 -2.498558 -0.69409585
0001a0 84 4f ee be a9 79 b8 3f 55 09 89 be 16 8f ea bf
       -0.4654504 1.4412128 -0.26764932 -1.8324916
0001b0 91 f8 b3 3e 13 b0 10 bf 9f 00 ec 3f e3 61 4f c0
       0.3515058 -0.5651867 1.843769 -3.2403495
0001c0 21 fa 21 3e 3f c1 03 3f 21 cc 70 bf 38 be a5 3f
       0.15818073 0.51466745 -0.94061476 1.2948675
0001d0 47 3f 0b 3f 9c 24 da 3e 07 32 99 bf 0c 04 c0 3f
       0.5439343 0.42606056 -1.1968392 1.5001235
0001e0 43 7f c8 3f f2 19 fb 3e 64 ab 18 40 dc f2 64 bf
       1.5663837 0.49043232 2.3854609 -0.89433074
0001f0 82 b8 9c bd 76 52 2d 3c fb 79 18 c0 b3 2b 0b 40
       -0.076523796 0.010578742 -2.382445 2.1745422
000200 c8 63 90 3e 5f a9 7d be ad cd ac bf 2a 6b 1f c0
       0.28201127 -0.24771641 -1.3500267 -2.4909158
000210 2c 2c a2 bf ad a3 3e 3f 9e cf a6 3e 3e e0 9a 3f
       -1.266973 0.744685 0.32580274 1.2099683
000220 0a 91 63 3f cd 5a ad bf ab 55 34 3e 13 bc 5f bf
       0.8889319 -1.3543335 0.17610805 -0.87396353
000230 bc 30 b5 bf de ce d6 bd f3 e1 8f 3f f1 e3 6c bf
       -1.4155498 -0.104886755 1.1240829 -0.9253531
000240 ad 23 b9 3e 9a 11 23 bf 8f d2 b6 3f ff b3 42 c0
       0.3616003 -0.6369873 1.4283007 -3.042236
000250 a5 5a 89 40 9e 47 07 bf 56 39 ba 3e 55 83 3e c0
       4.292315 -0.52843654 0.3637187 -2.9767659
000260 0e e5 c7 bf e7 02 03 3f 12 ea f9 3e 27 27 93 3f
       -1.5616777 0.51176304 0.48811394 1.1496323
000270 5a ad 97 bf b6 89 d2 3d 82 c1 dd 3f c8 0f c9 3f
       -1.1849778 0.102801725 1.7324679 1.5707941
000280 d4 58 82 3f 1a 0b 63 3f 63 11 72 bf 50 fe be 3f
       1.0183358 0.88688815 -0.9455778 1.492136
000290 ab 8b f5 3f e8 1f bd be ff 44 45 bf 46 29 f0 3b
       1.9183248 -0.36938405 -0.77058405 0.007329139
0002a0 a1 0d 91 3f 63 6a 72 40 b0 5a 8d bf df 55 6a c0
       1.1332284 3.7877433 -1.1043301 -3.6614912
0002b0 18 ed 64 bf 20 fe 17 c0 0e 41 87 bf a3 7a 8f c0
       -0.89424276 -2.3748856 -1.0566728 -4.4837203
0002c0 bc c4 fa 3f d0 61 59 bf 13 cb fe 3e 16 12 3a c0
       1.9591289 -0.84914875 0.49764308 -2.9073539
0002d0 4c 8b 1b 3f a5 76 2b 3f e4 df fd bf 10 c5 57 3e
       0.60759425 0.6697791 -1.9833951 0.21071267
0002e0 6d 9d 39 c0 fc 43 b0 3f 10 c7 37 3f 7a 9d 95 3f
       -2.9002335 1.3770747 0.7178812 1.1688683
0002f0 bd 48 e7 3f 56 bd db bf 99 dc 8e be 02 c8 a8 3d
       1.8069073 -1.7167156 -0.27902678 0.082412735
000300 e8 71 30 3f 56 fb d6 bf 39 7c 02 40 72 93 c7 3f
       0.6892381 -1.6795452 2.038832 1.5591872
000310 e0 06 ad 3e d5 da 3f c0 49 c8 0f c0 bc 5d 22 c0
       0.33794308 -2.9977314 -2.2465994 -2.536971
000320 11 cb 73 bf bf 46 3e bf 8a c6 af 3f 59 af 58 40
       -0.9523173 -0.743267 1.3732464 3.3857024
000330 88 cc ce 3f c2 51 24 3f dd 73 e2 3f 32 97 57 be
       1.6156168 0.6418725 1.7691609 -0.2105377
000340 ba ce 39 3e 6d c3 a4 bf 38 ad 83 bd 8a c7 bb c0
       0.18145266 -1.2872139 -0.06429523 -5.868108
000350 d9 56 95 3f b2 c7 9f 3f 51 81 a6 3e dc 9f 22 c0
       1.1667129 1.2482817 0.32520536 -2.541007
000360 8a d5 01 3f a2 d9 52 40 54 2a 60 bf 08 31 ec be
       0.5071646 3.2945333 -0.8756459 -0.46131158
000370 76 2b ca bd 30 e1 6c bf a4 3b 8b 3d 69 9c ad be
       -0.09871571 -0.9253111 0.06798485 -0.33908394
000380 64 52 06 40 aa 3d ee bf 5a 20 bc 3e 79 ff 23 c0
       2.0987787 -1.8612568 0.36743432 -2.5624678
000390 45 a8 9f bf 32 90 20 40 b5 7d 5f be f7 0f 4b 3f
       -1.2473227 2.508801 -0.21825297 0.79321235
0003a0 0b 2a 9d 3e 88 b9 f9 3e 0e 49 28 c0 46 45 77 bf
       0.3069614 0.48774362 -2.629459 -0.9659008
0003b0 e0 f5 d0 be 05 8f 33 40 22 7e 14 c0 c1 dd 98 bf
       -0.40812588 2.8056042 -2.3201985 -1.1942674
0003c0 58 18 e0 bf e5 da 46 40 73 36 8a 3e 8b 9c ec 3e
       -1.7507429 3.1071103 0.26994666 0.46213183
0003d0 1b 04 8d 40 17 f1 8f c0 2e 9b 04 3f 1e c4 81 c0
       4.406751 -4.49818 0.51799285 -4.05519
0003e0 35 07 3d bf 24 4a ce 40 fb ee 67 3f 55 9c 85 3f
       -0.7383912 6.4465504 0.9059903 1.0438334
0003f0 6f 9f 98 3f c1 98 54 be 21 75 01 3f e3 ae 14 40
       1.1923655 -0.20761396 0.5056935 2.3231742

layer2.bias f4 [16]
000000 00 00 00 00 00 00 00 00 00 00 00 00 00 00 00 00
       0.0 0.0 0.0 0.0
000010 00 00 00 00 00 00 00 00 00 00 00 00 00 00 00 00
       0.0 0.0 0.0 0.0
000020 00 00 00 00 00 00 00 00 00 00 00 00 00 00 00 00
       0.0 0.0 0.0 0.0
000030 00 00 00 00 a6 32 1d 3f 00 00 00 00 00 00 00 00
       0.0 0.6140541 0.0 0.0

layer3.weight f4 [16, 16]
000000 bb dc 22 c0 6a dd e7 3f 5b 28 ec 3f 66 93 24 c0
       -2.5447223 1.8114445 1.8449816 -2.5714965
000010 44 47 e9 bf a4 79 4c c0 fb 81 38 c0 f1 11 13 bf
       -1.8224874 -3.1949244 -2.8829334 -0.5744925
000020 61 0a a1 3f 6b dd 9e bf 23 93 ed bf 89 c1 ca 3f
       1.2581292 -1.2411321 -1.8560528 1.5840312
000030 39 67 9d bf bf c5 5f 3f 8c 44 33 c0 bd 71 39 bf
       -1.2297126 0.8741111 -2.8010588 -0.72439176
000040 b2 48 de be 75 16 60 bf ca 19 4e bf 90 0b c3 be
       -0.43414837 -0.87534267 -0.805081 -0.3809476
000050 61 e7 41 40 7a e5 c8 3f 96 59 2f 3f 5f d0 84 c0
       3.0297472 1.5695031 0.6849607 -4.150436
000060 ee 8c 22 bf bd fe 28 be ca cc 1d c0 ff 6c 0d c0
       -0.6349629 -0.16503425 -2.4656243 -2.2097776
000070 66 5b 16 40 44 16 df 3f 2f 2b ba bf 29 89 d0 bf
       2.3493285 1.742867 -1.4544429 -1.6291858
000080 c9 ca 7d 40 aa 95 54 c0 64 d6 60 c0 23 87 4f 40
       3.965502 -3.3216348 -3.5130854 3.242623
000090 86 83 71 3f a4 19 2b 40 e5 84 47 3e ab bd a9 3e
       0.94341314 2.67344 0.19484289 0.33152518
0000a0 d4 a5 eb bd d0 3f d9 bf d1 54 4c 3e f9 d1 02 40
       -0.115062386 -1.6972599 0.1995423 2.0440657
0000b0 d5 ab 29 c0 48 de 8c bf 4d 79 8c 40 c8 a1 81 3f
       -2.6511128 -1.1005335 4.389807 1.0127497
0000c0 4f fb c1 3f fc 67 2e 40 a0 d0 9b bf dd 6f 78 bf
       1.5154818 2.7250967 -1.2173042 -0.9704569
0000d0 6a 5e 1f 3e 3a 3b 19 c0 da f6 bc bf cc f1 65 bf
       0.1556336 -2.39424 -1.4762833 -0.8982208
0000e0 8b de 29 bf 05 e9 00 40 02 cf d1 3f f2 82 b7 3f
       -0.663552 2.0142224 1.6391299 1.4336836
0000f0 95 f7 60 c0 43 30 fc be 69 47 8e be b3 21 53 40
       -3.5151112 -0.4925557 -0.27788857 3.2989318
000100 1f 74 0d c0 7b 0b 99 be 5d bd c0 bf 8d 08 6e 3f
       -2.2102125 -0.2989157 -1.5057789 0.929818
000110 fa 34 02 bf 60 78 69 be ef 14 e0 3f 69 d5 25 3e
       -0.50862086 -0.22799826 1.7506388 0.16194691
000120 6b 8d 5a bf 55 4e 98 3f 29 32 2c 40 55 0d 8d bf
       -0.85372037 1.1898905 2.6905615 -1.1019694
000130 39 65 7c bf 9f e1 83 bf 03 34 8f c0 28 11 12 40
       -0.98591954 -1.0303229 -4.475099 2.2822971
000140 18 99 57 bf f9 3f ab 3f fc 01 b9 bd 1d af 00 c0
       -0.8421798 1.3378898 -0.090335816 -2.010688
000150 a7 4a 7d 3f 6a 3b 79 40 2f b3 16 40 0e 01 ca bf
       0.98942035 3.8942513 2.3546865 -1.5781572
000160 48 b6 bf 3e 34 c9 f8 3e c1 2b 1a 3d 8a 71 76 3f
       0.37443757 0.48591006 0.037639383 0.96266997
000170 2d 80 f9 3f f4 7d cb bf f0 d2 a6 3f 8e 2a 56 40
       1.9492241 -1.5897813 1.3033123 3.3463473
000180 05 56 4b 3e 02 58 ef 3f 8a 5a 25 3e 84 ab ab 3f
       0.19857033 1.8698733 0.16147819 1.3411717
000190 5d 62 8e 3f f4 de 7e 3f cc 84 85 3f 8d e0 b6 bf
       1.1123768 0.9955895 1.0431151 -1.4287277
0001a0 85 b1 d3 be b1 9f 3c 40 34 b7 52 c0 4d 91 2c 40
       -0.41346374 2.9472468 -3.2924318 2.6963685
0001b0 29 bf 83 40 d4 69 11 40 bf 72 30 bf 82 41 88 bf
       4.117085 2.2720842 -0.6892509 -1.0644991
0001c0 7e f6 4f 3e 8f a1 cd bf 50 e0 88 bf f5 17 20 c0
       0.20308873 -1.6064929 -1.0693455 -2.5014622
0001d0 e9 fc f1 3e bb 69 7a bf 87 2e b9 3f fa 6c fa bf
       0.47263268 -0.9781758 1.4467324 -1.9564507
0001e0 c1 c9 81 c0 7b 78 71 c0 49 ac 9e 3e 30 ab b3 bf
       -4.055878 -3.7729785 0.30990818 -1.4036617
0001f0 e7 1a a8 c0 89 ca 50 3f 37 95 35 be dc 02 f1 be
       -5.253284 0.81559044 -0.17732702 -0.47072494
000200 84 53 92 bf 95 72 9d c0 8f b1 5b c0 bf e0 13 3f
       -1.1431737 -4.920237 -3.4327123 0.5776481
000210 12 ed 82 be 8b d1 a3 3f 63 e1 f7 bf 62 70 8e 3f
       -0.25571495 1.2798322 -1.9365658 1.1128047
000220 78 8e 07 c0 a7 61 0b bf da 11 cd 3f 07 d6 10 c0
       -2.1180706 -0.5444588 1.6021073 -2.2630632
000230 03 2e a9 c0 a5 ae 81 40 23 2f c3 3f 9f 42 33 3f
       -5.2868667 4.052569 1.524876 0.7002353
000240 24 50 d6 3f 3d da 92 3f 79 ea 31 c0 5a 99 2f c0
       1.6743207 1.1472851 -2.779936 -2.7437348
000250 55 f2 bb bf 15 13 96 3f 90 ff 4e bf c9 28 a5 be
       -1.4683329 1.1724573 -0.8085871 -0.3225768
000260 b0 d2 17 40 53 b4 48 40 83 43 0d 40 e9 20 e7 3e
       2.3722343 3.136006 2.2072456 0.45142296
000270 36 9d 85 bf 60 7d b8 3f 2f 39 b6 be c5 03 30 bf
       -1.0438602 1.4413261 -0.35590503 -0.6875575
000280 9c 0c a1 3f dd 69 08 bf 66 ae 31 c0 e8 0d de be
       1.2581973 -0.53286535 -2.7762694 -0.43369985
000290 88 84 a7 bf b5 52 8c be a8 4d 93 bf 05 db 19 40
       -1.308732 -0.2740685 -1.1508074 2.403993
0002a0 53 bd 6e 3e 42 bf 20 40 04 f2 93 3f 7e 07 7b bf
       0.23314409 2.5116735 1.1558232 -0.9805831
0002b0 e7 9e 1e c0 21 40 4c c0 cd a5 8a 3e d0 cf 9c bf
       -2.4784486 -3.191414 0.2707962 -1.2250919
0002c0 0b 9f 26 c0 ee 3b c8 3f 3b 78 a6 3f bc 49 44 bf
       -2.6034572 1.5643289 1.3005441 -0.7667501
0002d0 da 52 1f c0 76 53 1d bf 14 1b f0 3f 86 4b 97 40
       -2.4894319 -0.61455476 1.8758264 4.727969
0002e0 92 6a 86 bf 99 06 c1 bd 8d a2 be 3f 81 0b 47 40
       -1.0501273 -0.094250865 1.4893357 3.1100771
0002f0 83 72 8d bf ac 00 a8 3f a8 15 c2 bf 6b 67 96 c0
       -1.1050571 1.3125205 -1.5162859 -4.7001243
000300 8d 8a 37 c0 87 2d e8 bf 30 c0 ff 3f 91 ab 3c 40
       -2.8678315 -1.8138894 1.9980526 2.9479716
000310 b1 27 db 3f 20 7d 1e c0 c5 d7 80 bf d6 e9 72 bd
       1.7121488 -2.476387 -1.0065848 -0.059305035
000320 5f e8 b4 3f 7f a9 70 3f 4b e0 af bf 16 44 93 bf
       1.4133414 0.9400863 -1.3740324 -1.1505153
000330 32 8d 26 40 6b 76 53 40 48 e6 b7 3e 68 0f 14 bf
       2.6023679 3.3041027 0.35917878 -0.5783601
000340 33 aa bb bf 42 40 ef be f4 cf 71 c0 38 03 f3 3f
       -1.4661316 -0.46728712 -3.7783175 1.8985357
000350 d2 17 82 3e 87 1e 54 40 1a 07 19 40 85 f1 b1 3f
       0.25408798 3.3143632 2.3910584 1.3901831
000360 69 b5 2e 3e ec 36 01 3f 32 55 e7 3f 94 b8 af bf
       0.1706139 0.5047443 1.8072875 -1.3728204
000370 b2 25 cd 3e a1 f1 38 c0 7d 4a 83 3f 19 d8 49 bf
       0.40067822 -2.8897479 1.0257107 -0.78845364
000380 aa ad b1 3e c0 8c a0 bf 89 59 a2 bc 22 fa 05 40
       0.34702808 -1.2542953 -0.019818084 2.093392
000390 e1 5f 89 3f ac f3 bc be d8 19 a6 bf 66 47 bf bf
       1.0732385 -0.36904657 -1.2976637 -1.4943664
0003a0 66 53 ed 3d a1 83 93 3e 9c 00 06 40 e9 60 89 bf
       0.115881726 0.28811362 2.0937872 -1.07327
0003b0 5f f8 49 3f b6 3b bf be 9d 62 03 40 5a 6a a9 3f
       0.7889461 -0.37350243 2.0528939 1.3235581
0003c0 1f 37 6d 40 1d fd b9 bf 35 82 b5 3f ed 06 e9 3e
       3.7064893 -1.4530369 1.4180361 0.45513096
0003d0 27 4d 10 bf 6e ad 96 3f 19 cc f3 3d 1f f0 ab 3f
       -0.56367725 1.1771677 0.11904163 1.3432654
0003e0 80 a3 0e c0 06 89 85 3f 68 cb 81 bd b2 af f5 bf
       -2.2287292 1.0432441 -0.06337625 -1.9194243
0003f0 b6 11 19 3f ba 20 66 c0 61 11 e5 3f b1 08 51 40
       0.5979265 -3.5957475 1.7895929 3.2661555

layer3.bias f4 [16]
000000 00 00 00 00 8c cf 4f 3f 00 00 00 00 00 00 00 00
       0.0 0.81176066 0.0 0.0
000010 00 00 00 00 00 00 00 00 00 00 00 00 00 00 00 00
       0.0 0.0 0.0 0.0
000020 00 00 00 00 00 00 00 00 00 00 00 00 00 00 00 00
       0.0 0.0 0.0 0.0
000030 00 00 00 00 00 00 00 00 00 00 00 00 00 00 00 00
       0.0 0.0 0.0 0.0

out_layer.weight f4 [2, 16]
000000 ca b6 85 c0 88 e8 42 c0 9b 49 75 bc e1 bd 64 3f
       -4.178563 -3.0454426 -0.014971162 0.8935223
000010 60 5c a2 bf e5 cd 89 3f d8 5e 41 c0 76 d0 49 bf
       -1.2684441 1.0765959 -3.0214138 -0.7883371
000020 aa 5a 65 bf 0a d8 89 bf e2 b8 98 c0 26 29 4b 3e
       -0.8959147 -1.0769055 -4.7725687 0.19839916
000030 16 15 8f 40 e2 44 df 3f 7a af 25 c0 2f 0b f7 be
       4.471324 1.7442896 -2.5888352 -0.4825072
000040 73 e1 d8 3f 24 cc 6a c0 05 b1 1f 40 74 14 72 c0
       1.6943802 -3.6687098 2.4951794 -3.7824984
000050 12 5f 01 3f f7 e9 b7 c0 b2 43 19 c0 7f ad e1 3f
       0.5053569 -5.74731 -2.3947568 1.7631072
000060 2c 10 60 3f 80 5c f6 bf 97 a7 0b 40 12 8d c9 bf
       0.87524676 -1.9246979 2.1821039 -1.5746176
000070 bb ab 8a 3f 4d 5b d7 3f 11 7c 12 bf b4 3a a5 bf
       1.0833658 1.6824738 -0.5722056 -1.290854

out_layer.bias f4 [2]
000000 00 00 00 00 00 00 00 00
       0.0 0.0
