src/ckpt/LunarLander-v2/indiv_5.pt (torch_old, 7446 bytes, 8 tensors)

layer1.weight f4 [24, 8]
0	0x3e3d7243	0.18500619
1	0xbf348f9c	-0.7053163
2	0xbfb5cf66	-1.4203918
3	0x4027185c	2.6108618
4	0x3f5c97c7	0.86169094
5	0xbf8906fc	-1.0705256
6	0x4005acc0	2.0886688
7	0xc096be0d	-4.7106996
8	0xbdf870ef	-0.121309154
9	0xc057c5c0	-3.3714447
10	0x4048eb0d	3.1393464
11	0x3fde18e9	1.7351352
12	0xc00ba235	-2.1817753
13	0xc048aa66	-3.1354003
14	0xbfeed64c	-1.8659148
15	0xbfe2f2ce	-1.7730348
16	0x401b2dd7	2.4246728
17	0x3fd381e7	1.6524018
18	0xc038e673	-2.8890655
19	0x40850e30	4.157982
20	0xc07a51cc	-3.9112425
21	0xc0004e21	-2.0047686
22	0x3e1836b9	0.14864625
23	0x3f3a5e93	0.7280056
24	0xbf040fcd	-0.5158661
25	0xbefd3a90	-0.49458742
26	0xc0450896	-3.078649
27	0x3cd00fc4	0.025398143
28	0x401925b2	2.3929257
29	0xbf780642	-0.9688455
30	0x3fba7728	1.4567614
31	0xc0057c83	-2.0857246
32	0x3f62fb79	0.88664967
33	0x401fd302	2.497254
34	0x3e6e4416	0.2326816
35	0x40bc3919	5.88197
36	0xc0229735	-2.540479
37	0xbfd47a72	-1.6599867
38	0x3f1c21ac	0.6098888
39	0xc06554dd	-3.5833046
40	0xbdcf9180	-0.10135174
41	0x3edeaf14	0.4349295
42	0xc04612b2	-3.094891
43	0xc0c19c75	-6.0503488
44	0xbe95a3ff	-0.29226682
45	0xbfc804cb	-1.5626463
46	0xc06ce9cc	-3.7017698
47	0x3ea9af68	0.33141637
48	0xbf7ca0de	-0.98682964
49	0xc02927ef	-2.6430624
50	0xc03050c3	-2.7549293
51	0x3fded2e9	1.7408115
52	0xbd221361	-0.039569262
53	0x3fbfbcff	1.4979552
54	0xc089bf93	-4.3046355
55	0xbc49c523	-0.012315067
56	0xbf73b31f	-0.9519519
57	0x3f9b36fb	1.2126154
58	0xbf84df70	-1.0380688
59	0xc055a9c6	-3.3384871
60	0xbec82a16	-0.3909461
61	0xbf6fd47a	-0.9368359
62	0x3ec91476	0.39273423
63	0xbfb9ff42	-1.4531024
64	0x4038f70a	2.890078
65	0x3eb561fb	0.35426316
66	0xbfe625b0	-1.7980251
67	0xbfbde659	-1.4835922
68	0xbf902471	-1.1261121
69	0xc0847833	-4.1396728
70	0xc0365a9f	-2.849281
71	0xbe112bf2	-0.1417692
72	0x400bfee1	2.1874316
73	0x3d36923d	0.044573057
74	0xbf813631	-1.0094663
75	0x400c37a5	2.1908963
76	0x400efc73	2.2341583
77	0xbd8c30bc	-0.06845233
78	0x3f8279f7	1.0193471
79	0xbfaf7eb4	-1.3710542
80	0xbf04fc2d	-0.5194729
81	0x3fa4d96c	1.2878852
82	0x3ff2f060	1.8979607
83	0xbf25c742	-0.6475717
84	0x40428105	3.0391247
85	0x401f9622	2.4935384
86	0xbfddf6c8	-1.7340937
87	0xbf928dc6	-1.1449516
88	0x3ea13dd5	0.31492487
89	0xc06379d7	-3.5543115
90	0xbf07d219	-0.5305496
91	0x3f60334a	0.8757826
92	0x40617a1e	3.5230784
93	0x4053a27e	3.3067927
94	0xbfca2dc3	-1.5795215
95	0xbf3ee82b	-0.7457301
96	0x3fad0084	1.3515782
97	0xc0009cdb	-2.0095737
98	0x3f1481e4	0.580107
99	0xbf3cf594	-0.7381222
100	0xbfa123e7	-1.2589082
101	0xbf053ad1	-0.5204287
102	0x3fedef71	1.8588697
103	0xbfc741b9	-1.5566932
104	0x3ffa1eac	1.954061
105	0xbff1c634	-1.8888612
106	0xc0003bcc	-2.0036497
107	0xc07c38f6	-3.9409766
108	0xc01608f5	-2.3442967
109	0xbfc460b7	-1.5342015
110	0xc00bb022	-2.1826253
111	0xc0307a4f	-2.7574651
112	0xbf327b53	-0.6971943
113	0x3fa46d8f	1.2845935
114	0x3f8a636c	1.0811591
115	0xbea4bc31	-0.3217483
116	0x3ff60935	1.922156
117	0xc0059171	-2.087002
118	0xbfc2f9ff	-1.5232543
119	0xbf8b6875	-1.0891253
120	0xc0272ee0	-2.612236
121	0x3f2948d7	0.6612677
122	0x408638e1	4.194443
123	0x3f3e5006	0.74340856
124	0xbfcde856	-1.6086528
125	0xbe77fab8	-0.24216735
126	0x3f614f8e	0.88012016
127	0x3fc230b3	1.5171112
128	0x400f35f4	2.237668
129	0x3f276652	0.65390503
130	0x40112830	2.2680779
131	0xbc07c71c	-0.0082872175
132	0x3f9160da	1.1357682
133	0x3e34d681	0.17659952
134	0xbe8248f5	-0.25446287
135	0xbf0d0408	-0.55084276
136	0x3fa2d2da	1.2720597
137	0xc02325f9	-2.5491927
138	0xbe8440a2	-0.2583056
139	0xbf5008bb	-0.8126332
140	0x3fca21d6	1.5791576
141	0xbe815a0a	-0.25264007
142	0x3f89e426	1.077275
143	0xbf922512	-1.1417563
144	0xbfcefe43	-1.6171345
145	0xbf7b675f	-0.98204607
146	0xc0ae71e5	-5.451403
147	0xbeff0182	-0.49805838
148	0x3ff04751	1.8771764
149	0xbfd7e0f1	-1.6865522
150	0x404ccd7e	3.2000422
151	0x3f160914	0.586076
152	0x3f85ce58	1.0453596
153	0x3f584011	0.8447276
154	0xbf0040b3	-0.50098723
155	0xc0856aec	-4.169302
156	0xbf963181	-1.1733857
157	0xbfac26ac	-1.3449302
158	0xbff4de93	-1.9130424
159	0xc07fa612	-3.9945111
160	0x3fa6d916	1.3034999
161	0x3ee64a19	0.44978407
162	0xc014a587	-2.322603
163	0x3fc73031	1.5561582
164	0xc03ba605	-2.932008
165	0x3f2e56e5	0.6810134
166	0x3d67c82d	0.056587387
167	0xbfabf432	-1.3433897
168	0xbff05f9c	-1.8779178
169	0x40ae372e	5.444236
170	0xbf93d506	-1.1549385
171	0xc052bf3f	-3.2929227
172	0x3e5bd922	0.21469548
173	0x4050d31b	3.2628849
174	0x3fb6247b	1.4229883
175	0xbe90f1fd	-0.28309622
176	0x4038552d	2.8801987
177	0x401e52fb	2.4738147
178	0xc08bd962	-4.370286
179	0xc02443e8	-2.5666447
180	0xc013aad4	-2.3073015
181	0xbf9a17fb	-1.2038568
182	0x3cf54ac6	0.029942881
183	0xc0aaa4fd	-5.33264
184	0xbf1a3c1c	-0.6024797
185	0xbf9308fe	-1.1487119
186	0x400c4156	2.1914878
187	0x403fe172	2.998135
188	0xc07986a5	-3.898843
189	0xbf1a98b6	-0.6038927
190	0xbea03f64	-0.31298363
191	0xc037a8df	-2.869682

layer1.bias f4 [24]
0	0x00000000	0.0
1	0x00000000	0.0
2	0x00000000	0.0
3	0x00000000	0.0
4	0x00000000	0.0
5	0x00000000	0.0
6	0x00000000	0.0
7	0x00000000	0.0
8	0x00000000	0.0
9	0x00000000	0.0
10	0x00000000	0.0
11	0x00000000	0.0
12	0x00000000	0.0
13	0x00000000	0.0
14	0x00000000	0.0
15	0x00000000	0.0
16	0x00000000	0.0
17	0x00000000	0.0
18	0x00000000	0.0
19	0x00000000	0.0
20	0x00000000	0.0
21	0x00000000	0.0
22	0x00000000	0.0
23	0x00000000	0.0

layer2.weight f4 [24, 24]
0	0xbfcccfb5	-1.6000887
1	0x3f17c014	0.5927746
2	0x3fe00ccd	1.7503906
3	0x400e6c97	2.2253778
4	0xc05ab0ce	-3.4170413
5	0xbf000c1d	-0.50018483
6	0xbebad9ae	-0.364942
7	0x3fafe13c	1.3740611
8	0xbf254f16	-0.645738
9	0xbff9ddf5	-1.9520861
10	0xbee97669	-0.45598152
11	0xbf7d8ac1	-0.99039847
12	0x3f4933c5	0.7859462
13	0xbf6fbec1	-0.9365044
14	0xbf0e7fe7	-0.55663913
15	0xbcb6cd1d	-0.022314603
16	0xbf773ae7	-0.9657425
17	0x3f702fab	0.93822736
18	0x3eee9f85	0.4660608
19	0x3f10979c	0.5648134
20	0xc03a31e3	-2.9092948
21	0xc010de03	-2.2635505
22	0x3c8fa9bc	0.01753699
23	0xc087e263	-4.246385
24	0x3eefdf38	0.4684999
25	0xbf650143	-0.8945505
26	0x3ec4ae6a	0.38414317
27	0xbe63bd2d	-0.22240134
28	0x4049b1b7	3.1514719
29	0x3f94f67a	1.1637719
30	0xbf2610f9	-0.6486965
31	0xc0043484	-2.0657053
32	0x3f872376	1.0557697
33	0xbef92437	-0.48660442
34	0x3f9b07e6	1.2111785
35	0xc01e9f21	-2.4784625
36	0x3f214473	0.6299507
37	0x3fdbe6cd	1.717981
38	0x405d1c42	3.4548497
39	0x3fd98968	1.6995058
40	0x400819a6	2.1265655
41	0x403994b3	2.8997009
42	0x3f8f2ab6	1.1184909
43	0xbfb11fab	-1.3837789
44	0xc08cb031	-4.3965077
45	0x40b5939e	5.6742697
46	0x40bb19fa	5.846921
47	0x3df7090d	0.12062273
48	0xc028a900	-2.635315
49	0x401e1fec	2.4706984
50	0xbeed44ea	-0.4634164
51	0x3f1ed65d	0.6204584
52	0x3f515200	0.8176575
53	0xc078a742	-3.8852086
54	0x3fb431f2	1.4077742
55	0x404962f7	3.1466653
56	0xbf578b02	-0.84196484
57	0xc08a550b	-4.322881
58	0xbe168c57	-0.14701973
59	0x405b5b47	3.4274461
60	0xc08d8fdc	-4.423811
61	0xbf8a8273	-1.082106
62	0xbff4f68a	-1.9137738
63	0xbf23bdcd	-0.6396149
64	0xc00fbc20	-2.2458572
65	0xc0086f30	-2.1317863
66	0xc0084f1a	-2.129828
67	0xc0487176	-3.131925
68	0x3db5c4ae	0.08875404
69	0x3f482e51	0.78195673
70	0x3f0f410f	0.55958647
71	0x3f5d685f	0.8648738
72	0xbf75ee53	-0.9606678
73	0xbe682f2f	-0.22674249
74	0x3f512db4	0.8171036
75	0x3faa2ac7	1.3294305
76	0x40ae8e56	5.454875
77	0x3e71194d	0.23544808
78	0xbf8e67bf	-1.1125411
79	0x3d86869b	0.06568643
80	0x3fd0a06e	1.6298959
81	0x3f55aaa5	0.8346351
82	0x3e9c3078	0.3050573
83	0x3ec57b26	0.38570517
84	0x3f4aec62	0.7926694
85	0x3fbd0cfe	1.476959
86	0x3fd15817	1.6355008
87	0x3e858697	0.26079246
88	0x3e6dddd7	0.23229156
89	0x3e397bd3	0.18113641
90	0x401651aa	2.3487344
91	0xbef43cca	-0.47702628
92	0x3feab979	1.8337852
93	0xbe6b5ea7	-0.22985326
94	0xbe1f1b80	-0.15537834
95	0xc089aa3e	-4.3020315
96	0xbfa521fd	-1.2900997
97	0xbfaeef86	-1.3666847
98	0x3fcec940	1.6155167
99	0x402ffcaa	2.7497964
100	0xbff46b22	-1.9095194
101	0xc0440dc0	-3.0633392
102	0x3f590149	0.84767586
103	0x40464308	3.0978413
104	0x3f20ba1c	0.6278398
105	0x4010f766	2.2651
106	0xc0726820	-3.7876053
107	0xbf9e0991	-1.234667
108	0xc06c6cc5	-3.6941388
109	0xbeca6413	-0.39529476
110	0x3e7a84e8	0.24464762
111	0xbf65cd61	-0.8976651
112	0x40134d8a	2.3016076
113	0x40013982	2.019135
114	0xc005a0f4	-2.0879488
115	0xbf5d8922	-0.86537373
116	0x3e6a64b9	0.22889985
117	0xc02d9bd9	-2.7126372
118	0x3fed5458	1.8541365
119	0x3f3f5c78	0.7475047
120	0x402a3943	2.659745
121	0xc065b875	-3.5893834
122	0xbfb6f8e6	-1.4294708
123	0x4072c9ad	3.7935593
124	0x400ad9d1	2.1695445
125	0xc02db1f6	-2.7139869
126	0x3fb03490	1.3766041
127	0x40281a0a	2.6265893
128	0xc012188a	-2.2827477
129	0x3ee9627e	0.45582956
130	0x3f258ffa	0.64672816
131	0x3f4b06d4	0.79307294
132	0x403ce57f	2.9515073
133	0xc06bb50c	-3.6829252
134	0x3fafc5a5	1.3732191
135	0x3ee7c212	0.4526525
136	0x40a75b88	5.2299232
137	0x404c4576	3.1917396
138	0x40138804	2.3051767
139	0x3f461097	0.77369064
140	0xbf8f7a82	-1.1209261
141	0x3f5f4f34	0.8723023
142	0xbf288596	-0.65828836
143	0x40962a82	4.692689
144	0x3ee5d323	0.44887647
145	0x40d2221b	6.5666633
146	0x400c4aec	2.1920729
147	0x3f88b6db	1.0680803
148	0xbfda4974	-1.7053666
149	0xbfc52fe6	-1.5405242
150	0xbfda786b	-1.7067999
151	0xbf1d0ef2	-0.6135093
152	0x3fb8de94	1.4442925
153	0x3e57a394	0.21058494
154	0x3ffe71ab	1.9878439
155	0x3ff389ac	1.9026389
156	0x3fd2fa21	1.6482583
157	0x403410c5	2.8135235
158	0x4000f960	2.0152206
159	0x3d02f7f9	0.031974766
160	0x3f16fe47	0.58981746
161	0xbfaf5d34	-1.3700318
162	0xbf892cf6	-1.0716846
163	0x3f911c1f	1.1336707
164	0xbf1be523	-0.6089651
165	0x3d607755	0.054801304
166	0xbf6d40bc	-0.926769
167	0xc07c05e4	-3.9378595
168	0xbf813669	-1.009473
169	0x3ffdda8f	1.9832324
170	0x3fabe8ca	1.3430417
171	0xbf7ced52	-0.9879962
172	0xbf8fd65e	-1.1237295
173	0x3ed33140	0.41248512
174	0xc0221e71	-2.533108
175	0x3ff393fd	1.9029537
176	0x3fc327a5	1.5246474
177	0xbfb4e397	-1.4131955
178	0x3d82a6d6	0.06379478
179	0xbefef01e	-0.4979257
180	0x3eb1e38c	0.34743917
181	0x3f15b925	0.58485633
182	0x403fbfe7	2.9960878
183	0x3fe5a63e	1.7941358
184	0x3f7bd3f7	0.9837031
185	0x3f3d530f	0.7395486
186	0x40478628	3.1175632
187	0xbeddbdb4	-0.43308794
188	0x3f3bcefd	0.73362714
189	0x3ecb22c0	0.3967495
190	0x3fe07591	1.7535878
191	0xc0140203	-2.3126228
192	0xbfb5a529	-1.4191028
193	0xbf15a8b8	-0.5846057
194	0xbef03e1c	-0.46922386
195	0x3ec2eab4	0.3806969
196	0xbf7bc232	-0.98343194
197	0x4019dbeb	2.4040477
198	0x3f457e47	0.7714581
199	0xbe6ba5dd	-0.2301249
200	0xbe0df359	-0.13862361
201	0x403d1dc3	2.9549415
202	0x404ff888	3.2495441
203	0xc0615cce	-3.5212893
204	0x4050f5d0	3.2650032
205	0xbfc6f319	-1.5542938
206	0xbf9b852c	-1.2150016
207	0x3e96bc5e	0.29440588
208	0xbfc29dcb	-1.5204405
209	0x3fdfa725	1.7472883
210	0xbfb3dd56	-1.4051921
211	0xbc4a5136	-0.012348464
212	0xbf3a4cab	-0.72773236
213	0xbf99bfe8	-1.201169
214	0x3fcc202e	1.594732
215	0xbf8e8c46	-1.1136558
216	0x3fec46f9	1.8459159
217	0x3f6807ba	0.9063679
218	0xbff7e51b	-1.9366792
219	0x3f08337b	0.5320355
220	0x3e4cbe0f	0.19994377
221	0x401ad671	2.4193385
222	0x3f873524	1.0563092
223	0x400b6b28	2.1784153
224	0x3fe694ae	1.8014123
225	0x4054bfc0	3.3242035
226	0x3fbc62c5	1.4717642
227	0xc03ad816	-2.9194388
228	0x3dda471e	0.10658096
229	0xbf98d4b1	-1.1939908
230	0x3f0a808e	0.5410241
231	0x3ea22230	0.31666708
232	0x3f1a1cb6	0.6020006
233	0x3f93fd6c	1.1561713
234	0x3e9c4636	0.30522317
235	0x3f51f463	0.8201353
236	0xbf48d956	-0.7845663
237	0x3fd584c3	1.6681141
238	0x400123a8	2.0178013
239	0x401d5ace	2.4586673
240	0x4004695a	2.0689301
241	0x3f800ae4	1.0003324
242	0xc02d36b5	-2.706464
243	0xc048b538	-3.1360607
244	0xbe10542f	-0.14094613
245	0x3fbf5ff7	1.4951161
246	0xbfb9d21d	-1.4517246
247	0xbee64d1f	-0.44980714
248	0xbf91bed2	-1.1386359
249	0xc080b276	-4.021785
250	0xbfc9ad48	-1.5756006
251	0xbea2f7eb	-0.3182977
252	0x40587eac	3.3827314
253	0xbf62e52b	-0.8863093
254	0xbf3e5ba1	-0.74358565
255	0xbed7aac8	-0.42122483

layer2.bias f4 [24]
0	0x00000000	0.0
1	0x00000000	0.0
2	0x00000000	0.0
3	0x00000000	0.0
4	0x00000000	0.0
5	0x00000000	0.0
6	0x00000000	0.0
7	0x00000000	0.0
8	0x00000000	0.0
9	0x00000000	0.0
10	0x00000000	0.0
11	0x00000000	0.0
12	0x00000000	0.0
13	0x00000000	0.0
14	0x00000000	0.0
15	0x00000000	0.0
16	0x00000000	0.0
17	0x00000000	0.0
18	0x00000000	0.0
19	0x00000000	0.0
20	0x00000000	0.0
21	0x00000000	0.0
22	0x00000000	0.0
23	0x00000000	0.0

layer3.weight f4 [24, 24]
0	0xc02bfda0	-2.687355
1	0xbe0ad54d	-0.1355793
2	0x400c40ba	2.1914506
3	0x3e0cd23f	0.13752078
4	0xc001b3cd	-2.0265992
5	0xbf2f23fc	-0.6841428
6	0xc0184fd2	-2.3798718
7	0xc01f0c06	-2.4851089
8	0x3f96fdd5	1.1796213
9	0xbfcf9112	-1.6216147
10	0xbfa8cbbf	-1.3187178
11	0xbbbacd23	-0.0057007237
12	0x400ad13b	2.1690204
13	0xbf404ebc	-0.7512014
14	0x400b119d	2.17295
15	0x402b3d49	2.6756155
16	0xbed4112a	-0.41419345
17	0x3f44d271	0.7688361
18	0xbf36f73c	-0.71471
19	0xbf42c618	-0.7608352
20	0x3fe37bb6	1.7772129
21	0x402b1d8e	2.6736789
22	0x3f153b60	0.58293724
23	0x3fbd4018	1.4785185
24	0x3f5149a5	0.81753
25	0x3fa9d68f	1.3268603
26	0x3e054728	0.13015425
27	0x3e37345d	0.17891069
28	0xbf312e0f	-0.69210905
29	0xc067913f	-3.61824
30	0xc00aec1d	-2.1706612
31	0x3fd395e7	1.6530122
32	0xc008006d	-2.125026
33	0x3fc8e8c5	1.5696036
34	0x3ef9c2ed	0.4878153
35	0x4097afaf	4.7401958
36	0xbebd07f5	-0.36920133
37	0xbf965f5b	-1.174785
38	0xbf7cc89d	-0.9874361
39	0xc02a3b5e	-2.6598735
40	0xbf965c7f	-1.1746978
41	0x405a3039	3.4091933
42	0x3f8d69b6	1.1047885
43	0x40637e9f	3.5546033
44	0xbd4e9400	-0.050434113
45	0x4016f111	2.3584635
46	0xbe61e352	-0.22059372
47	0xc0687277	-3.6319864
48	0xc00fbe77	-2.246
49	0x3f55fca7	0.8358864
50	0x3dd410c2	0.10354759
51	0xc03acdba	-2.9188066
52	0xc059e017	-3.4043024
53	0xc08a4360	-4.3207245
54	0xc006736b	-2.1007946
55	0xbf8619aa	-1.0476582
56	0x3e218a6e	0.15775463
57	0xbfaf7bb6	-1.3709629
58	0xbfaed47b	-1.3658594
59	0x3f17a4b7	0.5923571
60	0xbf6fc5b2	-0.93661034
61	0x3f2e7776	0.6815103
62	0xbf389d99	-0.72115475
63	0xc018c646	-2.3871017
64	0xbf27215f	-0.65285295
65	0xbeb613b9	-0.35561922
66	0x3fdf25db	1.7433428
67	0xbe68227e	-0.22669408
68	0x402fdee4	2.7479792
69	0xbe4900fa	-0.19629279
70	0xc00e888d	-2.2270844
71	0xbfa3049f	-1.2735785
72	0x3fb07a8d	1.37874
73	0x4008a116	2.134832
74	0xc02cbf43	-2.6991737
75	0x3f8288a2	1.0197947
76	0x3f1055e6	0.5638107
77	0x40981108	4.752079
78	0x40d22dc9	6.568089
79	0x4010b4b6	2.2610297
80	0xbeafd2e8	-0.34340596
81	0x401f688b	2.4907558
82	0xbf871828	-1.0554247
83	0x3e00782e	0.12545845
84	0x3f7d2b4b	0.98894185
85	0x3f424618	0.75888205
86	0xc04ba27c	-3.1817923
87	0xbfceb2d8	-1.6148329
88	0x3d2098ff	0.03920841
89	0x3fb6ca6c	1.4280524
90	0x4005e80f	2.0922887
91	0xc0a2b6b5	-5.084803
92	0xbf1755ec	-0.5911548
93	0xbef0a7ad	-0.47002926
94	0xc00f3e26	-2.2381682
95	0x3f0c6252	0.54837525
96	0x4023e106	2.5606093
97	0x3f93045f	1.1485709
98	0xc0496631	-3.1468623
99	0x3ffa9748	1.9577417
100	0x3e655394	0.22395164
101	0xbf650fcb	-0.89477223
102	0xbf3a5b53	-0.727956
103	0xbf36f3dd	-0.71465856
104	0x404d5d9b	3.2088382
105	0x3e12ef8c	0.14349192
106	0x3ddfbe90	0.10925019
107	0x4009f752	2.1557202
108	0xbfee415b	-1.8613695
109	0x3f0a74f4	0.54084706
110	0xbf8008ff	-1.0002745
111	0x3fb52b79	1.4153892
112	0x403a79f9	2.9136946
113	0x3f82e234	1.0225282
114	0xbfc1b12c	-1.5132194
115	0xbfae4a1e	-1.3616369
116	0x3f3a6610	0.72811985
117	0xbf8f76d2	-1.1208136
118	0x40198308	2.3986225
119	0xbf8b8efb	-1.0903009
120	0x4082922b	4.080343
121	0x3e093ccd	0.134021
122	0xc07d9076	-3.9619422
123	0xbee6b5ef	-0.4506068
124	0x3e82079b	0.25396428
125	0xbf3c57f6	-0.7357172
126	0x3ebb3c76	0.36569566
127	0xbfd4c8db	-1.6623796
128	0x40838d57	4.1110034
129	0xc02860d0	-2.630909
130	0x3fbc4094	1.4707208
131	0x3fa0e449	1.2569667
132	0x401d072e	2.4535632
133	0x3cdf0127	0.02722223
134	0xbff190fd	-1.8872372
135	0xc0067a85	-2.101228
136	0x3fdc981c	1.723392
137	0xbfb0eecb	-1.3822874
138	0x402294e4	2.5403376
139	0x3e3dad19	0.18523063
140	0xbf968fd4	-1.1762643
141	0x3f995ba0	1.1981087
142	0xc0570b40	-3.3600616
143	0xbf0fea3a	-0.56216776
144	0x3ca1ab78	0.019735083
145	0x40b5fa99	5.6868405
146	0xbf2dffa6	-0.67968214
147	0xbf4fa9e0	-0.81118584
148	0x3e38c289	0.1804296
149	0xc052493b	-3.2857196
150	0x3fe71d4f	1.8055819
151	0x405dc391	3.4650614
152	0x3ee98e70	0.45616484
153	0x3ffbd813	1.9675316
154	0xc0b4f101	-5.6544194
155	0x3f7f9b5e	0.99846447
156	0xbfe5d19d	-1.7954594
157	0xbedb067a	-0.4277838
158	0x3f3e3188	0.7429433
159	0xbe58dbb0	-0.21177554
160	0x3f2b0916	0.6681074
161	0x3f5ff9db	0.87490624
162	0x3fba1e36	1.454047
163	0x3ffbd924	1.9675641
164	0x3f275418	0.6536269
165	0xbe7cb88f	-0.24679779
166	0x3f24527b	0.64188355
167	0xc08f124b	-4.470983
168	0x3e83084a	0.25592262
169	0xbfd020f3	-1.6260055
170	0xc004bc82	-2.0740056
171	0xbbd367ad	-0.006451568
172	0xc0476fdd	-3.1162026
173	0x3d531d3c	0.051541552
174	0xbffa4f89	-1.9555522
175	0x3e0b50d2	0.13605049
176	0xbf55b992	-0.8348628
177	0x408c09d0	4.376198
178	0x3ed17b64	0.40914452
179	0x3ff20e9a	1.8910706
180	0x3ee025d2	0.43778855
181	0x3ff07a4b	1.8787321
182	0xc076e75d	-3.8578713
183	0xbf1b8e80	-0.6076431
184	0x3d456a10	0.048196852
185	0x407b7a2a	3.9293313
186	0x4025f200	2.5928955
187	0x40347f82	2.8202825
188	0x3e0228c2	0.1271086
189	0x4005fc57	2.0935266
190	0xc045c480	-3.0901184
191	0xc049ea58	-3.1549282
192	0x3f2e1d08	0.6801305
193	0x3e9257c1	0.28582576
194	0x3f453990	0.7704096
195	0x3faaf71b	1.3356661
196	0x3fb5952c	1.4186149
197	0xbecb4f39	-0.3970888
198	0x3fa139fe	1.2595823
199	0xbef8f66c	-0.48625505
200	0x3f794cdf	0.9738292
201	0xbfa77783	-1.3083347
202	0xc07ef2d0	-3.98357
203	0x3fc3b19a	1.5288575
204	0x3e969543	0.29410753
205	0xbf46ec8a	-0.7770468
206	0x40548ba3	3.3210227
207	0xc076f62c	-3.8587751
208	0x401ec362	2.4806752
209	0xc04c2b27	-3.1901338
210	0xc043be12	-3.058476
211	0xbf1c719b	-0.6111085
212	0xbf55e8bf	-0.8355827
213	0xbffa28b3	-1.954367
214	0x3f3ad536	0.72981584
215	0x3f9ffa7e	1.2498319
216	0x3f4f1280	0.80887604
217	0xbf1352a4	-0.57547975
218	0xbf588b8a	-0.8458792
219	0x4014c5ba	2.3245683
220	0x3f17cb0a	0.5929419
221	0x3f8da643	1.1066364
222	0x401fc947	2.49666
223	0xbfa54756	-1.2912395
224	0xbfc6c581	-1.5529023
225	0xc09260a7	-4.5742984
226	0xc04358e1	-3.0522997
227	0x3d5bde9e	0.0536791
228	0x3ec989a9	0.3936284
229	0xbf4c2b45	-0.79753524
230	0x3f8fbd34	1.1229615
231	0xbfe55895	-1.7917658
232	0xbe98a28f	-0.29811522
233	0xbeb799b5	-0.35859457
234	0x40908bee	4.5170813
235	0x3f42f1b3	0.76150054
236	0xbf833f3e	-1.0253675
237	0xbf9507cc	-1.1643004
238	0xc05789c0	-3.3677826
239	0xc0111da3	-2.267434
240	0xc0976898	-4.731518
241	0xbfa1f472	-1.2652724
242	0xbfd841e0	-1.6895103
243	0xbef3b744	-0.47600758
244	0x3ea07fae	0.31347412
245	0xbf541152	-0.8283893
246	0x3f280bbb	0.656429
247	0x3f7debba	0.99187815
248	0x3fce4689	1.6115276
249	0x402d44b7	2.707319
250	0x3fe46c15	1.7845484
251	0xbf092387	-0.53569835
252	0x3f8f15ed	1.1178566
253	0xc00ce9f0	-2.2017784
254	0x3fc723f0	1.5557842
255	0xc0382345	-2.8771527

layer3.bias f4 [24]
0	0x00000000	0.0
1	0x00000000	0.0
2	0x00000000	0.0
3	0x00000000	0.0
4	0x00000000	0.0
5	0x00000000	0.0
6	0x00000000	0.0
7	0x00000000	0.0
8	0x00000000	0.0
9	0x00000000	0.0
10	0x00000000	0.0
11	0x00000000	0.0
12	0x00000000	0.0
13	0x00000000	0.0
14	0x00000000	0.0
15	0x00000000	0.0
16	0x00000000	0.0
17	0x00000000	0.0
18	0x00000000	0.0
19	0x00000000	0.0
20	0x00000000	0.0
21	0x00000000	0.0
22	0x00000000	0.0
23	0x00000000	0.0

out_layer.weight f4 [4, 24]
0	0x3ffc11f8	1.9692984
1	0xbfdf90d6	-1.7466075
2	0x400b49cc	2.1763792
3	0x3f8235ef	1.0172709
4	0x3bb1a2aa	0.0054210024
5	0x40886f1a	4.263562
6	0x3e7a5da5	0.24449785
7	0x401cc016	2.449224
8	0xbfc21a6d	-1.5164315
9	0x404e7073	3.2256134
10	0xbde65e6e	-0.1124848
11	0x3fad79fe	1.3552854
12	0x401f82bd	2.4923546
13	0xbf7f13f1	-0.99639803
14	0x3fc88e82	1.566849
15	0xbda914c6	-0.08255915
16	0xbf0a9d37	-0.5414614
17	0x4065f5ce	3.5931277
18	0x3e9edf1a	0.31029588
19	0x40862b47	4.192783
20	0xbf248dc8	-0.6427884
21	0xbff8a5a1	-1.9425546
22	0xbf6f4c3f	-0.9347572
23	0x3f9e11fe	1.2349241
24	0x40666f3a	3.6005387
25	0xc0479bdd	-3.1188881
26	0x3f4c5c1a	0.79828036
27	0x409424ca	4.629491
28	0xbf921e20	-1.1415443
29	0xbf9a21e9	-1.2041599
30	0xc064c6e6	-3.5746398
31	0x3e398010	0.18115258
32	0xbf82b872	-1.0212538
33	0x3ef28df5	0.4737393
34	0x401d38b1	2.4565852
35	0xbf0b76ce	-0.54478157
36	0x3eeb046a	0.45901805
37	0x3fce3caf	1.6112269
38	0x3f076e9d	0.5290316
39	0x3fa9b196	1.325732
40	0xbe142853	-0.14468507
41	0x3fa4353d	1.2828747
42	0x3ee6831e	0.4502191
43	0x4028aeea	2.635676
44	0x3f94f74b	1.1637968
45	0xbf519b6d	-0.81877786
46	0xbdfcd1f9	-0.123447366
47	0x3fa03ae4	1.2517972
48	0xbfc2be98	-1.5214415
49	0x401bbbba	2.433333
50	0x3e16f40e	0.14741537
51	0xbf09fdaf	-0.53902715
52	0x4044e4af	3.0764577
53	0x3ff06629	1.8781177
54	0xbeade83e	-0.3396625
55	0xbf939fcb	-1.153314
56	0xc0078ba1	-2.1178973
57	0x404f6e8b	3.241122
58	0xbfc36144	-1.5264058
59	0x40b08eff	5.5174556
60	0xbf9dadbc	-1.2318645
61	0xbdcf489e	-0.101212725
62	0x3f80fab1	1.0076505
63	0xc014bc8b	-2.3240077
64	0xc06563c9	-3.5842154
65	0x3fcc232b	1.5948232
66	0x3fef547f	1.8697661
67	0xc08aac9c	-4.3335705
68	0x4036ac5a	2.8542695
69	0x3f297e68	0.66208506
70	0x3faf1c4d	1.3680512
71	0x4081ad34	4.052393
72	0xbf3a3f77	-0.7275309
73	0xc021bacf	-2.527027
74	0x3f371c08	0.7152715
75	0xc039c0a4	-2.9023829
76	0xbf7cc5a9	-0.98739105
77	0x3e8f79f4	0.2802273
78	0x4018610d	2.3809235
79	0xbef0390d	-0.46918526
80	0xbf7c160d	-0.98471147
81	0x3e9c2aa3	0.3050128
82	0xc02e7413	-2.7258346
83	0xbf73577d	-0.9505537
84	0x4055f120	3.342842
85	0xbe3647ed	-0.17800875
86	0xbe80ee77	-0.25181934
87	0xbfe9f991	-1.8279287
88	0x3e1c5972	0.15268496
89	0x3f4e8288	0.80667925
90	0x3f19b5c1	0.6004296
91	0xc09a6c8f	-4.825752
92	0x40413b81	3.0192568
93	0xbfc67027	-1.5502976
94	0x40275043	2.6142738
95	0xbfdc3333	-1.7203125

out_layer.bias f4 [4]
0	0x00000000	0.0
1	0x00000000	0.0
2	0x00000000	0.0
3	0x00000000	0.0
