src/ckpt/LunarLander-v2/indiv_7.pt (torch_old, 7446 bytes, 8 tensors)

layer1.weight f4 [24, 8]
00000000: 3ec7 3f40 c000 1dbe 1f04 e0be 5f77 5f3f
00000010: c797 5c3f 670d c43f 8986 6e3f 0dbe 96c0
00000020: b760 d53e c35c 00c0 4cfe b9c0 8e21 8f3e
00000030: 35a2 0bc0 0bf2 c13f e304 d7bf cef2 e2bf
00000040: d08b 633f f117 603f f963 56c0 922d a0bf
00000050: cc51 7ac0 c56b 2fc0 5506 4ebf 935e 3a3f
00000060: 04e1 9dbe fee3 a93e 382b cc3f d578 b6bf
00000070: b225 1940 966b aebd efff c8bf 837c 05c0
00000080: c27f a33f 9449 b0be dff0 1040 b8d2 5fbf
00000090: 3597 22c0 cb28 ed3e f747 d1be dd54 65c0
000000a0: 34e8 99bf fe2a 4b40 d89f 0c3f 25b5 0cbf
000000b0: ffa3 95be 8f04 403f 42a8 aabf 68af a93e
000000c0: 4308 b0bf 0829 8e40 4c92 ff3f 184b 8b40
000000d0: 6113 22bd 73fd 7e40 019d 0d40 23c5 49bc
000000e0: 7c31 62bf dc7a 7540 58af 67c0 927e 8c3f
000000f0: 162a c8be 835f 97bf ffd5 a83f 42ff b9bf
00000100: 3915 dd3b 1e4f e1bf 0da4 aabf 4b2e 6a3f
00000110: 7124 90bf f75e fbbf af18 a73e f22b 11be
00000120: 430d df3e a1c3 e33f 7cac c3be 4c1c 0dbf
00000130: 73fc 0e40 4a18 00c0 6142 bd3e b47e afbf
00000140: 1eca a43e e7ab d33f 7710 6e40 bff9 053e
00000150: 0581 4240 7c47 cebe d91e 4c3f c68d 92bf
00000160: d8bf 513f 7a3a 89bd 3593 573f 8374 9040
00000170: 1e7a 6140 1cd9 f33f 210e 1cbd 2be8 3ebf
00000180: ae27 d13f 0640 943f bc11 bb3f d425 ed3f
00000190: e723 a1bf 683e 1240 c2b3 8b40 b941 c7bf
000001a0: 8c85 1340 a4f3 503f f3af 3ec0 a289 b33f
000001b0: f508 16c0 ca9d 00bf 7c9d 6c40 4f7a 30c0
000001c0: fe02 d3bf c433 6940 9a59 dbbe 5723 b4bf
000001d0: 3509 f63f b6ed 3cc0 6f73 a43f 7568 8bbf
000001e0: 45a7 cb3e a952 c0bf fe90 513e ac9e 55c0
000001f0: 56e8 cdbf 9c3b 693e ea7c 6440 b330 c23f
00000200: 3169 8b3f 7621 733e 64f7 0dc0 2587 12c0
00000210: da60 913f a164 973f bd28 f5bf 0804 0dbf
00000220: 00dd 8b40 27e8 fc3f 1cc3 1bbf 724e 3ec0
00000230: d621 ca3f 15b6 50c0 f62e 903f 1225 92bf
00000240: bd70 41c0 f8b9 7fbf 7f6c 973f 8b55 da3e
00000250: 5147 f03f 4e9b 983f fa83 013f 1409 163f
00000260: 7c50 973f b719 b0be 3db0 36be 1576 5640
00000270: 8131 96bf 9a0e 4a3f d6a2 213e 12a6 7fc0
00000280: 72dd 1040 9db0 0340 7b36 2240 d8cd eb3f
00000290: 05a6 3bc0 601e c3bf 4e5f 8ebf 32f4 abbf
000002a0: 2462 83bf 9e62 33c0 ac4c 0a3f 126e a1bf
000002b0: 22d9 5b3e 3573 b13f f0e3 cb3f fdf1 90be
000002c0: 6d42 5e40 25ce 62bf 8dfe b5bf 51b3 89c0
000002d0: d4aa 13c0 ea64 55be 5332 7240 fda4 aac0
000002e0: 217b 3940 15a5 a9bf 5ec6 1740 e232 6f3d
000002f0: a586 79c0 dc1b ce3e eb73 a03f dfa8 37c0
2.9965358 -0.15332317 -0.43753144 0.8729152 0.86169094 1.531659 0.93174034 -4.7106996
0.4167535 -2.0056617 -5.812292 0.27955288 -2.1817753 1.5151991 -1.6798366 -1.7730348
0.8888521 0.8753653 -3.3498518 -1.2513907 -3.9112425 -2.7409527 -0.8047841 0.7280056
-0.30835736 0.33181757 1.5950689 -1.4255625 2.3929257 -0.08516614 -1.5703105 -2.0857246
1.2773364 -0.34431136 2.2647016 -0.87430906 -2.540479 0.46320185 -0.40875217 -3.5833046
-1.2023988 3.174499 0.549314 -0.54963905 -0.29226682 0.75006956 -1.3332598 0.33141637
-1.3752521 4.4425087 1.9966521 4.3529167 -0.039569262 3.9842193 2.2127078 -0.012315067
-0.8835676 3.8356237 -3.6200771 1.0976126 -0.3909461 -1.1826023 1.3190306 -1.4531024
0.0067469147 -1.760227 -1.3331314 0.9147689 -1.1261121 -1.9638356 0.3263602 -0.1417692
0.43564805 1.7794076 -0.38217533 -0.551213 2.2341583 -2.0014825 0.36964706 -1.3710542
0.32185453 1.6536835 3.719755 0.13083552 3.0391247 -0.40288913 0.7973457 -1.1449516
0.81933355 -0.06700607 0.84208995 4.5142226 3.5230784 1.9050632 -0.038099412 -0.7457301
1.6340234 1.1582038 1.4614787 1.8527169 -1.2589082 2.285059 4.365693 -1.5566932
2.305026 0.81621766 -2.979489 1.4026377 -2.3442967 -0.50240767 3.697112 -2.7574651
-1.6485288 3.6437845 -0.42841798 -1.4073285 1.922156 -2.9520087 1.2847728 -1.0891253
0.39776054 -1.5025226 0.20465466 -3.3378096 -1.6086528 0.22776645 3.5701241 1.5171112
1.0891477 0.23743233 -2.2182245 -2.2894986 1.1357682 1.1827585 -1.9153057 -0.55084276
4.3707275 1.9758347 -0.6084459 -2.973538 1.5791576 -3.2611134 1.1264331 -1.1417563
-3.022506 -0.9989314 1.1829985 0.4264339 1.8771764 1.1922395 0.50592005 0.586076
1.1821437 -0.3439462 -0.17840667 3.3509572 -1.1733857 0.7892853 0.15784773 -3.9945111
2.263516 2.0576546 2.5345752 1.8422194 -2.932008 -1.5243645 -1.1122835 -1.3433897
-1.0264325 -2.802894 0.5402324 -1.2611716 0.21469548 1.3863283 1.5928936 -0.28309622
3.4728043 -0.885958 -1.4218308 -4.303139 -2.3073015 -0.20839277 3.7843215 -5.33264
2.8981402 -1.3253504 2.3714824 0.058398135 -3.898843 0.4025563 1.2535375 -2.869682

layer1.bias f4 [24]
00000000: 0000 0000 0000 0000 0000 0000 0000 0000
00000010: 0000 0000 0000 0000 0000 0000 0000 0000
00000020: 0000 0000 0000 0000 0000 0000 0000 0000
00000030: 0000 0000 0000 0000 0000 0000 0000 0000
00000040: 0000 0000 0000 0000 0000 0000 0000 0000
00000050: 0000 0000 0000 0000 0000 0000 0000 0000
0.0 0.0 0.0 0.0 0.0 0.0 0.0 0.0
0.0 0.0 0.0 0.0 0.0 0.0 0.0 0.0
0.0 0.0 0.0 0.0 0.0 0.0 0.0 0.0

layer2.weight f4 [24, 24]
00000000: b5cf ccbf 7afe a540 f6f0 4e40 047f 86bf
00000010: ceb0 5ac0 f9ee 19c0 023c e53f bfd7 473f
00000020: 67ed 5a40 f5dd f9bf f135 30bf db8a 103f
00000030: bb36 27bf c1be 6fbf 2700 d5be 4f11 f93e
00000040: e73a 77bf ab2f 703f 859f ee3e 9c97 103f
00000050: e45d d83e dc65 c23f c947 f73e 63e2 87c0
00000060: 38df ef3e 020e df3f 5743 9e3f 21e1 93bf
00000070: b7b1 4940 825c f73f 48aa 8a40 0931 363f
00000080: ad9c 54bf 3724 f9be fc29 4040 3da9 9fbf
00000090: 2a76 2740 cde6 db3f 0202 e9bc ea5c 4f40
000000a0: a619 0840 b394 3940 b62a 8f3f ab1f b1bf
000000b0: c2ac 933f c583 15c0 c9b3 b2bf 0d09 f73d
000000c0: 00a9 28c0 c82a 67c0 e781 4ebf 88d5 14bf
000000d0: 0052 513f 5913 5b3f fb25 8dbf 2bef f03f
000000e0: f970 59bf 0b55 8ac0 e2ff 99bf ec86 81be
000000f0: ae3e 8d3f 7382 8abf e617 be3f 98ff 24bf
00000100: 20bc 0fc0 306f 08c0 1a4f 08c0 7671 48c0
00000110: 8141 d1bf 1c06 423f e505 273f 5f68 5d3f
00000120: 53ee 75bf d819 dd3f 76a1 333e df29 463f
00000130: 568e ae40 2961 0540 f754 7a3d 85e2 c0bf
00000140: 2b4c e13f a5aa 553f d0e9 5e40 5d7e a1bf
00000150: 4e4c e33f fe0c bd3f 3b31 a13f 346f 84bf
00000160: d7dd 6d3e d37b 393e aa51 1640 ca3c f4be
00000170: 71ac 8a3f a3c9 4040 246e 353f 3eaa 89c0
00000180: fd21 a5bf c94d 5dbf da67 cb3f 2dcd 30bf
00000190: 226b f4bf bd0f 6140 dced 8a3d 400e 3bc0
000001a0: 01a5 9d3e 66f7 1040 062c 56bf 2573 3f40
000001b0: a51b 23c0 1364 cabe 807e 98bf 16d7 923f
000001c0: 8a4d 1340 8239 0140 f4a0 05c0 2289 5dbf
000001d0: 9eb0 87bf 1d88 0140 b351 d0bf 785c 3f3f
000001e0: 4339 2a40 547f 5d40 df5c d0be 9bba 70bf
000001f0: d1d9 0a40 8e59 0abf 0d56 b4bf b488 8b3f
00000200: 0ef0 3c3f 7e62 e93e 11f8 e13f beb5 1e3e
00000210: 703b 30c0 0cb5 6bc0 afdc 88bf fe19 153f
00000220: 885b a740 7645 4c40 0488 1340 9710 463f
00000230: 8d1e dd3f ae09 30bf 2cbb 6a40 822a 9640
00000240: 23d3 e53e 4d33 a3bf 1f92 7a3f 3352 c33f
00000250: 7449 dabf d91a ecbf e0b3 a8bc e34a 97bd
00000260: 2921 6bc0 94a3 573e fafa f1bb 842e 26bf
00000270: 3712 5240 c510 3440 08e8 0ec0 88ad 39c0
00000280: 47fe 163f 345d afbf f62c 89bf 1f1c 913f
00000290: 0dca a2be 8704 0440 b58a 303f e405 7cc0
000002a0: 6936 81bf 8993 1140 4d50 803e 6a70 86bd
000002b0: 5ed6 8fbf a87a 68bf bf86 ba3a a68d acbf
000002c0: a4a0 a6bf 97e3 b4bf 1aad 4b3f 080a 7040
000002d0: eac1 a2c0 25b9 153f d469 fe3f fdd6 88be
000002e0: f7d3 7b3f 0f53 3d3f 2886 4740 b4bd ddbe
000002f0: 8715 333f e986 a13f 15b2 c4bf 0302 14c0
00000300: 29a5 b5bf 5cbd c2bf c745 9b40 3bb8 2540
00000310: 32c2 7bbf 7a87 85bf 4349 03c0 1bbe 6d3f
00000320: 2b49 04bf c31d 3d40 5456 4940 a33a 2640
00000330: f03c 4a40 19f3 c6bf 0960 0fc0 bba3 d7be
00000340: cb9d c2bf 25a7 df3f 56dd b3bf 3651 4abc
00000350: 59b0 57be 0cd2 1440 75ae 31bf 468c 8ebf
00000360: f946 ec3f 5a95 8540 d065 5440 7e0f 843f
00000370: 0fbe 4c3e 34e6 95bf f6a9 aabe 07f4 b0bf
00000380: a498 c3bf c0bf 5440 3f9e 93be 8ee0 efbf
00000390: 290e 1f40 b1d4 98bf 3762 bdbf 4a76 8240
000003a0: b61c 1a3f 6cfd 933f 3646 9c3e 63f4 513f
000003b0: f606 4740 88e9 033e 2509 9f3f ce5a 1d40
000003c0: 5a69 0440 4bfa 38c0 9ab2 16c0 f76f 1240
000003d0: 2f54 10be dd32 53bc 606a 96bf f0b7 79bf
000003e0: ee45 80c0 76b2 80c0 0416 5840 11d7 a43e
000003f0: 3e8f efbf 2be5 62bf e74f abbf 5658 adbf
-1.6000887 5.187314 3.233457 -1.0507512 -3.4170413 -2.4052107 1.7908938 0.7806358
3.42074 -1.9520861 -0.6883231 0.56461877 -0.6531789 -0.9365044 -0.4160168 0.48646018
-0.9657425 0.93822736 0.4660608 0.5648134 0.42259133 1.5187335 0.48296955 -4.246385
0.4684999 1.742615 1.23643 -1.1553079 3.1514719 1.9325106 4.3332863 0.7116857
-0.8305157 -0.48660442 3.0025625 -1.2473522 2.6165872 1.717981 -0.02844334 3.240046
2.1265655 2.8997009 1.1184909 -1.3837789 1.1537097 -2.3361676 -1.3961116 0.12062273
-2.635315 -3.6119862 -0.80666965 -0.5813832 0.8176575 0.855764 -1.1027216 1.8822988
-0.8493801 -4.322881 -1.2031214 -0.2529825 1.1034753 -1.082106 1.4851043 -0.64452505
-2.2458572 -2.1317863 -2.129828 -3.131925 -1.6348115 0.7579057 0.6524337 0.8648738
-0.9606678 1.7273512 0.17542061 0.7740764 5.454875 2.0840552 0.061116185 -1.5069128
1.760137 0.8346351 3.4830208 -1.2616688 1.7757661 1.476959 1.2593149 -1.0346437
0.23229156 0.18113641 2.3487344 -0.47702628 1.0833875 3.012307 0.70871186 -4.3020315
-1.2900997 -0.86446816 1.5891068 -0.69063073 -1.9095194 3.5165856 0.06783649 -2.9227448
0.3078995 2.2651 -0.83660924 2.9914029 -2.5485623 -0.39529476 -1.1913605 1.1471889
2.3016076 2.019135 -2.0879488 -0.86537373 -1.0600774 2.0239327 -1.6274933 0.7475047
2.659745 3.4608965 -0.40695855 -0.9403474 2.1695445 -0.540429 -1.4088761 1.0901093
0.73803794 0.45582956 1.7653829 0.15499017 -2.7536278 -3.6829252 -1.0692347 0.58242786
5.2299232 3.1917396 2.3051767 0.77369064 1.7274948 -0.6876477 3.667674 4.692689
0.44887647 -1.2750031 0.97879213 1.525946 -1.7053666 -1.8445693 -0.020593584 -0.073873304
-3.673899 0.21058494 -0.007384655 -0.6491473 3.2823617 2.8135235 -2.232912 -2.9012165
0.58981746 -1.3700318 -1.0716846 1.1336707 -0.31794778 2.0627763 0.6896165 -3.9378595
-1.009473 2.2746298 0.25061265 -0.0656441 -1.1237295 -0.9081216 0.0014230831 -1.3480728
-1.3017774 -1.4131955 0.7956101 3.7506123 -5.086171 0.58485633 1.9876046 -0.26726523
0.9837031 0.7395486 3.1175632 -0.43308794 0.69954723 1.2619296 -1.5366846 -2.3126228
-1.4191028 -1.5214038 4.8522677 2.5893695 -0.98343194 -1.0431969 -2.0513465 0.928682
-0.51674145 2.9549415 3.145894 2.597329 3.1599693 -1.5542938 -2.2402365 -0.42117104
-1.5204405 1.7472883 -1.4051921 -0.012348464 -0.21063365 2.3253202 -0.69406825 -1.1136558
1.8459159 4.1744814 3.3187141 1.0317228 0.19994377 -1.1710877 -0.33332795 -1.3824471
-1.5280957 3.3242035 -0.2883167 -1.8740404 2.4852393 -1.1939908 -1.4795598 4.0769396
0.6020006 1.1561713 0.30522317 0.8201353 3.1097999 0.12882054 1.2424666 2.4586673
2.0689301 -2.8902767 -2.354651 2.2880838 -0.14094613 -0.012890545 -1.1751213 -0.9754629
-4.0085363 -4.021785 3.3763437 0.32195333 -1.8715589 -0.8863093 -1.3383759 -1.3542583

layer2.bias f4 [24]
00000000: 0000 0000 0000 0000 0000 0000 0000 0000
00000010: 0000 0000 0000 0000 0000 0000 0000 0000
00000020: 0000 0000 0000 0000 0000 0000 0000 0000
00000030: 0000 0000 0000 0000 0000 0000 0000 0000
00000040: 0000 0000 0000 0000 0000 0000 0000 0000
00000050: 0000 0000 0000 0000 0000 0000 0000 0000
0.0 0.0 0.0 0.0 0.0 0.0 0.0 0.0
0.0 0.0 0.0 0.0 0.0 0.0 0.0 0.0
0.0 0.0 0.0 0.0 0.0 0.0 0.0 0.0

layer3.weight f4 [24, 24]
00000000: d31d 29bc 5114 5cbf ba40 0c40 3fd2 0c3e
00000010: e6f3 c7bf 56e0 9f3f b8f2 a8bc b27d 963f
00000020: 10a8 dabf 5a43 c8bf bfcb a8bf c2bb a63f
00000030: f713 60be 8511 1c40 0bd7 a93e 82d6 53bd
00000040: cf6f f23f 44ac 033e 4dd2 16bf 18c6 42bf
00000050: b67b e33f 590b ee3f 7a14 05bf 1840 bd3f
00000060: f1fc efbe 3270 663f 2847 053e 5d34 373e
00000070: eb3d ae3f a899 51bf 2aa7 823f 68e2 66bf
00000080: 2e14 8fbf f5e5 ad3f edc2 f93e 5a1e 7940
00000090: ed12 69be 90f2 27bf 8e8e a23f 3b35 4a3b
000000a0: 1648 df3f 3656 b03f d831 1140 9f7e 6340
000000b0: 0094 4ebd f9f1 5dbf dcf6 cabf da82 4cc0
000000c0: 1c38 da3f 5c30 20c0 c210 d43d bacd 3ac0
000000d0: 6350 3cc0 1159 703f 2452 cdbf cc4d 1240
000000e0: a60c 1dc0 17b2 f8bf 7bd4 aebf 987c f9bd
000000f0: f498 3ebf 3963 bd3e 9c42 c7bf 7acc f8be
00000100: 436d 17bf 4b7d 3a3f 3c63 0140 7e22 68be
00000110: e4de 2f40 5911 2e3f 86ae a7bf 9f04 a3bf
00000120: 3678 d93e aa64 38bf 43bf 2cc0 a288 823f
00000130: 8bb3 173f 4c19 723e b2ac a13f b8e2 25c0
00000140: 5587 0b40 7924 3c3d 2818 87bf 54a3 28c0
00000150: 8c78 c83f d3db 6ac0 29e4 9740 8c24 a3bf
00000160: 4187 59bf 19f4 1b3e 8933 2540 b5b6 a2c0
00000170: ec55 17bf 3ff5 35bf a6ca 1dbe 5262 0c3f
00000180: 7d13 c3bf 6ed6 b2bf 3166 49c0 4897 fa3f
00000190: b7cb 05c0 2399 2540 ce04 23bf 857c 6b3e
000001a0: 06b7 fa3f 8b49 dcbf 90be df3d 8bba df3e
000001b0: a34d 7b3f 9c06 0640 247f 23c0 5bce a43f
000001c0: bb95 0c40 3aa6 8c3f b54e 0d40 1e4a aebf
000001d0: 1066 3a3f 5cbf 1a3f 2555 33c0 fb8e 8bbf
000001e0: 109d 8140 74b6 37bf 7690 7dc0 efb5 e6be
000001f0: ad7e 4940 ef64 8abf f316 19c0 348b 79bf
00000200: 083c 2240 79b2 3840 9440 bc3f d9c3 d2be
00000210: acf2 c0bd 6a35 ddbe b65f de3e ff7f 8b3f
00000220: d8cc 0fc0 e11b 12c0 c370 fdbf 19ad 3d3e
00000230: d48f 96bf 9122 253f c502 0640 3aea 0fbf
00000240: b35c 023f f1bf cdbf a6ff 2dbf e0a9 4fbf
00000250: b81b de3e a4fb 31c0 9f70 493f 64dc 69bf
00000260: 909a 0140 5711 d6bf 01f1 b4c0 bbb7 6bbf
00000270: ffc2 783f 2726 dbbf 90dd 25c0 79d0 c23f
00000280: 13e2 2dbf af1e 99bf 016e 433e 24d9 fb3f
00000290: 1854 273f ee2e d040 27fb 4640 4b12 8fc0
000002a0: 86b7 063f 053e 9840 82bc 04c0 ad67 d3bb
000002b0: e51f fb3f 67b5 5abe fe4c 6bc0 44ee 363d
000002c0: 62e8 82bf 0539 eebf 647b d13e 27ab 9abf
000002d0: 9d83 d23f 76d9 bbbe 1abf 6bbf bcf2 94bf
000002e0: b800 723e cbf7 b03f 56b6 bdbf 827f 3440
000002f0: c228 023e 0e87 02c0 1b5c c03f 58ea 49c0
00000300: 950a 09c0 df28 39bf 9039 453f 1bf7 aa3f
00000310: f8b3 5740 74b0 c33f 9642 85be 61b7 41c0
00000320: 938e b9be 0531 3340 d0f2 7ec0 edc0 ee3e
00000330: c58f 33bf 1880 903e 4bde 40c0 d88f 3bbf
00000340: affb 9cbf b017 0bbf 49da cebe 9b71 1cbf
00000350: bfe8 55bf 74f8 cc3f da0c 963e 7efa 9f3f
00000360: a876 233f 8344 cbbf 8a8b 58bf bac5 1440
00000370: f9f5 86c0 30f1 b9bf 863d 963f d8e3 f3bf
00000380: c481 debf ffd7 2d3f e158 43c0 e4a9 debf
00000390: 5fa4 753f 1f95 b73e a2ad 6dbf 921a 00c0
000003a0: ac3a 903f 2faf 5740 cbce 943f b3f1 423f
000003b0: 3e3f 83bf 833d d0bf 9907 3dc0 a31d 11c0
000003c0: 6e3e adbf a246 6ac0 e041 d8bf 44b7 f3be
000003d0: 1921 c0c0 0a20 3440 7de1 8bbf 70a8 bbbf
000003e0: 4138 e83f e951 3cc0 156c e43f 3fcc 6440
000003f0: 1d43 f43f 57a2 b2bf f446 b03e 08a5 eabd
-0.010322052 -0.859685 2.1914506 0.13752078 -1.5621307 1.2490337 -0.02062355 1.1757109
-1.7082539 -1.5645554 -1.3187178 1.3026049 -0.21882616 2.4385693 0.33171877 -0.051718242
1.8940371 0.12858683 -0.58914644 -0.7608352 1.7772129 1.8597213 -0.5198437 1.4785185
-0.46872666 0.90014946 0.13015425 0.17891069 1.3612646 -0.81875086 1.0207264 -0.9018922
-1.1178033 1.3585802 0.4878153 3.8924775 -0.22761126 -0.65604496 1.2699754 0.0030854482
1.7443874 1.377631 2.2686672 3.5546033 -0.050434113 -0.86697346 -1.5856586 -3.1954865
1.7048373 -2.5029516 0.10354759 -2.9188066 -2.9424064 0.93885905 -1.6040692 2.2859983
-2.453897 -1.9429349 -1.3658594 -0.121819675 -0.7445214 0.36989763 -1.5567203 -0.48593503
-0.59151095 0.7284743 2.0216818 -0.22669408 2.7479792 0.6799522 -1.3100135 -1.2735785
0.42474526 -0.720286 -2.6991737 1.0197947 0.59258336 0.23642462 1.2630827 -2.5919628
2.180135 0.04593322 -1.0554247 -2.6349688 1.5661788 -3.669667 4.7466016 -1.2745528
-0.84972006 0.15229835 2.5812705 -5.084803 -0.5911548 -0.7107734 -0.15409335 0.54837525
-1.5240322 -1.3971689 -3.1468623 1.9577417 -2.0905588 2.5874717 -0.63679206 0.22996719
1.9587104 -1.7209944 0.10925019 0.43697008 0.9816534 2.0941534 -2.554635 1.2875475
2.1966388 1.0988228 2.207929 -1.3616369 0.72811985 0.6044824 -2.8020718 -1.0903009
4.0504227 -0.71762776 -3.9619422 -0.4506068 3.1483567 -1.0812052 -2.3920257 -0.9747803
2.534914 2.885893 1.4707208 -0.41165045 -0.09421286 -0.43204814 0.43432397 1.0898436
-2.2468777 -2.2829516 -1.9800037 0.18523063 -1.1762643 0.6450587 2.093919 -0.56216776
0.509227 -1.6074201 -0.67968214 -0.81118584 0.43380523 -2.780984 0.7868747 -0.91351914
2.0250587 -1.6724042 -5.6544194 -0.92077225 0.9717254 -1.7121018 -2.591648 1.5219871
-0.67923087 -1.1962489 0.19084932 1.9675641 0.6536269 6.5057287 3.1090791 -4.470983
0.52623785 4.7575707 -2.0740056 -0.006451568 1.9619108 -0.21358262 -3.6765742 0.04466082
-1.0227168 -1.8611151 0.40914452 -1.2083482 1.6446415 -0.36689347 -0.9208847 -1.1636577
0.23633087 1.382562 -1.482127 2.8202825 0.1271086 -2.039493 1.5028108 -3.1549282
-2.1412709 -0.7232799 0.7704096 1.3356661 3.3703594 1.5288224 -0.26027364 -3.0268176
-0.36241588 2.799867 -3.98357 0.46631566 -0.7014125 0.28222728 -3.0135677 -0.73266363
-1.2264308 -0.5433302 -0.40400913 -0.6111085 -0.8355827 1.6013322 0.2930668 1.2498319
0.6385293 -1.5880283 -0.8458792 2.3245683 -4.217526 -1.452673 1.1737525 -1.9053907
-1.7383351 0.6790771 -3.0522997 -1.7395597 0.95953935 0.35855958 -0.9284307 -2.0016217
1.1267905 3.3700674 1.1625608 0.76150054 -1.0253675 -1.6268772 -2.9535887 -2.267434
-1.3534677 -3.660561 -1.6895103 -0.47600758 -6.0040402 2.8144555 -1.0928189 -1.4660778
1.8142167 -2.9424994 1.7845484 3.5749662 1.9082981 -1.3955792 0.34429133 -0.114572585

layer3.bias f4 [24]
00000000: 0000 0000 0000 0000 0000 0000 0000 0000
00000010: 0000 0000 0000 0000 0000 0000 0000 0000
00000020: 0000 0000 0000 0000 0000 0000 0000 0000
00000030: 0000 0000 0000 0000 0000 0000 0000 0000
00000040: 0000 0000 0000 0000 0000 0000 0000 0000
00000050: 0000 0000 0000 0000 0000 0000 0000 0000
0.0 0.0 0.0 0.0 0.0 0.0 0.0 0.0
0.0 0.0 0.0 0.0 0.0 0.0 0.0 0.0
0.0 0.0 0.0 0.0 0.0 0.0 0.0 0.0

out_layer.weight f4 [4, 24]
00000000: fd98 bbbf abd2 b53f cc49 0b40 ef35 823f
00000010: 4149 5240 9ae9 48be a55d 7a3e c85c 1ebf
00000020: 74f7 453e 91bf 56bf 1e1e 94c0 55a9 d2bd
00000030: b49a 8540 2c96 c73f cc94 2d40 c614 a9bd
00000040: 0196 9dbd cef5 6540 3a64 fabf a52f adbf
00000050: db4a 903e a1a5 f8bf 3f4c 6fbf fe11 9e3f
00000060: f32c 00c0 1a09 60be 1a5c 4c3f ca24 9440
00000070: 7684 38bf 8482 2740 e6c6 64c0 fe4e 213e
00000080: 4f3a 8f3e b8dd 7dc0 5973 0dbd 4acf d8bf
00000090: dee9 df3f 085b 6240 16c1 aebf 96b1 a93f
000000a0: b367 42bf 3d35 a43f 2961 1a40 f317 f8be
000000b0: 7389 283f 6d9b 51bf f9d1 fcbd e43a a03f
000000c0: 906f 06c0 a9d5 30c0 0ef4 163e affd 09bf
000000d0: 313b 0c40 4f2a 00c0 3ee8 adbe 08bf eabf
000000e0: ae10 74bf 3242 7a40 6232 10be 615a 2f40
000000f0: 0dc5 673e dca6 2940 b329 2cbf 8bbc 14c0
00000100: 2b14 debf 2b23 cc3f 2c01 93c0 fda8 d4bf
00000110: 2983 3640 687e 293f 4d1c af3f 34ad 8140
00000120: 2fef 13c0 2c09 69c0 081c 373f a4c0 39c0
00000130: f516 e4bf e507 4e3f 0d61 1840 34c2 b53f
00000140: d760 82bf dfff afbf a038 8f40 467c 92bf
00000150: 7961 753f 0ad0 6d3d 8026 083f 91f9 e9bf
00000160: 7209 41c0 8882 4e3f 0e57 96be ed24 7140
00000170: 3900 dcbf 2770 c6bf 4350 2740 3333 dcbf
-1.4656063 1.4204916 2.1763792 1.0172709 3.285721 -0.19620362 0.24449785 -0.6186032
0.19332677 -0.8388606 -4.6286764 -0.10286204 4.1751347 1.5592704 2.7122068 -0.08255915
-0.076946266 3.5931277 -1.9561837 -1.3530165 0.2818211 -1.9425546 -0.9347572 1.2349241
-2.0027435 -0.21878472 0.79828036 4.629491 -0.7207712 2.617341 -3.5746398 0.1575279
0.27974173 -3.9666576 -0.034533832 -1.693826 1.7493246 3.536806 -1.3652675 1.325732
-0.7593948 1.2828747 2.4121802 -0.48455772 0.6583473 -0.81877786 -0.123447366 1.2517972
-2.1005592 -2.7630408 0.14741537 -0.53902715 2.1911128 -2.0025823 -0.3396625 -1.8339548
-0.9533795 3.9102902 -0.1408172 2.7398913 0.22633763 2.6508093 -0.6725113 -2.3240077
-1.7349905 1.5948232 -4.593893 -1.6614071 2.8517554 0.66208506 1.3680512 4.052393
-2.3114736 -3.6411848 0.7152715 -2.9023829 -1.7819506 0.80480796 2.3809235 1.4199891
-1.0185803 -1.3749961 4.475662 -1.1444175 0.95851856 0.05805973 0.53183746 -1.8279287
-3.0162015 0.80667925 -0.29363292 3.7678788 -1.7187568 -1.5502976 2.6142738 -1.7203125

out_layer.bias f4 [4]
00000000: 0000 0000 0000 0000 0000 0000 0000 0000
0.0 0.0 0.0 0.0
