src/ckpt/backupforconsensus/indiv_85.pt (torch_old, 72869 bytes, 6 tensors)

layer1.weight f4 [128, 8]
000000 c0 df 92 3e b9 72 cd bd e3 85 3f bf 8b 9f 86 be
       0.28686333 -0.10031647 -0.7481367 -0.26293597
000010 58 cc 7b bf dd 31 fa be 6b 19 31 bf 42 27 8f bf
       -0.9835868 -0.48866168 -0.6917941 -1.1183856
000020 c5 ab 6f 3e ca ab 81 bf ad 0f 61 3e c9 40 32 3f
       0.23405369 -1.0130551 0.21978636 0.69630104
000030 ba 5f 85 3f ce 00 84 bf be 28 9f bf 0d 86 28 3f
       1.0419838 -1.0312746 -1.2434309 0.65829545
000040 33 3d bb 3e 09 30 89 bf e0 2a a9 bf 6b ed 03 3d
       0.3657013 -1.0717784 -1.321621 0.03220884
000050 91 e4 9c 3f 89 75 30 3f 1c b2 d4 bf 2d e8 5e 3f
       1.2257253 0.68929344 -1.6616855 0.8707302
000060 bc 67 a1 3e ea 46 f1 be 4f 23 0e 40 a3 22 4e 3f
       0.31524456 -0.47124416 2.220905 0.805216
000070 f5 21 8c bc d3 af 60 bf 93 4d 05 3f 4e 7c 8c 3d
       -0.017106036 -0.87768286 0.52071494 0.06859647
000080 c7 b3 17 bf 5d 94 ac be 07 58 13 3f d3 fe 7f 3e
       -0.59258693 -0.33706942 0.57556194 0.24999551
000090 b2 2e 10 bf d6 f3 48 3e 0a 36 36 3f 8f 4a 57 3f
       -0.5632125 0.19624266 0.7117621 0.8409814
0000a0 ae 07 bd be f7 e0 c9 bf 0a 9f a1 3e fa c8 40 40
       -0.36919922 -1.5771779 0.3156665 3.0122666
0000b0 0f 7e 35 3f 32 94 df 3e a8 1e cd bf 0b 91 03 c0
       0.70895475 0.43667752 -1.602498 -2.0557277
0000c0 bb 35 ad bf 86 15 8e be 7a 4f 4a bf 9b 53 f6 be
       -1.3532022 -0.27750796 -0.7902752 -0.4811066
0000d0 54 da 14 bf 47 e8 d7 bf a5 09 67 3f 8c 5d 31 be
       -0.5814564 -1.686776 0.9024909 -0.17320842
0000e0 51 30 32 3f ff cf 52 bf d1 a0 85 3e 6e 20 0f 40
       0.69604975 -0.82348627 0.26099256 2.2363544
0000f0 63 49 dc be f3 1c 5d 3e 6a 18 f1 bf 26 75 74 3f
       -0.4302474 0.21593075 -1.8835576 0.95491254
000100 bb 4c 5d 3e 8b 82 b7 3f 9a 5e b3 be 32 d1 4a bf
       0.21611302 1.4336714 -0.35033113 -0.79225457
000110 ee 1b 0d bf 40 3e e1 3f 71 5e 21 be 4d 7a 09 bf
       -0.5512074 1.7597122 -0.15758683 -0.5370224
000120 6d 67 89 3f 65 10 82 bf 65 19 e6 3e fc 1e 14 3f
       1.0734688 -1.0161253 0.4494125 0.5785978
000130 81 2b 82 3f 39 4c 0c c0 f7 4e 58 3f e3 54 24 3f
       1.0169526 -2.1921523 0.8449549 0.64192027
000140 ea 4a 4a 3f 14 d5 80 3f 62 5b c2 be 78 82 86 3f
       0.7902056 1.0065026 -0.37960345 1.0508566
000150 69 64 b8 3f 45 9a df 3e ec 5b 1e c0 1d df 42 3e
       1.4405643 0.43672386 -2.4743605 0.19030423
000160 49 28 d1 bd d4 e3 b6 bf f7 24 df bf a3 aa 94 bf
       -0.10212762 -1.4288278 -1.7433156 -1.1614574
000170 02 a1 06 40 33 8c a8 be ce 9e 8d bf ca ae 19 3f
       2.1035771 -0.32919464 -1.1064088 0.6003233
000180 18 2d 7d 3f e2 f7 b2 bf e6 b8 f4 bd c5 1f 07 3f
       0.9889693 -1.3981898 -0.11949329 0.5278285
000190 30 53 9d 3f 6b 85 b0 bf b7 06 d2 3f 42 df ed bf
       1.2291012 -1.3790716 1.6408299 -1.8583758
0001a0 9c 55 92 3f 80 ac f4 3f 3f ff 42 3f 51 fc a4 bf
       1.1432376 1.9115143 0.76170725 -1.2889501
0001b0 f1 8d 95 bf 87 44 9f bd ee b8 90 3f 6a e7 49 3f
       -1.1683942 -0.077767424 1.1306436 0.78868735
0001c0 36 bb 68 bf 77 fd 42 3f 5c 63 54 3f a1 c2 70 3e
       -0.9091066 0.76168007 0.8296411 0.23511745
0001d0 35 09 6f bd 0f e4 8b 3e d1 04 a9 3f df 29 81 3f
       -0.05835839 0.27322432 1.3204595 1.0090903
0001e0 b9 46 00 bf 79 bd 90 3f 50 8c 18 3e db be c3 be
       -0.50107914 1.1307822 0.14897275 -0.3823155
0001f0 22 23 96 bf 3e a9 86 bf 20 ee 60 3d db a2 64 3f
       -1.1729472 -1.0520399 0.054914594 0.89311
000200 14 4e bf bf 0d 29 34 3f c0 df 14 bf 40 73 97 3e
       -1.4945703 0.7037514 -0.58153915 0.29580116
000210 20 8b 7f 3f bf 78 b7 bf a7 af 95 3f 34 81 59 be
       0.9982166 -1.4333724 1.169423 -0.21240693
000220 25 65 a0 bf 99 f9 6d 3f 0d d7 f7 bf 19 31 06 3f
       -1.2530867 0.9295898 -1.9362503 0.5241867
000230 e4 ae 02 be 2c 16 4c 3f 29 dc bb bf 9a 71 61 bf
       -0.12762028 0.7972133 -1.4676563 -0.8806397
000240 ea ef d1 bf 28 96 f1 3e 8a 2f 93 3e bb 17 4d bd
       -1.6401341 0.47184873 0.28747207 -0.05007146
000250 68 e3 90 3e ac 29 f4 3f 8d 37 59 bf 26 ff 28 bc
       0.28298497 1.9075217 -0.8485039 -0.010314738
000260 18 ea 18 3f cb 70 b8 3f 71 83 a2 be 7b 14 8a bf
       0.597322 1.4409422 -0.31740907 -1.07875
000270 65 8b d4 bf 55 a5 bd 3e 91 8a ef be e4 d6 2c bf
       -1.660504 0.370402 -0.46785405 -0.675154
000280 12 21 e7 3e 0d 80 bb bf eb dd 84 bf 99 21 57 3d
       0.45142418 -1.4648453 -1.0380224 0.052522276
000290 e4 d5 1f 3f 1e 11 cd 3f 54 9f c0 3f 11 e7 48 bf
       0.62435746 1.6020849 1.5048623 -0.7847758
0002a0 a5 df f3 bd ca 46 68 3e f2 f6 8f bf 8e 58 14 c0
       -0.11907891 0.22683254 -1.1247237 -2.317905
0002b0 23 4f e9 3f 0e 58 a2 3e d2 f0 f2 3d e0 ab c7 3e
       1.8227276 0.31707805 0.11862339 0.38998318
0002c0 a9 fc e7 be f4 e3 09 bf 2f 7e e0 be 82 fd 0f 3f
       -0.45309952 -0.53863454 -0.4384627 0.562462
0002d0 89 b6 72 3f 23 e2 ed bf af 21 ad bf a5 54 07 bf
       0.94809777 -1.8584636 -1.3525904 -0.5286353
0002e0 57 5c 0f 3f 11 16 30 bf ec 67 c9 3e 0b 35 b6 be
       0.56000274 -0.6878367 0.393371 -0.35587344
0002f0 b4 93 98 be 22 f9 c5 3f 7f 7d af bf 44 65 af be
       -0.2980019 1.5466654 -1.3710173 -0.34256947
000300 87 e2 bd 3d 5c 67 97 3f 85 94 6c bd d8 34 86 3e
       0.09271722 1.1828418 -0.057758827 0.26212192
000310 e7 50 ce 3e 74 67 88 bf 53 40 6a bf 73 cf 1e 3e
       0.402961 -1.0656571 -0.915044 0.15508823
000320 8a 35 ba 3e d5 40 7f bf 10 36 a7 3e 97 ea fa 3e
       0.36368972 -0.997083 0.32658434 0.49007103
000330 b8 a9 f1 bf 59 a9 c2 3e 4c 41 22 3e e6 bf 45 bf
       -1.8879919 0.38019827 0.15845221 -0.7724594
000340 a5 f6 80 bf 1a b2 03 3f ce a6 2a be 1d a9 12 3d
       -1.007527 0.51443636 -0.16665193 0.03580581
000350 bb 53 6a be 6b 59 54 bf 8c 11 12 3f ed ef c5 3f
       -0.22883503 -0.8294894 0.57058024 1.5463845
000360 81 db 03 bf db e8 f6 3e 00 14 9e 3e 5a 02 fa 3e
       -0.5150681 0.4822453 0.30874634 0.4882992
000370 fe e0 e5 3f 02 c1 77 be e1 6d b8 3f d9 9a 81 bf
       1.7959287 -0.2419472 1.4408532 -1.0125381
000380 1c f5 0c bf 16 70 36 bf 75 90 31 bf b6 2d 44 3f
       -0.5506151 -0.7126478 -0.6936105 0.7663225
000390 22 ef e7 be 03 c6 a4 3e a4 ab 30 be 81 98 df be
       -0.4529963 0.3218232 -0.17252976 -0.4367104
0003a0 b0 3f 55 bf 22 ac 19 3f 5f b0 98 bf 16 b2 84 3e
       -0.83300304 0.6002828 -1.1928824 0.2591712
0003b0 c0 a0 2e bf 59 be 9e be bb c5 c1 3e 54 e3 7c 3f
       -0.68214035 -0.310046 0.3784617 0.98784375
0003c0 11 0e 12 be ff 08 ab 3f 81 a5 cc be 8e 19 b7 3e
       -0.14263178 1.336212 -0.3997002 0.35761684
0003d0 fc 11 c6 3e 5e 81 57 bf 96 a1 c2 be d1 c6 f4 3f
       0.38685596 -0.84181774 -0.38013905 1.9123174
0003e0 40 5d 10 3e 19 2d c0 be f0 22 42 3f 8b e2 b5 3d
       0.14098072 -0.37534407 0.7583456 0.088811
0003f0 f7 53 97 be ec 25 67 bf f2 1a 36 be 47 b0 d6 bd
       -0.29556248 -0.9029224 -0.17783716 -0.10482841

layer1.bias f4 [128]
000000 00 00 00 00 00 00 00 00 00 00 00 00 00 00 00 00
       0.0 0.0 0.0 0.0
000010 00 00 00 00 00 00 00 00 00 00 00 00 00 00 00 00
       0.0 0.0 0.0 0.0
000020 00 00 00 00 00 00 00 00 00 00 00 00 00 00 00 00
       0.0 0.0 0.0 0.0
000030 00 00 00 00 00 00 00 00 00 00 00 00 00 00 00 00
       0.0 0.0 0.0 0.0
000040 00 00 00 00 00 00 00 00 00 00 00 00 00 00 00 00
       0.0 0.0 0.0 0.0
000050 00 00 00 00 00 00 00 00 00 00 00 00 00 00 00 00
       0.0 0.0 0.0 0.0
000060 00 00 00 00 00 00 00 00 00 00 00 00 00 00 00 00
       0.0 0.0 0.0 0.0
000070 00 00 00 00 00 00 00 00 00 00 00 00 00 00 00 00
       0.0 0.0 0.0 0.0
000080 00 00 00 00 00 00 00 00 00 00 00 00 00 00 00 00
       0.0 0.0 0.0 0.0
000090 00 00 00 00 00 00 00 00 00 00 00 00 00 00 00 00
       0.0 0.0 0.0 0.0
0000a0 00 00 00 00 00 00 00 00 00 00 00 00 00 00 00 00
       0.0 0.0 0.0 0.0
0000b0 00 00 00 00 00 00 00 00 00 00 00 00 00 00 00 00
       0.0 0.0 0.0 0.0
0000c0 00 00 00 00 00 00 00 00 00 00 00 00 00 00 00 00
       0.0 0.0 0.0 0.0
0000d0 00 00 00 00 00 00 00 00 00 00 00 00 00 00 00 00
       0.0 0.0 0.0 0.0
0000e0 00 00 00 00 00 00 00 00 00 00 00 00 00 00 00 00
       0.0 0.0 0.0 0.0
0000f0 00 00 00 00 00 00 00 00 00 00 00 00 00 00 00 00
       0.0 0.0 0.0 0.0
000100 00 00 00 00 00 00 00 00 00 00 00 00 00 00 00 00
       0.0 0.0 0.0 0.0
000110 00 00 00 00 00 00 00 00 00 00 00 00 00 00 00 00
       0.0 0.0 0.0 0.0
000120 00 00 00 00 00 00 00 00 00 00 00 00 00 00 00 00
       0.0 0.0 0.0 0.0
000130 00 00 00 00 00 00 00 00 00 00 00 00 00 00 00 00
       0.0 0.0 0.0 0.0
000140 00 00 00 00 00 00 00 00 00 00 00 00 00 00 00 00
       0.0 0.0 0.0 0.0
000150 00 00 00 00 00 00 00 00 00 00 00 00 00 00 00 00
       0.0 0.0 0.0 0.0
000160 00 00 00 00 00 00 00 00 00 00 00 00 00 00 00 00
       0.0 0.0 0.0 0.0
000170 00 00 00 00 00 00 00 00 00 00 00 00 00 00 00 00
       0.0 0.0 0.0 0.0
000180 00 00 00 00 00 00 00 00 00 00 00 00 00 00 00 00
       0.0 0.0 0.0 0.0
000190 00 00 00 00 00 00 00 00 00 00 00 00 00 00 00 00
       0.0 0.0 0.0 0.0
0001a0 00 00 00 00 00 00 00 00 00 00 00 00 00 00 00 00
       0.0 0.0 0.0 0.0
0001b0 00 00 00 00 00 00 00 00 00 00 00 00 00 00 00 00
       0.0 0.0 0.0 0.0
0001c0 00 00 00 00 00 00 00 00 00 00 00 00 00 00 00 00
       0.0 0.0 0.0 0.0
0001d0 00 00 00 00 00 00 00 00 00 00 00 00 00 00 00 00
       0.0 0.0 0.0 0.0
0001e0 00 00 00 00 00 00 00 00 00 00 00 00 00 00 00 00
       0.0 0.0 0.0 0.0
0001f0 00 00 00 00 00 00 00 00 00 00 00 00 00 00 00 00
       0.0 0.0 0.0 0.0

layer2.weight f4 [128, 128]
000000 d5 e1 13 bf c2 9d 16 c0 47 0b 6c 3f 87 e6 d7 bd
       -0.5776647 -2.3533788 0.9220471 -0.105420165
000010 5d 0f 16 3f d3 4d 7b be b2 07 0f bf 56 2a b4 3f
       0.5861719 -0.24541406 -0.5587112 1.407542
000020 46 01 92 3f ff 3c 18 bf 01 48 b6 bf 10 97 99 3f
       1.1406639 -0.5946807 -1.4240724 1.1999226
000030 65 c0 ea 3e cd 17 2b 3f d9 7d a0 bf ed 85 26 bf
       0.4584991 0.6683319 -1.2538406 -0.65048105
000040 19 9d e9 3e ac 54 8c bf 53 8e 88 3f d6 9a cb 3e
       0.45627668 -1.096334 1.0668434 0.39766568
000050 0c 3b 95 3f dd 0e be be 33 5c 2a 40 14 ea 4b 3f
       1.1658645 -0.37120715 2.6618774 0.7965405
000060 0e bb c3 bf c9 8f 07 3f 7c 43 97 bf 66 b8 78 bf
       -1.529146 0.52953774 -1.181747 -0.9715637
000070 8e e5 3b 3f f0 13 1a be 5a eb fd be 77 ac e2 bf
       0.7339715 -0.15046668 -0.49593621 -1.7708882
000080 61 43 a6 bd df 49 d6 3e 5e d3 57 bd b6 e3 08 c0
       -0.0811832 0.41853234 -0.05269181 -2.1388984
000090 09 61 29 3f 72 c6 dc 3d fb 1b b3 bf c0 d3 1d bf
       0.6616369 0.10780038 -1.3992914 -0.6165123
0000a0 d5 b7 41 bf c2 12 4e bf 15 13 c9 be 7c 99 d6 be
       -0.7567113 -0.8049737 -0.3927237 -0.41913974
0000b0 c7 48 9a 3f 56 dc 5e 3d 11 ef ff be fd ee 42 bf
       1.205346 0.054409347 -0.4998708 -0.7614592
0000c0 46 e9 c1 be b6 a1 af bf f1 a0 81 bd 09 2f 42 3f
       -0.37873286 -1.3721225 -0.06329525 0.7585302
0000d0 23 a3 28 c0 1d 55 de bc 99 aa 96 3d fb 2b 38 40
       -2.634957 -0.027140195 0.07356758 2.8776844
0000e0 af 43 ba bf b4 50 60 bf 8b 9d 84 3c fe 41 b4 bf
       -1.4551905 -0.87623143 0.016188404 -1.4082639
0000f0 5d 3f ba 3f d7 ae 94 bf 11 5a bc bd f1 ca bd 3e
       1.4550587 -1.1615857 -0.09196866 0.37068895
000100 37 e3 d4 3f 19 cb 29 3f e0 68 92 bd 95 b7 95 bf
       1.663184 0.6632553 -0.071489096 -1.169665
000110 99 c7 98 3c 6a b2 42 bf c8 82 92 bf 76 ce 59 bd
       0.018649863 -0.7605349 -1.1446161 -0.053175412
000120 a1 a9 8f 3f 1b 24 b9 3f 63 cd 60 3f 38 66 ad 3f
       1.1223642 1.4464144 0.87813395 1.354682
000130 bc ed d2 3e 37 ab 61 3f bb b4 bb 3e 8a a2 a7 bf
       0.41197002 0.8815188 0.36661324 -1.3096478
000140 ef c0 a7 3f 9f e6 46 bd c2 30 85 bf 72 5f 0f 3f
       1.3105754 -0.04855978 -1.0405505 0.56005013
000150 4d 80 91 be 68 74 1c bf 9a 6c e7 3d b6 5a 0a be
       -0.28418198 -0.6111512 0.11300011 -0.13511166
000160 14 94 98 3f 31 5c 9f bf af f4 42 3f e2 c3 28 bf
       1.192019 -1.245001 0.7615461 -0.65923893
000170 27 f0 65 3f 34 24 b3 bd 86 a6 eb 3f 54 30 17 bf
       0.8981957 -0.087471396 1.8410194 -0.5905812
000180 09 ec 9f 3e 7f f7 47 3f 91 9c 5c 3e 4a 6f 77 3f
       0.31234768 0.78112024 0.215441 0.9665419
000190 17 b6 69 3f 57 fa 83 be 3e ce b0 3c 85 64 d7 be
       0.9129347 -0.25776932 0.021582719 -0.42068878
0001a0 ce 57 db bd 83 6c 03 c0 71 13 50 bf c5 d3 25 bf
       -0.10710107 -2.053498 -0.81279665 -0.6477626
0001b0 1f f3 32 bf ce df 7f bf 90 3e 69 3f ed 0c 09 c0
       -0.69902223 -0.99950874 0.9111109 -2.141414
0001c0 2e d2 4e 3f a9 fa 09 bf c3 35 fc bf dc e0 c9 3f
       0.8078946 -0.538981 -1.9703907 1.5771747
0001d0 b6 35 64 3f fa b6 73 3f 79 46 d4 bf ea 97 a5 3e
       0.89144456 0.95201075 -1.6584007 0.32342464
0001e0 10 14 28 bf 30 97 e9 3f 96 a9 03 c0 94 38 8e be
       -0.6565561 1.8249264 -2.0572257 -0.2777754
0001f0 8c 35 1b 3f fe 26 70 3f 19 66 98 bf f2 c7 b4 bf
       0.6062858 0.938095 -1.1906158 -1.4123518
000200 61 af 8a bf a5 d2 76 bf a5 08 8c 3f 74 be 1a c0
       -1.0834771 -0.9641517 1.0940138 -2.4178743
000210 d7 60 57 bf 15 75 35 40 46 c1 d0 bf d7 19 9a bd
       -0.8413214 2.8352711 -1.6308982 -0.0752446
000220 49 1e 03 3d c4 26 65 bf 2b ef bd bf cb f3 9d 3d
       0.032011304 -0.89512277 -1.4838613 0.077125154
000230 50 d5 51 3f 4c bf 8e 3d 2a 42 22 3f 2c 70 96 3d
       0.81966114 0.06970081 0.6338221 0.07345614
000240 b2 30 88 3f 01 02 4f 3e 54 05 23 40 f1 c0 23 3f
       1.0639861 0.20215608 2.5472002 0.6396628
000250 d9 af c7 bf b7 15 b8 bd de 40 ab 3d d0 5f 50 3e
       -1.560054 -0.08988517 0.08361982 0.2034905
000260 bc a0 a9 3e 6d 16 ed 3f 4f bb ed be 41 71 a2 3f
       0.33130443 1.8522469 -0.46431968 1.2690812
000270 09 a2 ea bd fe ac 0e bf f3 58 44 3f fe 91 0c 3f
       -0.11456687 -0.55732715 0.76698226 0.54910266
000280 34 9d 75 bf 1f 86 5b 3f 92 7c 41 bf 37 e0 c8 3e
       -0.95943 0.8575153 -0.75580704 0.39233562
000290 8e 12 51 3f 7b 0c 99 3f 3a 1e af bf 33 73 98 bf
       0.8166894 1.1956934 -1.36811 -1.1910156
0002a0 cc a0 8c bf cc 7f 3d bf 0a cd 01 3f 33 09 96 3f
       -1.0986571 -0.7402313 0.5070349 1.1721557
0002b0 d3 9c c2 bf 32 57 38 3f 84 82 d1 bf c1 74 43 bf
       -1.5204109 0.7200805 -1.6367955 -0.7635003
0002c0 f8 4c 03 40 02 2f 80 3f 2a e8 8f 3f 95 2e 5b 3f
       2.0515728 1.0014346 1.1242726 0.85617954
0002d0 05 40 18 bf ee 77 42 bf b4 da 32 bf 4c 33 06 3e
       -0.59472686 -0.7596425 -0.69864964 0.13105506
0002e0 d6 80 8e bf 46 e4 b3 bf 34 90 28 3d b9 e1 8f 3f
       -1.1133068 -1.4054039 0.041153148 1.124076
0002f0 85 ce fc 3e 82 d4 66 3f 5d 33 f6 3e a6 46 9f bf
       0.49376312 0.9016801 0.48086062 -1.2443435
000300 79 75 ed bf 28 27 44 3f 7a 3b 3a 3f 37 a4 da bf
       -1.8551475 0.7662225 0.72747004 -1.7081364
000310 08 8d fa 3f 5c 9b fb bd a9 9d 93 3f b9 dc c5 bf
       1.9574289 -0.12285492 1.1532489 -1.5457984
000320 98 06 65 3e f0 f9 ee 3f 30 7b f8 3f 54 e8 51 bf
       0.22365797 1.8670025 1.9412594 -0.8199513
000330 34 b4 7b bf 65 f8 f7 bc 1c 35 1b 3f 02 6c 88 3f
       -0.98321843 -0.03026981 0.60627913 1.0657961
000340 b1 c6 56 3f 66 e0 2c 40 19 ef 57 be 53 69 ad 3f
       0.8389693 2.7011962 -0.21087302 1.3547767
000350 7a 2f 32 be b6 77 bb bf 84 59 9d 3e 28 9f da be
       -0.17400923 -1.4645908 0.30732358 -0.42699552
000360 f8 5c 16 3f d6 9c 89 bf 08 2f be 3e 95 72 47 bf
       0.5873561 -1.0750988 0.37145257 -0.77909213
000370 0c 19 6f bf c6 fd 2f bd e0 6e b9 3e 4e af 62 bf
       -0.93397593 -0.042966627 0.36217403 -0.88548744
000380 2a 0f 23 bf ef 62 9a 3e a2 b0 48 bd 7b 1a 83 3f
       -0.63695014 0.30153605 -0.048996575 1.0242456
000390 cb f9 dc be 02 4e b2 bd 7c df 50 bf e8 ee 3b 3f
       -0.43159327 -0.08706285 -0.8159101 0.73411417
0003a0 a2 bc 0b bf fb 91 82 3d 91 43 a2 3f e5 11 c0 3e
       -0.54584706 0.063755 1.267687 0.37513652
0003b0 25 47 ce bf 87 6f 50 3f 00 d5 31 bf 9b eb 17 c0
       -1.6115462 0.8142018 -0.6946564 -2.3737552
0003c0 f3 1a 9b 3d ae 1e e1 3f de 4e 06 bf ca 77 88 3f
       0.075734995 1.7587488 -0.5246409 1.0661557
0003d0 6f d5 ad 3e 6a fe 05 40 4f 47 5a 3f 20 7d 95 bf
       0.339519 2.0936532 0.8526506 -1.167881
0003e0 90 68 e7 be da 7a 25 3f 0b 3f 04 c0 b1 9d b1 3f
       -0.45196962 0.6464058 -2.0663478 1.3876249
0003f0 5a fd c2 3e 4a e6 83 bf 3d 0c e1 3f c7 ce b5 be
       0.38083917 -1.0304654 1.758186 -0.3550932

layer2.bias f4 [128]
000000 00 00 00 00 00 00 00 00 00 00 00 00 00 00 00 00
       0.0 0.0 0.0 0.0
000010 00 00 00 00 00 00 00 00 00 00 00 00 00 00 00 00
       0.0 0.0 0.0 0.0
000020 00 00 00 00 00 00 00 00 00 00 00 00 00 00 00 00
       0.0 0.0 0.0 0.0
000030 00 00 00 00 00 00 00 00 00 00 00 00 00 00 00 00
       0.0 0.0 0.0 0.0
000040 00 00 00 00 00 00 00 00 00 00 00 00 00 00 00 00
       0.0 0.0 0.0 0.0
000050 00 00 00 00 00 00 00 00 00 00 00 00 00 00 00 00
       0.0 0.0 0.0 0.0
000060 00 00 00 00 00 00 00 00 00 00 00 00 00 00 00 00
       0.0 0.0 0.0 0.0
000070 00 00 00 00 00 00 00 00 00 00 00 00 00 00 00 00
       0.0 0.0 0.0 0.0
000080 00 00 00 00 00 00 00 00 00 00 00 00 00 00 00 00
       0.0 0.0 0.0 0.0
000090 00 00 00 00 00 00 00 00 00 00 00 00 00 00 00 00
       0.0 0.0 0.0 0.0
0000a0 00 00 00 00 00 00 00 00 00 00 00 00 00 00 00 00
       0.0 0.0 0.0 0.0
0000b0 00 00 00 00 00 00 00 00 00 00 00 00 00 00 00 00
       0.0 0.0 0.0 0.0
0000c0 00 00 00 00 00 00 00 00 00 00 00 00 00 00 00 00
       0.0 0.0 0.0 0.0
0000d0 00 00 00 00 00 00 00 00 00 00 00 00 00 00 00 00
       0.0 0.0 0.0 0.0
0000e0 00 00 00 00 00 00 00 00 00 00 00 00 00 00 00 00
       0.0 0.0 0.0 0.0
0000f0 00 00 00 00 00 00 00 00 00 00 00 00 00 00 00 00
       0.0 0.0 0.0 0.0
000100 00 00 00 00 00 00 00 00 00 00 00 00 00 00 00 00
       0.0 0.0 0.0 0.0
000110 00 00 00 00 00 00 00 00 00 00 00 00 00 00 00 00
       0.0 0.0 0.0 0.0
000120 00 00 00 00 00 00 00 00 00 00 00 00 00 00 00 00
       0.0 0.0 0.0 0.0
000130 00 00 00 00 00 00 00 00 00 00 00 00 00 00 00 00
       0.0 0.0 0.0 0.0
000140 00 00 00 00 00 00 00 00 00 00 00 00 00 00 00 00
       0.0 0.0 0.0 0.0
000150 00 00 00 00 00 00 00 00 00 00 00 00 00 00 00 00
       0.0 0.0 0.0 0.0
000160 00 00 00 00 00 00 00 00 00 00 00 00 00 00 00 00
       0.0 0.0 0.0 0.0
000170 00 00 00 00 00 00 00 00 00 00 00 00 00 00 00 00
       0.0 0.0 0.0 0.0
000180 00 00 00 00 00 00 00 00 00 00 00 00 00 00 00 00
       0.0 0.0 0.0 0.0
000190 00 00 00 00 00 00 00 00 00 00 00 00 00 00 00 00
       0.0 0.0 0.0 0.0
0001a0 00 00 00 00 00 00 00 00 00 00 00 00 00 00 00 00
       0.0 0.0 0.0 0.0
0001b0 00 00 00 00 00 00 00 00 00 00 00 00 00 00 00 00
       0.0 0.0 0.0 0.0
0001c0 00 00 00 00 00 00 00 00 00 00 00 00 00 00 00 00
       0.0 0.0 0.0 0.0
0001d0 00 00 00 00 00 00 00 00 00 00 00 00 00 00 00 00
       0.0 0.0 0.0 0.0
0001e0 00 00 00 00 00 00 00 00 00 00 00 00 00 00 00 00
       0.0 0.0 0.0 0.0
0001f0 00 00 00 00 00 00 00 00 00 00 00 00 00 00 00 00
       0.0 0.0 0.0 0.0

out_layer.weight f4 [2, 128]
000000 ce ce d5 3f 7a c3 72 3f b6 e9 2b 3f 9e 47 a1 3e
       1.6703737 0.94829524 0.6715349 0.31499952
000010 0c 42 3d 3f 9e 59 cb 3e c1 6a 16 3f 01 26 ad bf
       0.73928905 0.3971681 0.58756644 -1.3527223
000020 6e ff 4e bf 8e e6 55 3e 70 d2 aa bf 42 8f 68 3f
       -0.80858505 0.20888731 -1.334547 0.90843594
000030 23 d3 50 3d da ef 17 be 88 28 3a bf 4a 6a 2e 3e
       0.050982606 -0.1483759 -0.72718096 0.17032734
000040 97 bb fe be 04 5e cf be 46 b4 ef be 2f c6 01 40
       -0.49752495 -0.40501416 -0.46817225 2.0277212
000050 91 5e 02 c0 0f f3 06 40 05 59 ea be 08 3f 92 bf
       -2.0370219 2.1085851 -0.45771042 -1.1425486
000060 94 b2 d6 3e 06 e3 10 3f bd 2e 11 3f 66 80 4a bf
       0.4193312 0.5659641 0.5671194 -0.7910217
000070 76 9d 4b be 4a 5b bd 3e 4c df b2 3e 2d 74 53 3e
       -0.19884285 0.3698371 0.34935987 0.20649786
000080 85 37 80 be 89 89 5d be 91 20 a7 be c7 4b 0b bf
       -0.25042358 -0.21634497 -0.32642034 -0.544125
000090 fc 48 03 c0 4d 45 e1 3e 50 b8 91 3f 42 76 be 3f
       -2.0513296 0.43998185 1.1384373 1.487984
0000a0 a2 0b 5e 3f 02 ac 6c 3e 17 66 71 3e 99 4e 01 bf
       0.867365 0.23112491 0.235741 -0.50510556
0000b0 77 c3 92 be 32 e5 d5 bf 41 fc 4f 3f 96 69 ac 3d
       -0.28664753 -1.671057 0.81244284 0.084185764
0000c0 8e 6c 50 3f 78 a2 89 be 38 fd 5f 3f 44 3d 98 3f
       0.8141564 -0.26881766 0.87495756 1.1893697
0000d0 e1 c1 b4 bd 50 d4 fa 3f 38 b2 94 be 11 31 01 3c
       -0.08826042 1.9596043 -0.2904222 0.0078852335
0000e0 d0 b5 d0 3d ae 7c b9 3e 21 96 21 bf c1 67 e6 3d
       0.10190928 0.36227936 -0.63119704 0.11250258
0000f0 33 a5 69 be 5c cc 1f bf 6d 07 fe bd 5e ad b8 3e
       -0.22816925 -0.624212 -0.1240376 0.3606977
000100 ce ac 4f 3f 24 ec ab 3f a4 57 fa bc 02 cf 90 3e
       0.81123054 1.3431439 -0.030559368 0.28282934
000110 d7 d9 3a 3f 26 66 62 be 79 26 8d 3f 6f 42 af 3f
       0.7298865 -0.22109279 1.1027366 1.3692149
000120 d7 a1 7c 3f 46 99 f1 bf eb 2f 74 bf f0 f2 1c bf
       0.9868445 -1.88749 -0.95385617 -0.61308193
000130 66 f7 ef 3c f8 7f 12 3e 8c ee 7f 3f 73 90 64 bf
       0.029292773 0.14306629 0.9997337 -0.8928291
000140 e6 ac 18 bf 69 b5 10 bf 8f 9b 06 c0 3f 9f f7 3e
       -0.5963882 -0.5652681 -2.1032445 0.48363683
000150 c1 2e f6 3e c2 7e 96 bf bb ec 2b c0 62 c1 1c 3e
       0.48082545 -1.1757433 -2.686324 0.15308145
000160 fa 73 d1 bf 59 bc 90 3f 7d da 56 3f eb 74 bc be
       -1.6363518 1.1307479 0.83927137 -0.3680795
000170 f4 df b1 3e 4d c4 6d bf 27 93 be 3f 5e 94 d4 be
       0.34741175 -0.92877656 1.4888657 -0.41519445
000180 41 a9 93 be 38 ba bb bf 38 e0 eb bf 0f 59 78 3f
       -0.28840068 -1.4666204 -1.8427801 0.9701089
000190 cf 9c aa 3c 1c a6 1d 3f 53 ff c9 bf 27 33 aa 3e
       0.020826725 0.6158159 -1.5781044 0.3324215
0001a0 5f fe 20 be 96 de 8c 3f 35 d9 aa bf 76 1f b1 bf
       -0.15722035 1.1005428 -1.3347536 -1.3837726
0001b0 c3 ac 0a 3f 90 66 d3 be d1 3d a1 bf ca a1 f9 be
       0.54169863 -0.41289186 -1.259699 -0.48756248
0001c0 68 a5 cd bf d2 be 23 bf 00 64 c5 bf dc b0 d0 bf
       -1.6066103 -0.63963044 -1.5421143 -1.6303973
0001d0 32 8a da bd 43 cf 5f bf ef 3c 9f bf 40 74 8f 3d
       -0.1067089 -0.8742563 -1.244047 0.07004595
0001e0 b4 b8 35 bf 79 1c 84 bf 38 f1 53 3d 50 c5 a4 bf
       -0.7098496 -1.0321189 0.051743716 -1.2872715
0001f0 6e b2 a4 bd 72 50 92 3f 02 04 a3 3f 3f 0f 1a c0
       -0.08041845 1.14308 1.2735598 -2.4071805
000200 db 53 64 3d f1 8e 6f 3f 05 a2 6f bf db bc 90 3f
       0.055744033 0.93577486 -0.936066 1.1307634
000210 c2 7c 3a bf ad 5c 9b be 83 69 26 3f ac e4 80 be
       -0.72846615 -0.30344144 0.6500475 -0.25174463
000220 85 f7 03 c0 2d 0b e0 3e a9 40 8b bf f8 ec 78 bf
       -2.0619824 0.43758526 -1.0879108 -0.97236586
000230 75 5c 9c 3c 2f 89 e3 bf 2b 87 c4 3f af 17 64 3f
       0.019087056 -1.777624 1.535375 0.8909864
000240 d2 09 34 bf 4f 90 76 bf 3f 69 64 3f b1 5c 8f be
       -0.70327485 -0.9631395 0.8922309 -0.28000405
000250 e5 86 e7 3f 1a fd c4 3d 7b 0b 87 3e 44 41 ca 3f
       1.8088042 0.09618588 0.26375946 1.5801167
000260 87 72 b8 bf 84 f5 4f bf f7 f5 c8 3e 70 8b 1e bc
       -1.4409951 -0.81234 0.39250156 -0.009676799
000270 f9 cb 62 3f 72 01 7d bf 56 22 19 3f 00 74 ca bf
       0.8859249 -0.9883033 0.5981802 -1.581665
000280 ef e7 01 40 1d 04 06 bf 17 64 58 bf 4b 53 80 bf
       2.029781 -0.52350026 -0.84527725 -1.0025419
000290 ca 5f d5 3e e8 29 09 3c e9 ba 88 bf c1 a9 ec bf
       0.41674644 0.008371808 -1.068204 -1.8489305
0002a0 14 92 13 40 af b0 61 bf 19 0f 5f bf c3 4b 51 be
       2.305791 -0.8816022 -0.8713241 -0.20439057
0002b0 01 8b 35 bf 89 85 72 be 21 d5 47 3e 8b 21 5e bf
       -0.7091523 -0.23683752 0.19514896 -0.8676993
0002c0 75 ab b8 3e 85 5c f3 3f 32 ee 1d 3f 12 74 15 bf
       0.3606831 1.901261 0.6169158 -0.58380234
0002d0 c0 14 c7 3f 4c d2 7c 3e ee ab 22 bf a5 b4 e0 be
       1.5553207 0.24689597 -0.63543594 -0.4388782
0002e0 ef a3 81 bf 0a f5 44 3e b0 72 94 3f 89 24 09 3e
       -1.0128154 0.192341 1.15975 0.13392843
0002f0 0e 99 34 3f f2 3a 92 3f 1a a1 22 bf b2 d3 e7 bf
       0.7054604 1.1424239 -0.6352707 -1.8111479
000300 5e 91 a8 3d 6b 5f e3 3f e2 d3 9d 3e 15 e3 39 bf
       0.082308516 1.7763494 0.30825716 -0.72612125
000310 74 ba f4 3f d8 80 70 c0 36 20 30 c0 83 5a be 3f
       1.9119401 -3.757864 -2.751966 1.4871372
000320 53 76 27 be d7 ac 78 3f 61 af 86 3e a0 2e 59 3e
       -0.16353731 0.9713873 0.26305678 0.21209192
000330 62 8b dd 3f 83 27 b2 3f b3 ac 88 bf ff 55 61 3a
       1.7308161 1.3918308 -1.0677704 0.0008595883
000340 b4 43 10 3f 17 fa 9e bf be ab 00 3c df d4 01 c0
       0.56353307 -1.2420071 0.0078534465 -2.0286176
000350 03 88 cd 3e e4 eb 63 3f 35 af c8 3e c7 48 46 3f
       0.4014283 0.89031816 0.39196172 0.774548
000360 8d ac 3c 3e ad c2 39 3f f2 c0 97 be d3 86 03 3e
       0.18425198 0.72562677 -0.29639393 0.128444
000370 d3 1f f8 3d 3b e0 e1 3e 6d ef a9 3f 60 48 9b 3e
       0.12115445 0.44116387 1.3276192 0.30328655
000380 a8 cf f3 3e bd b8 3b 3f 0a 74 f7 3e 8b 4c 21 bf
       0.47619367 0.73328763 0.48330718 -0.6300742
000390 42 9d 00 bf da 34 88 bf fd b1 1c be 3c 78 24 3d
       -0.50239956 -1.0641129 -0.15302272 0.040153727
0003a0 b3 83 47 3f 7a 82 ad 3e e2 b6 1f 3e 18 8e 38 3e
       0.7793533 0.33888608 0.15597108 0.18022954
0003b0 4c 40 43 3f a2 85 1e 3f b4 a5 86 3f 9a 18 87 bd
       0.76269984 0.6192266 1.0519319 -0.06596489
0003c0 bd 9e 7a bf 01 d8 ca bf 06 0d 94 3f c2 1c cd 3f
       -0.97898465 -1.5847169 1.1566474 1.6024401
0003d0 34 91 15 3d 9a 31 05 3f 12 09 4f be 9c b0 23 3e
       0.03651543 0.5202881 -0.20218304 0.1598534
0003e0 5b 54 1f 3f 4e ec f9 bf 11 52 26 40 a1 61 9c 3c
       0.6223809 -1.952524 2.598759 0.019089522
0003f0 9f ff d7 bf 17 4d 99 3f e5 90 f1 be 5f d8 92 be
       -1.6874884 1.1976651 -0.47180858 -0.28680703

out_layer.bias f4 [2]
000000 00 00 00 00 00 00 00 00
       0.0 0.0
