src/ckpt/saved_ckpts/CNCUR01.pt (torch_old, 151514 bytes, 10 tensors)

layer1.weight f4 [16, 12, 3, 3]
00000000: a95a 3cbf e66f eebe 1cea a63f 2b10 703f
00000010: d7ed c23f 9741 63bf 61fd 863f f583 76bf
00000020: 3319 4ebe 8672 d13f a208 a03d 5952 68bf
00000030: aa79 82bf 5244 cebf 35f4 cfbf 6268 3f3f
00000040: 89ad 893f ea82 f63d b334 5f3f bb8d 88be
00000050: 0375 2c3f 5653 a63f 5469 9dbf 90be 33bf
00000060: defb b13f 14bb 54bf 5c65 b13f 4aeb 3ebe
00000070: 6d38 87bf f2e6 873f a5dc 86bf 2ff8 e1be
00000080: f0f5 e73e d6bf 093e 64bb f03f 6c11 603e
00000090: 865d 8bbf d784 183f 36dd 613f 70bc 953f
000000a0: b3ee 753f a82b 35bd ec7c 37bf 06e5 293f
000000b0: c7be 8cbf 4b67 c9bf f023 edbe aeab 26bf
000000c0: 1ad9 8a3f 240f e53e a908 5f3f aeb5 67bd
000000d0: d3e0 72bf ac6f 20bf 6260 443e 8020 2bc0
000000e0: 9f6c 9cbf 1483 e73e 6f46 c03d 4804 6c3e
000000f0: c968 92be bb66 823f 1951 50be f984 1d3f
00000100: 0696 15bf 5f30 893e 48b7 82bc 325d e4bf
00000110: 3540 2c3e 6832 1c3f bc68 32bf b6a5 0bbf
00000120: f864 43bf 4d65 f9bd eeb6 be3f bb19 093e
00000130: 161e c03c 9393 a8be a14b 4bbf 5ba1 b3be
00000140: 3231 903e 76c9 4fbd 67d9 fcbe b884 dabc
00000150: 9766 e9bf 15af 1c40 95ed cbbe ba7e 693e
00000160: bc20 d73d d1f9 d4bf 6c35 f9be 759d cd3e
00000170: 872d 8a3f f381 343f 927e e1be a52a e2be
00000180: fa51 a3bf 73ad 63bf 28bc c93f dad2 03bf
00000190: 31c7 fcbd 5ec5 1ebe 536f febe cfcf f0bf
000001a0: 428d debc c204 10bf 68c0 8bbf 2156 f8be
000001b0: 854a a43d 59f4 c73d ddfb 0c3f 6021 07c0
000001c0: bc83 3cbf 6b42 94bf f065 383f cdc4 1cbd
000001d0: bf4d 2040 4c1c afbe cdaa 693f d5e9 243f
000001e0: 1bd5 923e f38a 353f 1af1 db3c d6c6 08be
000001f0: bec4 b73f b448 f7bd 4b20 d43f 637c 983f
00000200: 763a 723f 6206 853e c2db 803d 3bd3 d03f
00000210: 4813 113e d824 c4be 18ba 693f f116 67bf
00000220: eb74 ecbe b7b9 edbd 5d14 33bf fafe 993f
00000230: 5ca3 55bf d22d a13e 0099 6dbf 5418 8abf
00000240: 8cc4 2fbf d054 903f c62b b9be 2f86 c03f
00000250: 6bde ddbc 0b53 ddbe c1eb cc3f d316 05c0
00000260: 4859 9fbf 08ef b63f 236a 3f3f dfa1 97bf
00000270: 56c4 c13e 66b2 1cbe 28d4 49be eddd 2fbe
00000280: 519f 4cbe 6487 923f ddb4 dcbf 5895 b6be
00000290: 096e 6abf 1a09 acbf 96c6 23bf 3cd7 17bf
000002a0: bc06 7e3e 90d7 c9bf 37c2 b9bf 04eb 2940
000002b0: 18fb 7f3d 62c7 a5bf 22b5 573f 7cff 3c3f
000002c0: cf19 7a3f 2e84 8b3f 7722 afbf 674a 83be
000002d0: 762c 9e3f 34f4 a3bf 4ba3 c33d 6fa8 ac3e
000002e0: c41d d1be 597d 6dbe 719d edbf 3c2a d5bd
000002f0: 49db c8be 9757 dabf f190 62bf 46e4 dcbf
00000300: 73e2 b33f 734b 1c3f 3b36 543f 1eba 1c3e
00000310: 1a7f 913f 47d5 203f 5f09 ed3e 5e8c f8be
00000320: 32d1 183f ba50 493e a77a 173f 6b9c 183d
00000330: 0b99 453f 9eb0 053f edd8 d4bd 1239 883f
00000340: 696d 0cbd 44b8 513f 25b0 053c e252 1abf
00000350: d31d 163f 57ba 34bf b730 a4bf 9485 24c0
00000360: 83c7 a9be 4a4a 223f c5b5 8d3e 20a6 aebe
00000370: 99d0 73bf 2717 373f 0f85 2f3f e221 ac3f
00000380: bc7d 03bf 06a1 203f 82f0 243d 599f dbbe
00000390: d2ad 63be 01f3 143f 60cd 2a3f 3f67 463e
000003a0: a4e9 92be 6844 a13f ecf2 5bbe acb2 673e
000003b0: 30de 783e 52da f9bf f473 7ebd 2bea adbf
000003c0: f426 ba3e d813 d4bf 2136 aa3e f171 88bd
000003d0: 0f17 b33f 281c 7d3f d992 363f 9506 133e
000003e0: 2a48 d83e ae16 7cbe 27e2 abbf b82c ea3f
000003f0: e23d 363f 1f3f cc3b c3fc 62be 8cbe 1240
-0.73575836 -0.46569747 1.3040195 0.9377467 1.5228833 -0.8877196 1.0546075 -0.962951
-0.201268 1.6363075 0.078141466 -0.9075065 -1.0193379 -1.61146 -1.6246401 0.7476865
1.0756084 0.120366886 0.8718979 -0.26670632 0.67366046 1.2994182 -1.2297769 -0.7021265
1.3904989 -0.8309796 1.3859057 -0.18644443 -1.0564095 1.0617354 -1.0536085 -0.44134662
0.45304823 0.13452086 1.8807187 0.21881646 -1.0887916 0.595777 0.88228166 1.1698132
0.9606735 -0.044231087 -0.7167499 0.6636509 -1.0995721 -1.5734648 -0.4631648 -0.6510571
1.0847504 0.44738114 0.8712259 -0.056569748 -0.94874305 -0.626704 0.19177392 -2.6738586
-1.2220649 0.45217192 0.09388434 0.23048508 -0.2859557 1.0187601 -0.20343436 0.61531025
-0.5843204 0.26794717 -0.015956536 -1.7840941 0.16821368 0.61014414 -0.6969106 -0.5454973
-0.7632594 -0.12177525 1.4899576 0.13388722 0.023451846 -0.3292509 -0.79412276 -0.35084042
0.28162533 -0.050729237 -0.49384615 -0.026674613 -1.8234433 2.4481862 -0.39829698 0.22802249
0.105042905 -1.6638738 -0.4867357 0.40159193 1.0795144 0.70510787 -0.44041878 -0.4417316
-1.2759392 -0.8893654 1.5760546 -0.5149361 -0.1234268 -0.15504977 -0.4969431 -1.8813418
-0.027166966 -0.5625726 -1.0918093 -0.4850321 0.08022026 0.097634025 0.5507181 -2.111412
-0.7363851 -1.1582769 0.72030544 -0.03827362 2.5047452 -0.34201276 0.91276246 0.644193
0.28678212 0.70915145 0.026848365 -0.133571 1.4356916 -0.12074414 1.6572355 1.191296
0.94620454 0.25981432 0.062919155 1.6314462 0.14167511 -0.3830936 0.9129958 -0.9026938
-0.4618295 -0.11607688 -0.69952947 1.2030938 -0.8345239 0.3148027 -0.92811584 -1.0788674
-0.6865928 1.1275883 -0.3616621 1.504095 -0.027083596 -0.4322742 1.6009446 -2.079518
-1.2449121 1.4291697 0.74771327 -1.1846274 0.37845105 -0.15302429 -0.19709837 -0.17174502
-0.1998265 1.1447568 -1.7242695 -0.35660815 -0.9157415 -1.3440278 -0.63974893 -0.59312797
0.24807256 -1.576891 -1.4512395 2.6549692 0.06249532 -1.2951472 0.8426076 0.7382734
0.9769563 1.0899713 -1.3682393 -0.25642702 1.2357318 -1.28089 0.0955263 0.33722255
-0.40843022 -0.23192348 -1.8563672 -0.10408446 -0.392298 -1.705798 -0.88502413 -1.7257164
1.4053482 0.61052626 0.8289525 0.15305373 1.1366913 0.62825435 0.46296212 -0.48544592
0.59694207 0.19659701 0.5917153 0.037258547 0.7718665 0.5222262 -0.10392938 1.0642416
-0.03428403 0.8192179 0.008159672 -0.6028272 0.5863926 -0.7059683 -1.2827367 -2.570653
-0.33160028 0.63394606 0.27677742 -0.34111118 -0.9524017 0.715197 0.68562406 1.344784
-0.5136373 0.627457 0.04026843 -0.4289501 -0.22234276 0.58183295 0.6671963 0.19375323
-0.2869388 1.2599001 -0.21479386 0.22626752 0.24303508 -1.9519751 -0.0621223 -1.3587087
0.36357844 -1.6568556 0.33244422 -0.066623576 1.3991412 0.9887109 0.7131782 0.1435798
0.42242557 -0.24618027 -1.3428391 1.8294897 0.71188176 0.0062331106 -0.22166733 2.29288

layer1.bias f4 [16]
00000000: 2e53 6b3b 3439 07bd 0104 32bc 800b ed3c
00000010: f41e 843c 0f69 58bc 29e2 d63c 71be 91bc
00000020: 3172 a73a d416 2dbc 1c10 d6bc dfea 8b3b
00000030: 9be5 843b d048 cabc cc3f e63c bd2e a13c
0.0035907733 -0.033013538 -0.010865212 0.028936148 0.01612804 -0.013208642 0.026230888 -0.017791005
0.001277512 -0.010564525 -0.026130728 0.004269942 0.0040556914 -0.024692923 0.028106593 0.019675607

layer2.weight f4 [16, 16, 3, 3]
00000000: 0900 583f e448 4a3f 1b7b f0bd ae51 04bf
00000010: e32a 7b3e 1c6a 86bf 74c9 c13f f1dc f63e
00000020: 3c8d 023e e731 1abf c84b c93e 8f8a 063d
00000030: b6e9 38bf 79b2 a5bf ce3b 10be 5946 593e
00000040: dafa 833c ba7f 50be 6e17 42bf e772 823f
00000050: 624e c9bf 175a 583e c207 933f 30d2 ccbf
00000060: 6b80 99bf 40cb b93d 814f 9d3f e6b6 303f
00000070: 52e3 abbf 587f ecbe 54b0 34bf d8d1 4c3e
00000080: 2445 0ebf 04d1 763f 0329 69bf bbff 3bbf
00000090: 8c76 513f 6843 903f 248f 59bf bc2a 8bbd
000000a0: 39ad 1bbf e878 02bf 64e9 3cbf 3b73 25be
000000b0: c540 ccbd 85db 233e e3c0 9d3e 3e21 673f
000000c0: bee5 b8bf 6c3c 01bf 4d6c 39bf 774d 123f
000000d0: 1365 ab3f 5140 5e3f 8454 2a3e e3ae cebf
000000e0: dc84 183f 9675 a8bf d23a 043e 17a8 d03e
000000f0: 0754 3c3e eca7 c53f 25b5 d3bf 16c0 53be
00000100: cee2 bfbe 6b49 6fc0 5ba9 623f 870f 343f
00000110: 80d5 07bf a514 45bf c1b4 5a3f 540d 3f3e
00000120: 2e93 ddbe 6541 25bf 9211 813f 5310 07bf
00000130: af75 1440 edea 6a3f 9667 70be feed 7dbf
00000140: e55d 3d40 8881 273f 016a 0e3f 9b3a 0040
00000150: cdb4 da3f e3d2 f83e 77b7 0fbf 2395 713f
00000160: b9e0 6f3f 127d e0be ad74 013f 2fbc 0840
00000170: aef6 4fbf d2df a63f f9e2 84be e0ed febe
00000180: b5f0 13bd 8870 c4be e7fe eebd 0cc4 e03f
00000190: 4042 033f 3fff 1bbf fe53 4dbf a1a0 22bf
000001a0: 0300 65be 7385 84bf 6fa4 68bf e921 4dbc
000001b0: b15f 9f3f 68db aaba ba6d 8fbf 24d1 b5be
000001c0: ba6e c43f 28b6 2140 0087 b13e 7786 bb3f
000001d0: 7aa5 29bf 70cd ad3f bb71 f0bf 9f8c 4e3f
000001e0: b2f9 09bf 37ff e43e 64b9 2a3f 8d9b ea3d
000001f0: b7d2 7cbf 447d 95be 6ced ce3d 3eff 84bf
00000200: 12bb 2fbf c12c a7be ed34 f43e 1121 a53f
00000210: 95cf dabf 0d25 02bf bda7 383f 17e5 ca3e
00000220: d2bb c53f d23f 1d3f 0560 113f 100e 61be
00000230: dba4 853f 3689 0d40 80ba d5be e47b 69bf
00000240: 0aaa 7bbf 6341 703e abc8 7c3f f4fa 883e
00000250: c733 8c3f 4701 14bf e1e8 383f 9be1 b23f
00000260: 2d06 a63e f2f4 803f 2822 0b3f 5631 733f
00000270: 39c5 4cbe 6c41 6dbe 99c1 7ebf 8af6 bbbf
00000280: b6c6 75bf c936 413f 2eb9 d83f e7a5 34bf
00000290: e98b 723f 379a 773f b09e 0940 1b42 303f
000002a0: ea67 213e cdc1 65bf a625 72bf dec0 c23e
000002b0: 5251 7abe 894a b73e f3f9 523f a6c1 5cbf
000002c0: c102 583f 3344 973f dd77 20bf bc73 103e
000002d0: 4c7f 1dbf 14ae 01c0 44bf 943f 3b12 25bf
000002e0: 7f58 2dbf 9d9d 273f 03b3 81bf 9335 15bf
000002f0: 6a9c 683f e44e 953e d402 dabd 1c84 2cbf
00000300: a1d6 d73f 6a9b 553d e803 f33f d487 f73e
00000310: f577 89bf 2e9b 113f cc57 b7be 0f82 0c3e
00000320: d1c6 48bf 0a9d bfbf 0d0d 5bbf f049 073f
00000330: 50f5 6bbf 0843 213c 4083 5640 f3ac 2ebf
00000340: 33d9 923e 89e5 08bf 2904 97be 8822 0340
00000350: 4a5f a0bf c1bb ad3e 3b16 44bf 47a1 433e
00000360: f092 ec3f 99e3 343e 219c 16bf 7478 bcbe
00000370: 735e a9bc 0040 473e 332c 733c 0db0 883f
00000380: c63e d4bd 8daa 073f 8f8f 85bf ffb7 bc3f
00000390: f1a1 1d3d ffc8 d93f 1f29 943f 9faa f7bf
000003a0: c49d b4bf 9ebc e8bf e625 86be a329 953e
000003b0: 31a7 753e f50e abbc 93d7 f83f 54e3 0440
000003c0: e530 5140 8f05 b43e af8d 34bf 8cc4 f83e
000003d0: 130b 0040 7414 f73e 8f7a 85bf f187 cf3f
000003e0: 390f 73bf 6dd2 3d3f c856 3dbd 3526 af3e
000003f0: 6393 29bf 2f2f 863d ae21 86bf 81ed 6fbf
0.84375054 0.7901747 -0.117422305 -0.51687133 0.24528079 -1.0501132 1.5139604 0.4821544
0.12749189 -0.60232395 0.3931563 0.032846984 -0.72231615 -1.294509 -0.14085314 0.21218242
0.016110826 -0.20361224 -0.75817 1.0191315 -1.5727046 0.21128117 1.1486742 -1.6001644
-1.1992315 0.0907197 1.2289888 0.6902908 -1.3428748 -0.46190906 -0.70581555 0.20001924
-0.5557425 0.9641268 -0.91078204 -0.7343709 0.81821513 1.1270571 -0.8498404 -0.0679526
-0.6081119 -0.5096574 -0.73793626 -0.16157238 -0.09973291 0.16001709 0.30811223 0.902851
-1.4445112 -0.5048282 -0.7243088 0.5714945 1.339022 0.8681689 0.16633803 -1.6147121
0.5957773 -1.3160884 0.12913063 0.40753242 0.18391429 1.5441871 -1.6539656 -0.20678744
-0.37477726 -3.738856 0.88539666 0.7033619 -0.5306015 -0.76984626 0.8543206 0.18657428
-0.43276352 -0.6455291 1.0083487 -0.52759284 2.3196828 0.9176472 -0.23477015 -0.9919127
2.9588559 0.65432024 0.556305 2.003577 1.7086426 0.48598394 -0.5613932 0.9436819
0.93702275 -0.4384542 0.5056866 2.1364858 -0.8123578 1.3037055 -0.25954416 -0.4979086
-0.036118228 -0.38367105 -0.116697125 1.7559829 0.51272964 -0.6093635 -0.80206287 -0.6352635
-0.22363286 -1.0353225 -0.90875906 -0.012520292 1.2451078 -0.0013035359 -1.1205361 -0.35511124
1.5346291 2.526743 0.3467331 1.465041 -0.6626812 1.357832 -1.8784708 0.8068332
-0.5389663 0.44725963 0.66689134 0.1145545 -0.98759025 -0.29197133 0.101038784 -1.0390394
-0.6864482 -0.32651332 0.4769663 1.2900716 -1.7094599 -0.50837785 0.7213095 0.39627907
1.5447943 0.6142551 0.5678714 -0.2197802 1.0440935 2.2114997 -0.4174385 -0.9120467
-0.98306334 0.23462443 0.98743695 0.26753962 1.0953301 -0.5781445 0.72230345 1.3975099
0.32426587 1.0074751 0.54348993 0.94997156 -0.1999711 -0.23169488 -0.99514157 -1.4684613
-0.96006334 0.7547422 1.6931512 -0.70565647 0.94744736 0.9671969 2.1503105 0.6885087
0.15762296 -0.8974884 -0.94588697 0.3803777 -0.24445084 0.35799053 0.8241264 -0.86232984
0.843792 1.1817688 -0.62682897 0.14106649 -0.61522365 -2.02625 1.162087 -0.6448094
-0.6771316 0.65474874 -1.0132755 -0.5828487 0.9086367 0.2916175 -0.10645071 -0.6738908
1.6862375 0.052150168 1.8985567 0.48345816 -1.0739733 0.5687741 -0.3580917 0.13721488
-0.7842837 -1.49698 -0.8556679 0.52847195 -0.9217119 0.009842642 3.3517609 -0.6823265
0.28681335 -0.5347524 -0.2949536 2.0489826 -1.252908 0.33932307 -0.7659642 0.19104491
1.8482342 0.17664947 -0.58831984 -0.36810648 -0.02067492 0.19458008 0.014842081 1.0678726
-0.103635356 0.52994615 -1.0434436 1.4743651 0.038484517 1.7014464 1.1575049 -1.9348944
-1.4110646 -1.8182561 -0.2620079 0.2913333 0.2398956 -0.020881156 1.9440788 2.076375
3.2686093 0.3516049 -0.7052869 0.48587453 2.000676 0.48257792 -1.0428027 1.6213361
-0.949451 0.7414921 -0.04622534 0.34208837 -0.6624052 0.06551968 -1.0479028 -0.9372178

layer2.bias f4 [16]
00000000: 0000 0000 0000 0000 d1e8 363f 0000 0000
00000010: 0000 0000 0000 0000 0000 0000 0000 0000
00000020: 0000 0000 0000 0000 0000 0000 0000 0000
00000030: 0000 0000 0000 0000 0000 0000 0000 0000
0.0 0.0 0.71449 0.0 0.0 0.0 0.0 0.0
0.0 0.0 0.0 0.0 0.0 0.0 0.0 0.0

layer2_bis.weight f4 [16, 16, 3, 3]
00000000: 89e4 b63f 9405 7d3f 5f20 4dbf be93 d1bf
00000010: b4a0 c63e 15b0 1840 afdd a33e 7294 b83d
00000020: 8099 adbe acaf 26bf 7ba6 2d3e f286 53bf
00000030: c5f3 993f 4bd7 da3f 4a89 0d40 7e73 b7bf
00000040: 0a80 ec3e dc70 17bf 0450 633e 4de7 63bf
00000050: 467e c03e 551c 35bf f861 903e 84dc febb
00000060: aaee c2be 3f0a 69bf accf e23e 7219 143e
00000070: 7ea3 9d3d ac84 d3be a43d b4bf 5c80 e2bd
00000080: b5fd 5e3f 6bba ec3e d7d9 c9bf 9b68 523f
00000090: b847 523f f411 08bf 6fbb 47bf 55e9 07bf
000000a0: 9af6 2cbd a9d8 7a3f 88cf 05c0 802a 90be
000000b0: 9ff3 5c3f 48a4 453f 0683 19bf 2929 4dbf
000000c0: 1e8c 52bf 885c 0ebf baca c43e 34bb 09bf
000000d0: 3919 e0be d4d7 3a40 6924 103f 4c36 8abf
000000e0: e15e c0bf 9821 87bf 2bfe 0fc0 0fc2 383d
000000f0: 08c0 223f ce50 0bbf f39a 97bf df69 8abe
00000100: 4e63 803e b65d a83f db04 253f bf52 33bf
00000110: 50d9 b93e d6f3 2a3f 07b7 eebd c9e9 c8bd
00000120: 9034 18bf 5bb6 863d fbba 063e 00d6 ae3f
00000130: 8e11 2b3e 338b ba3d c05a 8bbf 8e1d 1e3f
00000140: 0336 013f 8665 5ebf 1312 8abe 3342 013f
00000150: 4426 2f3f b4de 27c0 84ab 9b3e bf10 9c3f
00000160: cc9a 1bbf 5d3b cbbf eaec c93f cf69 7bbd
00000170: 5b3e 84bf 75cf b6bd 2bc6 113f 3be6 113f
00000180: 3094 b3be 7b9c cabf 7df6 b03f 985f 0a3f
00000190: 2e3a b5be 0c1b 23bf 7614 723f 8d1a 80be
000001a0: 1963 18be 8047 cd3f e60b 7c3e 5d20 38bf
000001b0: 7f83 963f 59a7 8b3f 8089 7dbe 7bc8 1ebf
000001c0: a198 163f 94bb 6cbf 90ee a03f a822 fbbc
000001d0: ac85 45be 7dd9 633f 2e3a 50bf b9d9 48bf
000001e0: a1f1 743e 2957 6b3f 9920 adbf 8fbc 933e
000001f0: 1598 b93f 9612 2d40 3ea5 34bf 4308 1d40
00000200: 182f 1c40 b5ad 053d 196a 833f 32c3 67be
00000210: 9bd7 5bbe bf8e b7be 8995 4f3c 5263 8bbe
00000220: f51d a33e 4f51 0dbe 046b 28bf bf79 1cbf
00000230: 1e15 303e 8648 133f 982b 0a3f 09bf b4bf
00000240: 428d 3f3e 2e1b c4bf b8f5 53bf b123 7ebe
00000250: f596 e13e 6de2 c6be bc58 5d3e b28d 44bf
00000260: de25 a5be f2ad 833e e706 dcbe 8ef4 3d3f
00000270: af10 84bf 0cb3 03c0 6373 f73f 2388 1840
00000280: 5771 083d b218 f43f d198 963d 6c32 57bf
00000290: 9f1a 21bf a746 783f e731 f7bb bf9e 653f
000002a0: 33d5 02c0 7b5f 24bf 05af 883f 7641 093f
000002b0: 3b90 f23e f8d9 d4be 1d4d cdbe 9e44 2a3f
000002c0: 3d6c f63e 60b1 d4bf ea5d ddbe 040f 71bd
000002d0: 25db 93be 1e20 0340 e6bc 44bf 100c 8ebe
000002e0: 7c75 c13e ab07 c53d 5429 6c3f a643 813f
000002f0: 3b8c 41bd 6c18 363f 3a64 89be de0a 5f3e
00000300: 3c1b 43bf 5eaf 3bbf 7120 893e c938 06be
00000310: 4d25 f83c 11f1 a13f e747 77be 676f 3d3e
00000320: 6696 913d 8988 2bbf 96d0 b03f 4861 2dbe
00000330: 9ed4 513f e4b1 8f3f 6ad9 9fbf 6fda fa3f
00000340: 9402 80be b9f7 483f 5735 96bf 5753 433f
00000350: dd76 babf ce4d 6a3e 2382 7e3e 92b3 9a3f
00000360: 0570 ccbf 4281 76bf f9d6 3a3f 14d0 09bf
00000370: 6c0f 7e3d eed7 763f 3a51 343f 7925 81bf
00000380: b804 0ebf fdfd af3e b630 9ebf 82cd 4cbf
00000390: 15cc 903f baa2 0f3f 5d8e 743f aedc d8bf
000003a0: 66d3 363e 3319 5cbf 0488 f23e 9c5c 913f
000003b0: 99c3 74be ae5b d13e b9a8 ae3f be02 9ebf
000003c0: 5019 aebf 8f71 3bbe eb2d 68be 8937 0e3d
000003d0: b368 883f 077d 223e e453 a73d 3c73 00bf
000003e0: 694c be3e 8d14 1ebf cc11 443f 5e87 8dbf
000003f0: 063a 19bd 6442 e93e f897 37bf 3865 8a3f
1.4288493 0.98836637 -0.8012752 -1.6373212 0.38794482 2.3857472 0.3200507 0.09012689
-0.33906174 -0.65111804 0.16958039 -0.82627785 1.2027518 1.7096952 2.2115045 -1.433212
0.46191436 -0.59156585 0.22198492 -0.8902481 0.3759634 -0.70746356 0.28199744 -0.0077777524
-0.3807271 -0.9103126 0.44299066 0.14462832 0.07697199 -0.41312158 -1.4081311 -0.11059639
0.87105876 0.46235976 -1.5769604 0.82190865 0.82140684 -0.53152394 -0.78020376 -0.5309041
-0.042227365 0.9798685 -2.0907917 -0.28157425 0.86309236 0.772038 -0.5996555 -0.8014093
-0.8224505 -0.5560994 0.38435918 -0.53801274 -0.43769243 2.919423 0.5630556 -1.079782
-1.5028955 -1.0557127 -2.2498882 0.045106944 0.63574266 -0.54420173 -1.1844162 -0.27033898
0.25075763 1.3153598 0.64460534 -0.70048136 0.3629861 0.66778314 -0.116560034 -0.09810216
-0.59455204 0.0657775 0.13157265 1.3659058 0.16705915 0.091085814 -1.088707 0.61763847
0.5047304 -0.8687366 -0.26966915 0.50491637 0.68417764 -2.6229677 0.30404294 1.219261
-0.60783076 -1.5877491 1.5775425 -0.061380204 -1.0331529 -0.08926288 0.56943005 0.5699193
-0.35073996 -1.5829004 1.3825222 0.54052114 -0.3539595 -0.63713145 0.9456247 -0.25020257
-0.14881553 1.6037445 0.24613914 -0.7192438 1.175888 1.0910445 -0.24759483 -0.6202466
0.58826643 -0.9247372 1.2572803 -0.030656174 -0.19289273 0.89003736 -0.81338775 -0.7845722
0.23920299 0.9192987 -1.3525573 0.28854796 1.4499537 2.7042594 -0.7056464 2.4536293
2.4403744 0.032636363 1.0266753 -0.22633055 -0.21468966 -0.35851094 0.012669929 -0.27224213
0.31858793 -0.13800548 -0.6578829 -0.6112327 0.17195556 0.57532537 0.5397277 -1.4120799
0.1870623 -1.5320795 -0.8279681 -0.24818303 0.44060484 -0.38844624 0.2161588 -0.7677871
-0.32255453 0.25718647 -0.42974016 0.74201286 -1.0317591 -2.0578032 1.9332088 2.3833091
0.033311214 1.9070036 0.07353366 -0.8406131 -0.62931246 0.96982807 -0.0075437906 0.8969535
-2.0442626 -0.6420819 1.0678412 0.5361551 0.47375664 -0.41572547 -0.40097895 0.6651095
0.48129454 -1.661663 -0.43235713 -0.05885221 -0.28878132 2.0488353 -0.76850736 -0.27743578
0.37784946 0.09620603 0.9225056 1.009877 -0.047252875 0.71131015 -0.2683428 0.21781489
-0.7621343 -0.73314464 0.26782563 -0.131076 0.030291224 1.2651693 -0.24148522 0.18499528
0.07108764 -0.6700521 1.3813655 -0.16931641 0.81965053 1.1226163 -1.2488225 1.9597911
-0.25001967 0.78502995 -1.1735028 0.7629904 -1.4567524 0.22881243 0.2485433 1.208605
-1.5971686 -0.9629098 0.7298427 -0.5383313 0.062026426 0.9642323 0.7043644 -1.0089561
-0.5547595 0.34373465 -1.2358615 -0.8000108 1.1312281 0.56107676 0.9552973 -1.6942346
0.1785408 -0.8597595 0.47369397 1.1356387 -0.2390274 0.4089026 1.364524 -1.2344587
-1.3601475 -0.18305038 -0.22673766 0.03472093 1.0656952 0.15868007 0.08170298 -0.50175834
0.3716767 -0.6175011 0.76589656 -1.1056936 -0.03740885 0.45558465 -0.7171626 1.081214

layer2_bis.bias f4 [16]
00000000: 0000 0000 0000 0000 0000 0000 0000 0000
00000010: 0000 0000 0000 0000 0000 0000 0000 0000
00000020: 0000 0000 0000 0000 0000 0000 0000 0000
00000030: 0000 0000 0000 0000 0000 0000 0000 0000
0.0 0.0 0.0 0.0 0.0 0.0 0.0 0.0
0.0 0.0 0.0 0.0 0.0 0.0 0.0 0.0

layer3.weight f4 [16, 1936]
00000000: 5ea2 9540 55fa 8bbf ae8a 1640 20fc 6abe
00000010: 150e 45c0 dc8b babf 3669 e33f 8a75 0d40
00000020: 3c0a 1a40 f4d5 80bf 711b a2bf d8af 3c3f
00000030: 898b 0940 5a2e eb3f e549 6e40 db1b 59c0
00000040: 7d81 173f d877 b0bf 119e 0dbf de1f 00be
00000050: f478 f03e 9c32 3dbf 9335 bd3e 1ba4 5cc0
00000060: e373 a73f 1e43 583f 5340 52c0 9e32 ab3f
00000070: cb71 33c0 417e 34c0 22d1 7ac0 19e3 213f
00000080: 51d5 e13f f5ea 94bd e980 0a3f 5415 923f
00000090: 07c0 7dc0 33b3 0540 2a02 be3e b8b7 df3f
000000a0: 33c9 ef3f f27c fcbf e32d 8dbf 5e5b f43e
000000b0: 082d 4abf 3cff 343f a056 7fc0 e3f4 84bf
000000c0: 18a6 d23d eb97 6d3d 6232 c0bf bd28 2d40
000000d0: 6050 3ac0 3578 6ebe 0e46 ba3f 1f24 39bf
000000e0: 1a36 15bf 700d 1c40 9da7 40c0 6ed6 2ebf
000000f0: 4703 dcbe 5588 09c0 0187 4140 c560 6d3e
00000100: 39c1 1540 5457 4cc0 06ea 6c40 a134 18bd
00000110: 3e0f 1cc0 c237 fcbf 38d7 ad3f 83a6 8abf
00000120: f04e e6be 7868 5540 951d 0ec0 8ca3 85bf
00000130: d892 ef3f 2939 9c3f 4c8c debe b45c a53f
00000140: a219 4b40 695f dd3f 67a6 1a3e bc52 9c3e
00000150: 21e9 7e3f 401f 103f 2b4e 65c0 3571 a3c0
00000160: dd10 5d3f 2d96 3c40 90dc f2be 3a4a ccbf
00000170: 43d8 18be fe70 173f 2fba d4bf 251c f43f
00000180: f2fd 3e40 bcd2 183e c986 2fbf cd7e 6b3f
00000190: b97f 5f3e f7af 643f 69a4 a940 f6d4 03bf
000001a0: f52e 28be 398e 0140 50c4 01bf 576a 633f
000001b0: c679 d13c 4ecd 4dbe 6f3e 9b3f 4e9c 2abf
000001c0: 65c4 92be 6005 c53e ac3c e4bf e762 b93f
000001d0: 0e8a 11bf 9a3b e03f f201 e23f 4555 45bc
000001e0: ff59 85c0 7f93 f13f 428b d63f 0619 353f
000001f0: e91c 75bf 0d7e 443f 4824 a8bd c6ea 54c0
00000200: d75e 4bc0 75b9 cbbe 251e 863f 1332 4c40
00000210: a907 b03f c2be c23e 28a2 ddbe 619b 7c3f
00000220: 569e 76c0 fbdf 8340 3acd 763f 0183 5dc0
00000230: e7a3 ac3f 6fda 2cc0 2320 543a 0eec fc3e
00000240: 5845 67c0 901f 0cbf 5207 343e cfc1 8b3f
00000250: f8b6 cbbf b606 0b3f c383 a9be 912d ca3e
00000260: ee2d 4b40 40dc b6bf c074 fbbf 525b bd3e
00000270: b008 443f c136 3ec0 df40 f63f 68ae b7bf
00000280: d4d1 b73e d35a 993f 1fce 8bbe 0c8f a33e
00000290: ef64 b0bf 69f9 3640 d76f 1140 8412 0440
000002a0: c26f c7c0 5cd1 f5bf adb7 303d e95f df3f
000002b0: ef4b 42c0 7655 493f aef8 f5bd b387 ed3d
000002c0: 8dad 61bf b19a 17c0 e12e 0dc0 a136 7b3e
000002d0: 04f9 0ac0 122e 6640 7dbd b5be 4024 6640
000002e0: b362 2cc0 97c1 113f b2c8 46bf 75ee e1bd
000002f0: 3fd9 cd3f ac6a 70c0 69ef debf 4139 24bf
00000300: 379f bebf b408 39bf 7be3 d03e 0ee3 31bf
00000310: 5e3b babf fbf1 8dc0 05e7 8d40 192a 44bf
00000320: 8b51 aabf 2d78 54c0 b1a9 5540 077b 81be
00000330: 12c5 8ac0 a3fb 2fc0 c40f 0fc0 a3cc 813c
00000340: b5d5 83bd 0e70 913f 05cd 09c0 cc13 143f
00000350: 9aeb 3b3f f5c2 d4bf 2325 85bf bdd3 ff3f
00000360: bdb2 1c3f 2bb9 06c0 e9ba eabf af70 0040
00000370: e140 ec3f 35f0 643e fd10 bf3b 946d 2ec0
00000380: ad5a 1540 abac 5640 fef7 9abf d819 3040
00000390: 7ec6 833e 3b55 70bf 91c6 58bf 9c10 b2bf
000003a0: 81f1 9440 3197 15bf 17a9 22c0 68dd 6540
000003b0: 353b b3bf 558d c9bf 0b72 5640 615e 133f
000003c0: eaab 36bf 59bd 7fc0 90ed 8cbf cbfe 7ec0
000003d0: 4a98 1dbe 12ce 3d40 ad82 9a3e 69c2 5c3e
000003e0: 80cc 88bf 0dd4 6cbf 1959 2fbf 652f d63f
000003f0: e04c 513d b0fa ba3f c5fd 67be 8957 f6be
4.67607 -1.093577 2.3522143 -0.2294774 -3.0789845 -1.4573932 1.7766483 2.210299
2.4068747 -1.0065293 -1.2664624 0.73705816 2.1491416 1.837352 3.7232602 -3.3923252
0.5918196 -1.3786573 -0.55319315 -0.12512156 0.4696728 -0.7390535 0.36954936 -3.4475162
1.3082241 0.8447741 -3.285176 1.3374822 -2.8038204 -2.820206 -3.9190145 0.6323715
1.7643224 -0.07271377 0.5410295 1.1412759 -3.9648454 2.0890625 0.37111026 1.7477942
1.8733276 -1.972563 -1.1029629 0.47725958 -0.7897496 0.70701957 -3.9896622 -1.0387233
0.10285586 0.05800621 -1.5015376 2.7056115 -2.9111557 -0.23288043 1.4552629 -0.7232074
-0.5828568 2.4383202 -3.0102303 -0.68295944 -0.4297125 -2.148946 3.023865 0.23181446
2.3399184 -3.19283 3.7017837 -0.037159566 -2.4384303 -1.9704516 1.3581305 -1.0832065
-0.449821 3.3345013 -2.2205555 -1.0440536 1.8716688 1.2204944 -0.43466413 1.2918916
3.1734395 1.7294742 0.1510254 0.3053187 0.99574476 0.56297684 -3.582896 -5.107569
0.86353856 2.946666 -0.474339 -1.5960152 -0.14926247 0.5915679 -1.6619319 1.9071089
2.9842496 0.14924139 -0.6856504 0.9199036 0.21826066 0.89331 5.3013196 -0.5149683
-0.16424163 2.0243056 -0.50690174 0.88834137 0.025570761 -0.20097849 1.2128428 -0.6664475
-0.28665462 0.38480663 -1.7831016 1.4483308 -0.5685128 1.7518189 1.7656844 -0.012044256
-4.167236 1.8873137 1.6761248 0.7074131 -0.9574724 0.7675484 -0.08210045 -3.3268294
-3.1776636 -0.3978993 1.0477949 3.1905563 1.3752338 0.38036162 -0.43287778 0.9867459
-3.853414 4.1210914 0.964069 -3.4611208 1.3487519 -2.7008321 0.0008091947 0.49398845
-3.6136074 -0.5473566 0.17580917 1.0918521 -1.5915213 0.54307115 -0.3310834 0.3948789
3.1746783 -1.4285965 -1.9645004 0.36983734 0.76575756 -2.972092 1.9238547 -1.43501
0.35902274 1.1980842 -0.27305695 0.31945074 -1.3780802 2.8589728 2.2724512 2.06363
-6.2323923 -1.9204516 0.043143917 1.7451144 -3.0358846 0.7864603 -0.120103225 0.11598148
-0.8815544 -2.3688166 -2.2059863 0.24532558 -2.1714487 3.596562 -0.3549613 3.5959625
-2.6935241 0.5693602 -0.77649987 -0.1103181 1.6081923 -3.7565107 -1.7416812 -0.6414986
-1.4892339 -0.72278905 0.40798554 -0.6948708 -1.4549367 -4.4357886 4.4344506 -0.76626736
-1.3306135 -3.319835 3.3384821 -0.25289175 -4.3365564 -2.7497337 -2.2353373 0.015844649
-0.06437246 1.1362321 -2.1531384 0.5784271 0.73406374 -1.6621996 -1.0401958 1.9986492
0.6121023 -2.1050518 -1.833829 2.0068777 1.84573 0.22357257 0.0058308826 -2.725438
2.3336594 3.3542888 -1.2106931 2.7515774 0.25737375 -0.9388005 -0.8467799 -1.3911319
4.6544805 -0.58433825 -2.5415704 3.5916386 -1.4002444 -1.5746256 3.3507106 0.57565886
-0.7135607 -3.9959319 -1.1009998 -3.9843013 -0.15390125 2.9657025 0.30177823 0.21558537
-1.0687408 -0.92511064 -0.6849533 1.6733214 0.051098704 1.4607754 -0.22655399 -0.4811366

layer3.bias f4 [16]
00000000: 0000 0000 0000 0000 0000 0000 0000 0000
00000010: 0000 0000 0000 0000 0000 0000 0000 0000
00000020: 0000 0000 0000 0000 0000 0000 0000 0000
00000030: 0000 0000 0000 0000 0000 0000 0000 0000
0.0 0.0 0.0 0.0 0.0 0.0 0.0 0.0
0.0 0.0 0.0 0.0 0.0 0.0 0.0 0.0

out_layer.weight f4 [3, 16]
00000000: 7265 a7bf 9e50 623f ac30 f73f c1aa 4040
00000010: 3f45 393f 2899 b3bf 84ba 2bc0 28e1 a73f
00000020: a7c0 4c3f 7fe5 cfbe aa32 3a40 ae5f b2bf
00000030: eada 2440 cf2c 1d40 2a17 d83f 3da2 0b3f
00000040: bd05 14c0 4145 cc3f 8790 b03f 8191 d5be
00000050: cd5b 973f 8725 de3e 2cdd 31c0 9071 b83f
00000060: 5dcb 3fbf 44c5 bd3f 9059 bcbf 3b03 d53f
00000070: ed4e 33bd ded5 493f e3a6 7a40 3269 c1bf
00000080: d6d6 3640 04d9 31bf 344d 6f3e 63cf 473f
00000090: 146e 6bbc 81c6 76c0 2198 e8bf c7ae 1240
000000a0: 9da3 8cc0 b940 21c0 af03 2c40 d563 f33f
000000b0: 7818 93bf d51f d43a 724a d93f f1dc 3740
-1.3077834 0.8840426 1.9311728 3.010422 0.72371286 -1.4031115 -2.683259 1.3115587
0.79981464 -0.4060478 2.9093423 -1.3935449 2.5758615 2.45586 1.6882069 0.5454443
-2.3128502 1.5958635 1.3794106 -0.41712573 1.182489 0.43388006 -2.7791243 1.4409657
-0.7491968 1.4825826 -1.4714832 1.6641611 -0.04377644 0.7884196 3.916436 -1.5110228
2.8568625 -0.69471765 0.23369294 0.7805082 -0.014369506 -3.8558657 -1.8171426 2.2919176
-4.3949723 -2.5195754 2.6877248 1.9014841 -1.1491842 0.0016183803 1.6975844 2.8728602

out_layer.bias f4 [3]
00000000: 0000 0000 0000 0000 0000 0000
0.0 0.0 0.0
