src/ckpt/saved_ckpts/CNOM04.pt (torch_old, 151514 bytes, 10 tensors)

layer1.weight f4 [16, 12, 3, 3]
000000 8a bf 44 bf a7 25 f5 be 00 1b a5 3f d5 c7 6a 3f
       -0.76854765 -0.4788029 1.2898865 0.9171117
000010 34 00 c2 3f 6e 48 68 bf f7 cc 84 3f f9 92 78 bf
       1.5156312 -0.9073552 1.037505 -0.9709926
000020 86 d5 5c be 55 26 ce 3f 70 43 8f 3d 27 58 6c bf
       -0.21565828 1.6105448 0.069952846 -0.9232201
000030 80 fd 84 bf 1e 3a cf bf 23 d9 d1 bf c7 fd 3a 3f
       -1.0389862 -1.6189611 -1.639439 0.73043483
000040 25 9f 88 3f d7 31 d6 3d 58 95 56 3f 7a 25 8d be
       1.0673567 0.10458725 0.8382163 -0.27567655
000050 3f 77 28 3f e7 e3 a3 3f 1a 83 9e bf d7 6b 38 bf
       0.65806955 1.2803925 -1.2383759 -0.7203955
000060 07 72 af 3f 40 cd 56 bf 43 41 af 3f 18 18 51 be
       1.3706673 -0.83906937 1.3691791 -0.20419347
000070 78 60 88 bf f3 ea 85 3f 48 31 89 bf d6 7a e6 be
       -1.065444 1.0462326 -1.0718164 -0.4501559
000080 02 4e df 3e 41 db eb 3d 6a aa ef 3f a5 eb 4d 3e
       0.43614203 0.11516429 1.8723881 0.20109423
000090 9a 7c 8d bf 2e 72 16 3f fd dc 5d 3f 08 8b 93 3f
       -1.105365 0.58767974 0.86665326 1.1526804
0000a0 e6 93 73 3f c4 a6 76 bd a1 9b 3c bf c3 ce 27 3f
       0.9514755 -0.060217634 -0.7367497 0.6554987
0000b0 36 08 8f bf df 60 cb bf ec 77 f3 be aa 08 2b bf
       -1.1174381 -1.5888938 -0.4755243 -0.66810095
0000c0 a2 f0 88 3f 30 60 e0 3e d5 25 5b 3f 75 de 9e bd
       1.0698435 0.43823385 0.856046 -0.07757274
0000d0 ba f0 74 bf 0e da 24 bf 4d ef 36 3e 04 fe 2b c0
       -0.9567982 -0.64395225 0.17864724 -2.687379
0000e0 35 18 9e bf 9e 5f df 3e 8e e0 ac 3d ad ff 5b 3e
       -1.2351137 0.43627638 0.08441268 0.21484251
0000f0 91 f0 9a be 29 52 81 3f 8f 55 60 be 75 27 1a 3f
       -0.30261663 1.0103198 -0.21907638 0.60216457
000100 2f 25 19 bf bb 6c 82 3e dc ab 03 bd e8 81 e5 bf
       -0.5982236 0.2547358 -0.03214632 -1.7930269
000110 a9 1c 1c 3e 15 a4 17 3f 58 90 34 bf 8c ce 0f bf
       0.15245308 0.59234744 -0.7053275 -0.5617454
000120 a2 97 46 bf be 74 0b be 7a f7 bc 3f 18 d2 f5 3d
       -0.77575123 -0.13618752 1.4763024 0.12002963
000130 e4 70 77 3c 61 c8 b0 be 65 78 50 bf 02 89 b8 be
       0.015102599 -0.34527877 -0.8143371 -0.3604203
000140 82 de 86 3e 57 2e 83 bd 33 25 02 bf a2 1a 2b bd
       0.26341635 -0.06405323 -0.5083801 -0.041773446
000150 00 50 eb bf 57 24 1c 40 15 a9 d4 be fe e3 57 3e
       -1.8383789 2.439718 -0.4153525 0.21083066
000160 62 f1 c5 3d ad 46 d7 bf dd e5 02 bf e2 62 c1 3e
       0.09665181 -1.6818444 -0.51131994 0.37770754
000170 c9 32 87 3f be d4 23 3f 52 a5 ed be a6 d3 ef be
       1.0562373 0.63996494 -0.46415192 -0.46841162
000180 5b 2c a7 bf 6b 1b 6a bf a3 59 c6 3f b5 ec f4 be
       -1.3060411 -0.91448087 1.5496105 -0.47836843
000190 c2 57 03 bd 5a b0 0c be 25 6f 0f bf b2 e5 f5 bf
       -0.032066114 -0.13739148 -0.5602897 -1.9210722
0001a0 3d 38 95 bd f6 0e 1a bf e7 b0 89 bf 1b f7 0f bf
       -0.07286117 -0.6017908 -1.0757111 -0.5623643
0001b0 85 4a a4 3d 59 f4 c7 3d dd fb 0c 3f 60 21 07 c0
       0.08022026 0.097634025 0.5507181 -2.111412
0001c0 bc 83 3c bf 6b 42 94 bf f0 65 38 3f cd c4 1c bd
       -0.7363851 -1.1582769 0.72030544 -0.03827362
0001d0 bf 4d 20 40 4c 1c af be cd aa 69 3f d5 e9 24 3f
       2.5047452 -0.34201276 0.91276246 0.644193
0001e0 1b d5 92 3e f3 8a 35 3f 1a f1 db 3c d6 c6 08 be
       0.28678212 0.70915145 0.026848365 -0.133571
0001f0 be c4 b7 3f b4 48 f7 bd 4b 20 d4 3f 63 7c 98 3f
       1.4356916 -0.12074414 1.6572355 1.191296
000200 76 3a 72 3f 62 06 85 3e c2 db 80 3d 3b d3 d0 3f
       0.94620454 0.25981432 0.062919155 1.6314462
000210 48 13 11 3e d8 24 c4 be 18 ba 69 3f f1 16 67 bf
       0.14167511 -0.3830936 0.9129958 -0.9026938
000220 eb 74 ec be b7 b9 ed bd 5d 14 33 bf fa fe 99 3f
       -0.4618295 -0.11607688 -0.69952947 1.2030938
000230 5c a3 55 bf d2 2d a1 3e 00 99 6d bf 54 18 8a bf
       -0.8345239 0.3148027 -0.92811584 -1.0788674
000240 8c c4 2f bf d0 54 90 3f c6 2b b9 be 2f 86 c0 3f
       -0.6865928 1.1275883 -0.3616621 1.504095
000250 6b de dd bc 0b 53 dd be c1 eb cc 3f d3 16 05 c0
       -0.027083596 -0.4322742 1.6009446 -2.079518
000260 48 59 9f bf 08 ef b6 3f 23 6a 3f 3f df a1 97 bf
       -1.2449121 1.4291697 0.74771327 -1.1846274
000270 56 c4 c1 3e 66 b2 1c be 28 d4 49 be ed dd 2f be
       0.37845105 -0.15302429 -0.19709837 -0.17174502
000280 51 9f 4c be 64 87 92 3f dd b4 dc bf 58 95 b6 be
       -0.1998265 1.1447568 -1.7242695 -0.35660815
000290 09 6e 6a bf 1a 09 ac bf 96 c6 23 bf 3c d7 17 bf
       -0.9157415 -1.3440278 -0.63974893 -0.59312797
0002a0 bc 06 7e 3e 90 d7 c9 bf 37 c2 b9 bf 04 eb 29 40
       0.24807256 -1.576891 -1.4512395 2.6549692
0002b0 18 fb 7f 3d 62 c7 a5 bf 22 b5 57 3f 7c ff 3c 3f
       0.06249532 -1.2951472 0.8426076 0.7382734
0002c0 cf 19 7a 3f 2e 84 8b 3f 77 22 af bf 67 4a 83 be
       0.9769563 1.0899713 -1.3682393 -0.25642702
0002d0 76 2c 9e 3f 34 f4 a3 bf 4b a3 c3 3d 6f a8 ac 3e
       1.2357318 -1.28089 0.0955263 0.33722255
0002e0 c4 1d d1 be 59 7d 6d be 71 9d ed bf 3c 2a d5 bd
       -0.40843022 -0.23192348 -1.8563672 -0.10408446
0002f0 49 db c8 be 97 57 da bf f1 90 62 bf 46 e4 dc bf
       -0.392298 -1.705798 -0.88502413 -1.7257164
000300 73 e2 b3 3f 73 4b 1c 3f 3b 36 54 3f 1e ba 1c 3e
       1.4053482 0.61052626 0.8289525 0.15305373
000310 1a 7f 91 3f 47 d5 20 3f 5f 09 ed 3e 5e 8c f8 be
       1.1366913 0.62825435 0.46296212 -0.48544592
000320 32 d1 18 3f ba 50 49 3e a7 7a 17 3f 6b 9c 18 3d
       0.59694207 0.19659701 0.5917153 0.037258547
000330 0b 99 45 3f 9e b0 05 3f ed d8 d4 bd 12 39 88 3f
       0.7718665 0.5222262 -0.10392938 1.0642416
000340 69 6d 0c bd 44 b8 51 3f 25 b0 05 3c e2 52 1a bf
       -0.03428403 0.8192179 0.008159672 -0.6028272
000350 d3 1d 16 3f 57 ba 34 bf b7 30 a4 bf 94 85 24 c0
       0.5863926 -0.7059683 -1.2827367 -2.570653
000360 6d 2f b5 be 14 63 26 3f 6d d3 8a 3e dc d4 b9 be
       -0.35387745 0.6499493 0.2711443 -0.3629521
000370 d4 d8 6c bf 61 57 36 3f 55 e7 27 3f 91 56 ae 3f
       -0.92518353 0.7122708 0.6558736 1.3620168
000380 72 40 06 bf c6 d5 1a 3f 4f f3 99 3d 5f 24 e5 be
       -0.52442086 0.6048244 0.075171106 -0.4475431
000390 be 89 7c be 79 d4 1b 3f 09 11 2a 3f ff cf 2a 3e
       -0.2466192 0.6087108 0.66432244 0.16680907
0003a0 5f c3 8a be 3f 89 a1 3f 31 c3 71 be ae a2 95 3e
       -0.2710218 1.2620009 -0.23609616 0.29225677
0003b0 2c 2c 74 3e 34 46 fc bf 4b d4 b8 bc 50 5a ae bf
       0.23844975 -1.9708924 -0.022562167 -1.3621311
0003c0 67 25 ae 3e 92 ee d0 bf cc 23 ad 3e a3 5d b8 bd
       0.3401291 -1.6322806 0.33816373 -0.09002235
0003d0 49 25 bb 3f 19 c1 7b 3f e0 e3 30 3f 15 ad 3c 3e
       1.4620754 0.9834152 0.6909771 0.184254
0003e0 14 f3 d2 3e 93 6d 88 be a5 e5 a8 bf de ff e8 3f
       0.4120108 -0.26646098 -1.3195082 1.8203084
0003f0 82 6d 2f 3f 15 2a 36 3d 52 7c 70 be 9e 6d 11 40
       0.6852647 0.044473726 -0.23484924 2.2723155

layer1.bias f4 [16]
000000 45 08 f4 bc 89 f0 0a bd 8d b0 81 bd 05 82 13 3d
       -0.0297891 -0.0339208 -0.063325025 0.03601267
000010 da 50 9e 3d 81 27 bd 3d a0 68 09 3d 03 a5 ed 3c
       0.07730265 0.092360504 0.033547044 0.029009348
000020 48 45 b1 bc 8d c4 df 3c 9a 01 bb bd 2c f1 27 3e
       -0.021639481 0.027315402 -0.09131165 0.16400594
000030 68 b2 58 3d 79 ee 2f 3d a8 f2 5b 3d ef 8d 65 bd
       0.052904516 0.042952035 0.053698212 -0.05604356

layer2.weight f4 [16, 16, 3, 3]
000000 0b e6 58 3f f2 24 69 3f 01 c0 d8 bc 2d d7 f7 be
       0.8472602 0.91072 -0.026458742 -0.48406354
000010 e7 47 a4 3e ca 63 80 bf 9e c5 ce 3f 5e 2b fa 3e
       0.32086107 -1.0030453 1.6154058 0.48861212
000020 8c 96 4c 3e 50 87 27 bf 17 d8 cc 3e 02 5b 26 bd
       0.19979304 -0.65440845 0.40008613 -0.040614136
000030 72 71 25 bf 83 29 9d bf 43 36 06 be 08 f4 42 3e
       -0.6462623 -1.2278293 -0.13106637 0.19038403
000040 5d e9 e2 bb 21 2a 5b be d6 6f 4e bf 52 dc 64 3f
       -0.0069247917 -0.2140279 -0.806394 0.8939868
000050 f3 86 d1 bf 61 e5 20 3e d5 01 87 3f 2c ba d4 bf
       -1.6369308 0.15712501 1.0547434 -1.6619315
000060 86 35 9f bf e8 14 d1 bb 88 80 94 3f b1 8f 3c 3f
       -1.2438209 -0.006380666 1.1601725 0.73656756
000070 c9 54 a5 bf da fa d7 be f4 ff 2a bf f4 90 7e 3e
       -1.2916499 -0.42183572 -0.66796803 0.24859983
000080 d3 2a 01 bf e9 83 82 3f 88 f2 5a bf 6d ae 2d bf
       -0.5045597 1.0196506 -0.85526323 -0.6784428
000090 f8 07 55 3f 3d ac 83 3f fb b9 73 bf d2 bb a0 bd
       0.83215284 1.0286938 -0.9520566 -0.07848324
0000a0 71 a8 13 bf 28 dc e5 be 37 73 4e bf 1b 8d 7a be
       -0.57678896 -0.44894528 -0.80644554 -0.2446789
0000b0 1e f8 0e be 71 95 ed 3d 8c da 84 3e 47 95 59 3f
       -0.13961837 0.11600769 0.25947988 0.84993404
0000c0 4f cf be bf b4 ae 0d bf 38 9a 47 bf 70 76 06 3f
       -1.4907016 -0.553447 -0.77969694 0.5252447
0000d0 f7 18 a5 3f e1 fa 50 3f ca a9 f1 3d c7 91 d5 bf
       1.2898244 0.8163281 0.11799963 -1.6685113
0000e0 b9 84 09 3f 16 68 ae bf 24 f6 a8 3d 82 56 b4 3e
       0.53718144 -1.3625515 0.082500726 0.3522225
0000f0 25 04 0e 3e 56 31 be 3f 9a 3c db bf eb 5f 94 be
       0.13868769 1.4858806 -1.7127869 -0.2897943
000100 31 af dc be 7c 42 71 c0 39 1d 55 3f 7d 45 2f 3f
       -0.4310241 -3.769683 0.83247715 0.68465406
000110 b1 d2 12 bf a7 5a 3e bf 65 84 5e 3f bf 12 0a 3e
       -0.5735274 -0.74357074 0.8692077 0.13483714
000120 2c c9 c8 be 2b 7c 1a bf a3 bb 86 3f 1b a3 f7 be
       -0.39215982 -0.60345715 1.0526012 -0.48366627
000130 83 c3 17 40 ff 9d 7b 3f 04 7f 45 be 18 67 72 bf
       2.371308 0.9828796 -0.19286734 -0.9468856
000140 74 64 40 40 56 ef 1f 3f 4a bd fa 3e 6b 02 f5 3f
       3.0061312 0.6247457 0.4897254 1.9141363
000150 f3 7a d5 3f e4 4c fd 3e 1d 04 1f bf a4 40 6d 3f
       1.6678146 0.49472725 -0.6211565 0.9267676
000160 9b 10 68 3f 38 27 e2 be 4d 6b 0d 3f 77 da 0b 40
       0.9065034 -0.44170547 0.55241853 2.185209
000170 88 99 41 bf cb ca ac 3f c1 91 57 be 6e 89 e2 be
       -0.75624895 1.3499388 -0.21051694 -0.44245476
000180 70 e4 48 3c 32 b3 aa be 1e 98 83 bd b6 f4 da 3f
       0.012261495 -0.3333984 -0.064254984 1.710593
000190 92 21 ed 3e 48 5e 2a bf 44 d5 58 bf 79 40 2f bf
       0.46314675 -0.6655011 -0.8470042 -0.6845775
0001a0 2a 5a 8e be 7b fe 8a bf dc e1 77 bf ff 21 8b bd
       -0.27803165 -1.0858911 -0.9682901 -0.067935936
0001b0 0f 38 97 3f bd 12 9a bd dd 75 94 bf b6 87 cf be
       1.1813983 -0.07523105 -1.1598469 -0.40533227
0001c0 f3 a0 bd 3f 2c ab 1e 40 5b b9 8c 3e db 37 b5 3f
       1.4814743 2.4791975 0.27485165 1.4157671
0001d0 3c 03 36 bf a5 f4 a6 3f 93 23 ef bf 21 ef 45 3f
       -0.71098685 1.304341 -1.8682731 0.77318007
0001e0 c7 90 06 bf 8a 91 c1 3e 96 a8 24 3f 18 a0 18 3e
       -0.5256466 0.3780635 0.6431974 0.14904821
0001f0 50 d4 8a bf fa c4 a6 be c0 ad 81 3d b9 c3 8e bf
       -1.0846043 -0.32572156 0.06331968 -1.115348
000200 d3 8f 3a bf e4 47 af be 1f 25 da 3e eb 10 9f 3f
       -0.7287571 -0.34234536 0.42606446 1.2427038
000210 75 c7 e6 bf 4f de fd be a5 51 1d 3f 5c 3d b3 3e
       -1.802962 -0.4958367 0.61452705 0.3500775
000220 c6 63 bf 3f b8 7f 0e 3f c1 8c 05 3f e2 6a 89 be
       1.4952323 0.55663633 0.521679 -0.26839358
000230 85 ae 7c 3f 27 8a 0a 40 d2 d6 ef be 0a d5 76 bf
       0.98703796 2.1646821 -0.46843582 -0.9641882
000240 46 64 7a bf e5 cb 8d 3e de 00 7e 3f a5 0b 8e 3e
       -0.97809255 0.27694622 0.99220073 0.2774326
000250 fd 5a 8d 3f 88 6a 0e bf e5 93 46 3f 09 08 b8 3f
       1.1043392 -0.55631304 0.7756942 1.4377452
000260 70 b1 a6 3e b5 5f 7f 3f 5b ab 0a 3f 0c 17 72 3f
       0.3255725 0.9975541 0.5416772 0.94566417
000270 5b bc 84 be f2 54 79 be 4d 9d 80 bf 92 68 b5 bf
       -0.25924954 -0.2434881 -1.0048004 -1.4172537
000280 5d b5 68 bf 3d ee 41 3f 6d fa d8 3f 5f bb 3b bf
       -0.9090174 0.7575415 1.6951424 -0.7333278
000290 d4 ab 73 3f 5b d3 74 3f bc de 09 40 30 ee 2d 3f
       0.95184064 0.95635 2.1542196 0.6794157
0002a0 9b 41 19 3e a3 e3 6c bf a6 b9 75 bf ad 29 c4 3e
       0.14966433 -0.92534846 -0.959864 0.38313046
0002b0 de cc 78 be d2 1c ba 3e e8 fd 53 3f 7c 49 5a bf
       -0.242969 0.36350113 0.82809305 -0.8526838
0002c0 4f c2 58 3f de 97 97 3f 8a f8 20 bf 49 66 14 3e
       0.8467149 1.1843221 -0.6287924 0.14492144
0002d0 1d e9 22 bf 79 c2 fc bf c3 58 95 3f eb 83 27 bf
       -0.6363695 -1.9746848 1.1667713 -0.65435666
0002e0 9d 90 1f bf 97 b7 28 3f 9e 65 87 bf d0 0d 17 bf
       -0.6233004 0.65905136 -1.0577886 -0.5900545
0002f0 80 c6 60 3f 4a b3 93 3e db 71 e0 bd 93 4f 2d bf
       0.87802887 0.28847724 -0.10959216 -0.67699546
000300 5a 6e d7 3f ef 7c 48 3d da 9f f2 3f ea f1 f5 3e
       1.6830552 0.04894727 1.8955033 0.48036128
000310 3a de 89 bf bc d0 10 3f cf f1 b8 be 9f 4a 09 3e
       -1.0770943 0.56568503 -0.36121985 0.13407372
000320 3b 93 49 bf be 05 c0 bf 44 dd 5b bf 97 7d 06 3f
       -0.7874028 -1.5001752 -0.858845 0.52535385
000330 af bf 6c bf 9f 6e d9 3b b5 4f 56 40 7f 7f 29 bf
       -0.92479986 0.0066355015 3.348615 -0.6621017
000340 e0 0f 93 3e 4f 97 12 bf 67 7b 88 be 84 b6 02 40
       0.2872305 -0.5726213 -0.2665665 2.0423899
000350 fb f8 9c bf 19 14 cc 3e 53 5c 34 bf 6d 59 45 3e
       -1.2263483 0.39859083 -0.70453376 0.19272394
000360 41 fd ec 3f ab 08 38 3e e9 83 15 bf 67 20 bb be
       1.8514787 0.17972057 -0.58404404 -0.3654816
000370 b5 7b 97 bc ff a9 4d 3e 74 51 8d 3c 7c 1d 89 3f
       -0.018491605 0.2008438 0.017250754 1.0712123
000380 e8 b1 cf bd 9d d1 05 3f aa 54 87 bf f9 c0 b9 3f
       -0.10141355 0.5227297 -1.0572712 1.4512016
000390 13 cd e4 3c a9 42 da 3f 24 42 93 3f f9 25 f7 bf
       0.027929818 1.7051593 1.150456 -1.9308463
0003a0 b4 c0 b4 bf 91 55 e8 bf 57 88 84 be 70 c5 96 3e
       -1.4121308 -1.8151113 -0.2588527 0.29447508
0003b0 7a d7 78 3e f6 4b 91 bc b5 3f f9 3f 03 16 05 40
       0.24300948 -0.017736416 1.9472567 2.0794685
0003c0 53 63 51 40 a7 af b5 3e 2e c8 33 bf 45 28 f7 3e
       3.2716873 0.35485575 -0.70227325 0.4827291
0003d0 27 af ff 3f 64 7c f5 3e ec e2 85 bf c9 1f cf 3f
       1.9975327 0.47946465 -1.0459876 1.6181575
0003e0 dd d9 73 bf 14 07 3d 3f d5 00 4a bd 78 98 ad 3e
       -0.9525431 0.73838925 -0.0493172 0.33905387
0003f0 6b 1f 2b bf b9 88 5a 3d 70 cf 86 bf 0e 28 71 bf
       -0.66844815 0.053353045 -1.0532055 -0.94201744

layer2.bias f4 [16]
000000 00 00 00 00 00 00 00 00 d1 e8 36 3f 00 00 00 00
       0.0 0.0 0.71449 0.0
000010 00 00 00 00 00 00 00 00 00 00 00 00 00 00 00 00
       0.0 0.0 0.0 0.0
000020 00 00 00 00 00 00 00 00 00 00 00 00 00 00 00 00
       0.0 0.0 0.0 0.0
000030 00 00 00 00 00 00 00 00 00 00 00 00 00 00 00 00
       0.0 0.0 0.0 0.0

layer2_bis.weight f4 [16, 16, 3, 3]
000000 ff 11 c1 3f f0 db 7f 3f 8b 18 5e bf 89 15 da bf
       1.5083617 0.99944973 -0.867562 -1.7037822
000010 34 52 a5 3e c8 87 19 40 f5 11 85 3e 86 4a 8d 3d
       0.32289279 2.3989124 0.25990263 0.0689898
000020 f8 14 d4 be f2 f4 37 bf 95 2a d5 3d a7 e8 59 bf
       -0.41422248 -0.7185813 0.104085125 -0.85120624
000030 2b b5 91 3f ec ef d4 3f f3 a2 0c 40 ec 33 bc bf
       1.1383413 1.6635718 2.1974456 -1.4703345
000040 b2 01 c6 3e 0c b6 1b bf 2d 73 80 3e 51 76 5b bf
       0.38673168 -0.60824656 0.25087872 -0.8572741
000050 7f 49 db 3e 45 cf 45 bf 8f ad 80 3e ce 24 ff 3c
       0.4282951 -0.77269393 0.25132415 0.03114548
000060 53 c8 d2 be 76 97 71 bf 16 e6 d5 3e 63 c7 58 3e
       -0.4116846 -0.94371736 0.41777104 0.2116981
000070 d7 78 0e 3e f5 e0 b0 be cc df b2 bf 6d a1 a9 bd
       0.13913284 -0.3454663 -1.3974547 -0.08282743
000080 1e d7 69 3f 80 83 07 3f 24 1f c8 bf 64 d9 5a 3f
       0.9134387 0.5293503 -1.5634503 0.8548796
000090 81 47 57 3f f8 e2 00 bf 0a 14 3f bf 15 a0 02 bf
       0.8409348 -0.50346327 -0.7463995 -0.51025516
0000a0 4e 58 cb bc 16 5c 7f 3f 45 5c 04 c0 7d 6c 88 be
       -0.02482238 0.99749887 -2.0681317 -0.2664527
0000b0 e4 13 62 3f 7c b0 58 3f 8c a7 0f bf fd 38 3b bf
       0.883116 0.84644294 -0.5611503 -0.7313383
0000c0 aa 05 4d bf fc ad 0c bf e4 e3 a7 3e b5 ca 07 bf
       -0.8008677 -0.5495298 0.32791054 -0.5304368
0000d0 d3 a6 c1 be c8 25 3b 40 ba 62 09 3f b4 c9 8f bf
       -0.3782259 2.924181 0.5366627 -1.123343
0000e0 1a 3d c7 bf 5f 9c 89 bf 84 c2 10 c0 30 07 6e 3d
       -1.5565522 -1.0750846 -2.2618723 0.058112323
0000f0 50 13 20 3f 78 57 0d bf 5e f7 93 bf 28 7c 9b be
       0.6252947 -0.5521159 -1.1559865 -0.3036816
000100 d1 ce 3e 3e 79 07 a6 3f 46 4a 1c 3f 53 45 3f bf
       0.18633582 1.297103 0.6105083 -0.74715155
000110 ed 55 af 3e 7e 1b 18 3f 0f 19 16 be 83 12 ee bd
       0.34245244 0.5941695 -0.14657997 -0.116246246
000120 98 66 1d bf f1 98 99 3a c4 a6 a8 3d 73 80 ab 3f
       -0.6148467 0.0011718554 0.08234933 1.3398575
000130 1b ea 13 3e 67 35 fa 3c b0 07 90 bf 97 94 1c 3f
       0.14444773 0.030543042 -1.1252346 0.6116423
000140 09 9c f6 3e a1 bc 63 bf 7d 8f a6 be a1 ea f3 3e
       0.4816592 -0.889597 -0.32531348 0.47639945
000150 b7 0d 2b 3f f3 06 2a c0 d7 d6 99 3e 89 ca 93 3f
       0.668178 -2.6566741 0.30046722 1.1546184
000160 31 16 2f bf 29 71 cc bf d6 50 c5 3f cb c2 a7 bd
       -0.68393236 -1.5972034 1.5415294 -0.08191451
000170 3b c0 87 bf 7a a2 f0 bd 63 2e 0b 3f c3 03 10 3f
       -1.0605539 -0.1174974 0.54367656 0.5625574
000180 9c 7b bc be d0 59 cd bf da 5e ac 3f 09 fb 02 3f
       -0.36813056 -1.6043034 1.3466446 0.511643
000190 a4 3d c0 be 43 43 2c bf cb 61 70 3f 43 e5 8a be
       -0.37547028 -0.67290133 0.9389922 -0.27128038
0001a0 eb 87 2c be 2c 29 c9 3f f5 da 60 3e 3c 4e 3d bf
       -0.16848724 1.571569 0.21958525 -0.739475
0001b0 b8 03 96 3f 95 59 91 3f 01 04 76 be 74 41 12 bf
       1.1719885 1.1355463 -0.24024965 -0.57131124
0001c0 2b eb 19 3f 17 e4 6f bf 6f 74 9c 3f cb 80 26 bd
       0.6012446 -0.9370741 1.2223033 -0.04065017
0001d0 d2 b5 59 be 84 25 5e 3f c9 bb 55 bf 44 19 4e bf
       -0.21260765 0.86775994 -0.8348966 -0.805073
0001e0 7e da 5d 3e 2b c7 64 3f 81 77 b0 bf 18 cf 87 3e
       0.2166538 0.89366406 -1.378647 0.26525187
0001f0 0e 66 b5 3f 9f 88 2b 40 8f df 3a bf cd a6 1b 40
       1.417177 2.6802137 -0.72997373 2.4320557
000200 c1 b8 1a 40 ae 32 2f 3c 1e 40 80 3f 5f 88 7e be
       2.4175265 0.010693235 1.0019567 -0.24856709
000210 1c f0 72 be b6 27 c4 be 0e 53 32 bc 60 85 90 be
       -0.23724407 -0.38311547 -0.01088406 -0.28226757
000220 53 83 88 3e ea 44 0e be 36 a9 18 bf d2 2c 2b bf
       0.26662692 -0.13893476 -0.59633195 -0.66865265
000230 dc 2a 2e 3e 74 1b 0f 3f 9f 7e f6 3e 9f b6 b4 bf
       0.17008537 0.55901265 0.4814348 -1.4118232
000240 48 95 7a 3e 10 2c c5 bf 80 ec 2e bf ce 13 90 be
       0.24471009 -1.5404072 -0.6832962 -0.2814011
000250 98 7d ed 3e ed 7c b8 be b1 f3 72 3e ad 30 51 bf
       0.46384883 -0.3603281 0.23725773 -0.817149
000260 6a c2 b5 be 3d 2c 81 3e e3 72 e7 be 83 68 3f 3f
       -0.3549989 0.25229064 -0.4520484 0.7476885
000270 ec e5 7b bf c2 0d 08 c0 d1 19 f6 3f 1b 71 18 40
       -0.9839771 -2.1258397 1.9226629 2.3819034
000280 77 35 91 3d 49 86 ee 3f 40 6c 3d 3e 63 c1 6e bf
       0.07090276 1.863473 0.18498325 -0.93263835
000290 7d ef 40 bf 6c d0 86 3f c1 60 06 be 8f cf 69 3f
       -0.7536543 1.0532355 -0.13122846 0.91332334
0002a0 58 47 00 c0 45 e3 35 bf e5 08 8c 3f 85 7e 0b 3f
       -2.0043545 -0.7104991 1.0940214 0.5448993
0002b0 b3 66 f8 3e 20 95 ef be 90 11 c5 be d0 50 2b 3f
       0.48515853 -0.4679346 -0.38489962 0.66920185
0002c0 80 04 dd 3e 7e 9b d8 bf a8 76 d9 be 62 6c a2 bd
       0.43167496 -1.6922452 -0.4247334 -0.07930829
0002d0 1c 18 8f be 1f 96 0a 40 92 c0 33 bf 15 7e 54 be
       -0.27948081 2.1654127 -0.70215714 -0.20751221
0002e0 d2 f2 df 3e 96 54 20 3e d5 cf 6b 3f 00 02 8d 3f
       0.43739945 0.15657267 0.92114 1.1016235
0002f0 66 d3 ed bd 8d 0b 39 3f cf 54 89 be ca 24 0a 3e
       -0.11612587 0.7228325 -0.26822516 0.13490596
000300 be ec 3d bf ee 90 2c bf 0a ca 98 3e 55 e8 92 bd
       -0.74189365 -0.67408645 0.29841644 -0.0717322
000310 13 28 a7 3c eb 8f 93 3f 2d 40 73 be 75 0e 51 3e
       0.020404851 1.1528295 -0.2375495 0.20415671
000320 14 e8 b5 3d 2e 8f 2f bf 0c e9 b7 3f 8b 7a 9d bd
       0.08882156 -0.6857785 1.4367995 -0.07689389
000330 fb 23 46 3f 36 8d 8c 3f ba 73 ac bf e4 5a ed 3f
       0.7739865 1.0980594 -1.3472817 1.8543363
000340 d6 56 b0 be bc a1 31 3f 0d ca 9b bf cb 54 33 3f
       -0.3444125 0.6938741 -1.2171036 0.7005126
000350 7f 6b c5 bf a3 48 fd 3d 56 e0 12 3e fe 5b 92 3f
       -1.542343 0.1236737 0.1434339 1.1434324
000360 54 84 ce bf 0a b6 80 bf bf d7 39 3f 39 87 1d bf
       -1.6134133 -1.0055554 0.7259483 -0.6153446
000370 c3 df 13 bd f2 dd 88 3f 36 04 3a 3f 59 65 7f bf
       -0.036102068 1.0692732 0.72662675 -0.9976402
000380 4d 5d 25 bf 25 b5 b6 3e 86 30 9d bf 71 a7 55 bf
       -0.6459549 0.35685077 -1.2280433 -0.8345862
000390 3a 07 82 3f 57 e2 08 3f 84 95 65 3f bf bd e0 bf
       1.0158455 0.5347037 0.8968127 -1.7557906
0003a0 0e 4f 2f 3e b7 51 63 bf 94 80 0d 3f ce 41 9f 3f
       0.1712 -0.8879656 0.5527432 1.2441957
0003b0 02 21 4d be 83 b7 f3 3e c0 b1 b6 3f 7f 1b a3 bf
       -0.20032123 0.47600946 1.4272995 -1.2742766
0003c0 c5 7d b5 bf 68 86 6f be 08 84 24 be 57 22 09 3d
       -1.4179007 -0.23391116 -0.16065991 0.033480015
0003d0 d1 3b 7a 3f 93 e6 2a 3e c3 b1 35 3c 1b 9b 19 bf
       0.9774752 0.1668952 0.011089745 -0.600023
0003e0 21 b1 91 3e 6f b5 29 bf 06 75 2c 3f 70 4c 96 bf
       0.2845545 -0.6629247 0.67366064 -1.1742077
0003f0 dd 81 87 3c bf f7 ec 3e c6 03 2e bf 54 9e 9b 3f
       0.016541416 0.46282765 -0.6797451 1.2157693

layer2_bis.bias f4 [16]
000000 db c6 36 bd 73 08 33 bc 78 9c 45 3d d3 a5 79 3c
       -0.044623237 -0.010927307 0.048244923 0.0152372895
000010 1a 48 eb 3c 1c ad fb 3c 04 34 26 bd e2 52 a2 bc
       0.028720904 0.030722193 -0.04057695 -0.019814912
000020 36 89 18 bd 6c 47 2f 3d 70 57 aa bc 4f 2d 7c bc
       -0.03724023 0.042792723 -0.020793647 -0.015391662
000030 67 fc 76 bd 8d d7 08 3d 1f fc 93 ba 5e 69 26 3d
       -0.060299303 0.03340869 -0.0011290348 0.04062783

layer3.weight f4 [16, 1936]
000000 3d df 97 40 fe fb 8a bf 28 23 16 40 74 1c 26 be
       4.746001 -1.0858152 2.3458958 -0.16221792
000010 af df 42 c0 16 5e b7 bf 37 b8 db 3f e5 f4 0a 40
       -3.0449026 -1.4325588 1.7165593 2.1711972
000020 31 42 1c 40 22 d2 85 bf 73 57 a6 bf 2c 47 42 3f
       2.44154 -1.0454752 -1.2995437 0.7588985
000030 77 48 06 40 1f 24 ed 3f c7 75 1c c0 0c 2d 54 c0
       2.098173 1.8526648 -2.4446886 -3.3152494
000040 de 27 1b 3f 00 ba b2 bf dc ac 06 bf 6a 0b 11 be
       0.6060771 -1.3963013 -0.5260751 -0.1416451
000050 7f 93 cc 3e 96 d4 2f 40 f6 9a c6 3e 08 b0 5a c0
       0.3995628 2.7473502 0.387901 -3.416994
000060 cf ae ad 3f 02 03 50 3f ad 62 50 c0 0d 6d b4 3f
       1.3568972 0.8125459 -3.2560227 1.409578
000070 cb 71 33 c0 8e 49 33 c0 22 d1 7a c0 19 e3 21 3f
       -2.8038204 -2.8013644 -3.9190145 0.6323715
000080 71 b2 ec 3f 2f ab 13 be fe 48 f7 3e a3 3e 97 3f
       1.8491956 -0.1442077 0.48297876 1.181599
000090 60 5f 7f c0 8d 35 06 40 d8 f4 c7 3e e4 61 de 3f
       -3.9901962 2.0970185 0.39053988 1.7373624
0000a0 70 d5 f6 3f ff 11 00 c0 71 d1 84 bf 03 50 04 3f
       1.9283886 -2.0010984 -1.0376416 0.5168459
0000b0 a1 91 48 bf 3c ff 34 3f a0 56 7f c0 74 62 87 bf
       -0.7834721 0.70701957 -3.9896622 -1.057692
0000c0 05 81 16 3e b2 61 c8 3d c9 0b bc bf c9 fc 2a 40
       0.14697655 0.09784259 -1.4691097 2.6716788
0000d0 20 f8 34 c0 8a b5 3f 40 ea 20 c0 3f c6 71 2a bf
       -2.8276443 2.9954553 1.5010045 -0.66579854
0000e0 59 bf 50 bd b8 7d 1c 40 ff c6 41 c0 a8 f1 19 bf
       -0.050963733 2.4451733 -3.0277708 -0.60134363
0000f0 47 03 dc be 3a a3 06 c0 76 08 43 40 ff 49 97 3e
       -0.4297125 -2.1037126 3.0473914 0.29548642
000100 39 c1 15 40 67 61 4f c0 19 30 6f 40 54 3e 07 be
       2.3399184 -3.24032 3.7373106 -0.1320737
000110 64 ce 20 c0 f5 b4 f4 bf 09 f7 a9 3f ca e6 8c bf
       -2.512597 -1.9117724 1.3278514 -1.1007931
000120 78 94 f8 be c6 b9 53 40 1d c2 0d c0 00 f6 8d bf
       -0.48550773 3.3082137 -2.2149727 -1.1090698
000130 b9 14 f2 3f 3b 53 a3 3f 03 e7 ea be c1 64 af 3f
       1.8912574 1.2759775 -0.45879373 1.3702623
000140 60 ae 4b 40 d8 bd e1 3f ad 7f 4d 3e 91 1b a6 3e
       3.182518 1.7636061 0.20068236 0.32442906
000150 b2 e7 81 3f 12 00 22 3f 95 76 66 c0 98 f4 a2 c0
       1.0148833 0.6328136 -3.6009877 -5.0923576
000160 dd 10 5d 3f 2e b5 40 40 c9 b8 ed be 5c eb c7 bf
       0.86353856 3.0110583 -0.46430042 -1.5618701
000170 14 f5 3e be 9e 85 1c 3f f0 03 d7 bf f5 11 eb 3f
       -0.18648177 0.61141384 -1.6798077 1.8364855
000180 16 00 39 40 1a 41 19 3e 85 61 30 be 13 93 78 3f
       2.8906302 0.1496624 -0.17224701 0.9709942
000190 4e 8e 90 3e 51 b7 6e 3f f2 4d ab 40 b7 68 14 bf
       0.2823357 0.9324847 5.353265 -0.5797228
0001a0 73 6e 62 be eb 5c 01 40 e5 4c ed be 57 6a 63 3f
       -0.22112446 2.0212963 -0.46347728 0.88834137
0001b0 d1 4f 38 3d f0 ba 3d be ae 3a 95 3f bb 1f 5d 3f
       0.044997994 -0.18528342 1.1658533 0.8637654
0001c0 bf 9c 62 be be 27 cd 3e 84 9f e0 bf 86 5e be 3f
       -0.22130106 0.40069383 -1.754868 1.4872596
0001d0 0e 8a 11 bf ba 3a e1 3f 9c a1 33 40 42 6c cd bd
       -0.5685128 1.7596047 2.8067389 -0.10030414
0001e0 5d 3d 87 c0 d2 46 fb 3f a7 e4 dc 3f 48 af 26 3f
       -4.2262406 1.9630988 1.7257279 0.6511121
0001f0 40 32 75 bf a7 29 3f 3f 69 ed 2d bd 86 aa 57 c0
       -0.957798 0.7467293 -0.04246274 -3.369783
000200 fe 7b 46 c0 ef 9e bb be 53 05 7d 3f 73 21 4f 40
       -3.101318 -0.36644694 0.9883625 3.2364166
000210 1b aa ab 3f f7 26 71 bf 68 89 07 3d fe 4f 6a 3f
       1.3411287 -0.9420008 0.033090025 0.9152831
000220 f3 6a 74 c0 37 de 82 40 03 d0 80 3f fe 95 5d c0
       -3.8190277 4.089626 1.006348 -3.4622798
000230 25 3a b1 3f 94 a0 2b c0 d8 d3 45 3b 83 0e fb 3e
       1.3845869 -2.681676 0.0030186083 0.4903451
000240 58 45 67 c0 0f 04 fc be b6 23 44 3e 01 7b 85 3f
       -3.6136074 -0.49221846 0.19154248 1.0428163
000250 ef f1 cf bf e5 c2 fb 3e 84 a9 d2 be 95 ed e7 3e
       -1.6245707 0.4917213 -0.41144955 0.45298448
000260 25 85 4c 40 9c d1 bc bf a9 e5 fc bf c5 8c a6 3e
       3.1956265 -1.4751468 -1.9757587 0.32529274
000270 9d 36 4c 3f 8a 0c 3e c0 e4 f4 f0 3f b9 68 be bf
       0.79770833 -2.9695153 1.8824735 -1.4875709
000280 9e 23 c1 3e 7c 7b a0 3f 9f 9d 86 be fa f2 6a 3e
       0.37722486 1.2537684 -0.2629213 0.2294425
000290 7a 39 b5 bf 70 1c 34 40 8b 28 14 40 d3 3e 04 40
       -1.4158165 2.8142357 2.3149745 2.0663345
0002a0 db ee c8 c0 94 1d f5 bf 24 a1 53 40 37 05 ea 3f
       -6.279157 -1.9149652 3.3067102 1.8282841
0002b0 a5 e7 43 c0 8a 1a a9 3f 97 f1 3e be 7d 7c 8f 3d
       -3.0610135 1.3211224 -0.18646847 0.07006166
0002c0 8c 30 63 bf 06 c0 1a c0 38 7c 10 c0 1e 94 8d 3e
       -0.8874595 -2.4179702 -2.2575817 0.27652067
0002d0 26 dd 45 3f 75 6c 60 40 f3 1f a3 be 4f e0 65 40
       0.7729057 3.5066197 -0.31860313 3.5918157
0002e0 58 d0 68 3f bc ba 92 3f fc cc 4f bf d9 71 c2 bd
       0.9094291 1.1463237 -0.81172156 -0.09494371
0002f0 c7 4c fa bf 66 92 6b c0 b0 39 de bf 01 87 2d bf
       -1.955468 -3.6808105 -1.7361355 -0.67784125
000300 5a 91 c7 bf 51 ff 2b bf a5 15 d2 3e fc bc 6e bf
       -1.5591233 -0.67186457 0.41032138 -0.9325712
000310 82 bd b8 bf c4 bf 8e c0 c1 a5 8d 40 51 07 3c bf
       -1.4432833 -4.460909 4.4264836 -0.73448664
000320 16 ed a9 bf 1b 46 50 c0 e8 3e 56 40 18 f4 39 be
       -1.3275478 -3.254279 3.3475895 -0.1815952
000330 aa d4 8c c0 94 d1 8e 3f ea 03 0b c0 55 ad 89 bd
       -4.40096 1.1157708 -2.172114 -0.067225136
000340 04 f3 46 be bf bb 90 3f 6a 70 0c c0 1b 53 40 40
       -0.1942864 1.1307296 -2.1943612 3.0050724
000350 c3 77 44 3f f5 c2 d4 bf ee a6 7f bf 23 7e 03 40
       0.7674524 -1.6621996 -0.9986409 2.0545738
000360 bd b2 1c 3f fa f4 03 c0 fb 1c f1 bf 05 60 00 40
       0.6121023 -2.0618272 -1.8836969 2.0058606
000370 23 4a e4 3f de 42 de 3f a9 e5 2f 3d 94 6d 2e c0
       1.7835125 1.7364156 0.04294363 -2.725438
000380 c7 d4 a7 40 aa f0 54 40 b4 28 52 be 3f 19 33 40
       5.244724 3.327189 -0.2052334 2.798416
000390 dc 7e 62 3e c5 57 71 bf 97 b6 5e bf db c0 b3 bf
       0.22118706 -0.9427455 -0.8699736 -1.404323
0003a0 81 b2 94 40 65 e8 0c bf 72 ce 20 c0 dc be 65 40
       4.64679 -0.55042106 -2.5126004 3.5897741
0003b0 dc a3 a1 bf 79 b8 c2 bf a5 40 55 40 40 ed 18 3f
       -1.2628131 -1.5212547 3.3320706 0.59737015
0003c0 f1 1c 3c bf 3c 90 7c c0 b4 c1 29 c0 8d 72 7b c0
       -0.7348166 -3.9463034 -2.6524477 -3.9288666
0003d0 5f 1f 0b 3f 5b 75 41 40 62 ce b4 3e 86 b1 2d 3e
       0.54344743 3.0227878 0.35313708 0.16962251
0003e0 d8 77 8d bf cb 2d 6d bf 9e 73 22 bf 81 6f d3 3f
       -1.1052198 -0.92648 -0.6345767 1.6518403
0003f0 b7 fa fd 3d 3a 23 b6 3f 1d 44 5e be bf 78 12 bf
       0.12401336 1.42295 -0.2170567 -0.57215494

layer3.bias f4 [16]
000000 d4 9d fb bc a0 c5 5b bd 86 36 40 3d fe 17 90 bb
       -0.030714907 -0.053655267 0.046926998 -0.0043973913
000010 b3 eb 23 bd 66 14 5a 3d 9e b5 53 3d 54 52 13 bd
       -0.040019702 0.05324211 0.051686876 -0.035967186
000020 e4 c8 86 3c 42 e2 11 bd 1b 07 ef 3c 43 0d d1 3c
       0.016453214 -0.035616167 0.029178193 0.025519019
000030 cf e3 3d 3d ec af 24 bd 62 68 98 bd dc a2 19 3d
       0.046359833 -0.040206835 -0.074417844 0.03750883

out_layer.weight f4 [3, 16]
000000 b9 bb a1 bf cc ab 6c 3f dd 13 f1 3f 9b 15 3e 40
       -1.2635413 0.9244964 1.8834187 2.9700687
000010 eb 11 2f 3f d1 6e ae bf f5 ed 2d c0 28 e1 a7 3f
       0.68386716 -1.3627568 -2.7176487 1.3115587
000020 72 b8 41 3f eb 4d e4 be e0 7a 3c 40 51 e8 ac bf
       0.75672066 -0.44590697 2.9449997 -1.3508397
000030 0b a3 21 40 02 2d 1e 40 b5 92 c9 3f c2 0e 1e 3f
       2.5255764 2.471497 1.5747896 0.6174127
000040 20 2e 07 be c3 d9 c7 3f ef 10 b4 3f c8 e0 ef be
       -0.13201189 1.5613331 1.4067668 -0.46851182
000050 f8 46 97 3f 0b ad f2 3e 01 50 34 c0 90 71 b8 3f
       1.1818533 0.47397646 -2.817383 1.4409657
000060 20 fc 4c bf 4a 31 b0 3f ee 36 c1 bf d9 9a db 3f
       -0.8007221 1.3765042 -1.5094888 1.7156631
000070 62 e5 af bd f3 e0 22 3f 29 15 73 40 fa a4 c0 bf
       -0.08588673 0.63624495 3.7981665 -1.5050347
000080 86 dc d7 3c 82 c7 2b bf f2 b5 6a 3e 13 34 3b 3f
       0.026350271 -0.671013 0.22920969 0.73126334
000090 ef 1a 52 3d 3a b4 73 c0 b7 50 ec bf c7 ae 12 40
       0.051295217 -3.8078752 -1.8462132 2.2919176
0000a0 3e 76 8d c0 99 e0 2a c0 39 8b 2b 40 bf 8b f9 3f
       -4.420684 -2.6699584 2.6803725 1.9495772
0000b0 fa bf 8d bf 66 c6 b6 3d 91 aa d3 3f e2 62 3b 40
       -1.1074212 0.0892456 1.6536428 2.9279103

out_layer.bias f4 [3]
000000 9d 10 25 bd 7c 2d 53 bd 55 7d 4e bd
       -0.040299047 -0.05155705 -0.050412495
