src/ckpt/saved_ckpts/LL04.pt (torch_old, 73879 bytes, 6 tensors)

layer1.weight f4 [128, 8]
0	0x3f29838b	0.66216344
1	0xbf0fa62b	-0.5611293
2	0xbf679691	-0.9046412
3	0xbf36b002	-0.71362317
4	0x3f79bfb5	0.97558147
5	0x3fcc1904	1.5945134
6	0xbf0503fe	-0.51959217
7	0x3eed74bc	0.46378124
8	0xbefe1a95	-0.49629655
9	0x3ef3d811	0.47625783
10	0xbfb62cb4	-1.4232392
11	0xbe91221a	-0.2834633
12	0xc01ad9c8	-2.4195423
13	0xbffced2d	-1.975988
14	0x3f9a90a8	1.2075396
15	0x3f66c96d	0.901511
16	0x3df49068	0.11941606
17	0x3f9e585d	1.2370716
18	0x3f78ebc6	0.9723476
19	0x3d3f7864	0.046745673
20	0x3f7371ea	0.95095694
21	0x40401531	3.0012934
22	0x3ef9dd82	0.4880181
23	0xbef552ea	-0.4791482
24	0x3f7007a6	0.9376167
25	0xbf7fc678	-0.99912214
26	0x3f206662	0.62656224
27	0x3f3f4163	0.7470915
28	0xbf33a94d	-0.7018021
29	0xbee886b6	-0.45415276
30	0x3e6a5a40	0.2288599
31	0xbfe9916b	-1.8247503
32	0xbef5e2a7	-0.48024485
33	0x3f54285f	0.828741
34	0x3e95b83d	0.29242125
35	0x3dbedb43	0.093191646
36	0x3e9d97d6	0.30779904
37	0x3f8a80a7	1.0820512
38	0xbf5337d5	-0.8250707
39	0xbfa13dfa	-1.2597039
40	0x3f0a7c77	0.5409617
41	0xbcda4fb1	-0.026649328
42	0x3f8cd75a	1.100322
43	0x3ec97134	0.3934418
44	0x3db2058d	0.08692465
45	0xbfde6d8b	-1.737718
46	0xbf2597f7	-0.64685005
47	0x3fd66f4a	1.6752713
48	0xbf402335	-0.7505372
49	0x3f2de6c8	0.6793027
50	0x3e7cacae	0.24675247
51	0xbec1158f	-0.3771176
52	0xbe830e26	-0.25596732
53	0xbf1fe629	-0.6246057
54	0xbf8aa1c3	-1.0830616
55	0xbe28f1ad	-0.16498442
56	0x3e413e6e	0.18871471
57	0x3f91ab1f	1.1380347
58	0x3e857fcc	0.26074064
59	0xbec68f1c	-0.3878106
60	0xbf6adeaa	-0.9174601
61	0x3f148e11	0.58029276
62	0x3f3c85f4	0.73641896
63	0x3ef6978c	0.48162496
64	0xbfb608fb	-1.4221491
65	0x3ffd3c25	1.978398
66	0xc00962f7	-2.1466653
67	0x3f75d523	0.96028346
68	0xbec7c13a	-0.39014608
69	0x3f47a3e4	0.7798445
70	0x3f75b8ad	0.9598492
71	0xbf9426da	-1.1574357
72	0xbdf3bdec	-0.11901459
73	0x3fd21b55	1.6414591
74	0xbf393d96	-0.723596
75	0xbd96ca1a	-0.073627666
76	0x3f00fd22	0.5038625
77	0xbfdcfa5e	-1.7263906
78	0xbf2a75f2	-0.6658622
79	0x3e9541b3	0.29151687
80	0x3fd53a7b	1.6658472
81	0x4009340a	2.1438012
82	0xbefc8b17	-0.49324867
83	0xbf9819f9	-1.1882926
84	0xbf244eec	-0.64182925
85	0x3f82b89a	1.0212586
86	0xbf549a91	-0.8304835
87	0x3f41ad03	0.7565462
88	0x3f3949e9	0.723784
89	0x3fa23ff6	1.2675769
90	0x3ef21b92	0.4728666
91	0x3f864bd5	1.0491892
92	0x3eadbcb6	0.33933038
93	0x3f76bfaf	0.96386236
94	0xbffaa5d4	-1.9581857
95	0xbd5b8add	-0.053599227
96	0x3f690f17	0.9103865
97	0xbf7e9629	-0.99447876
98	0xbf5a2984	-0.852196
99	0x3d6a2ead	0.05717342
100	0xbe76b405	-0.2409211
101	0x3f7644e6	0.9619888
102	0x3e870e8d	0.2637829
103	0x3eede775	0.4646565
104	0xbf3e70a0	-0.743906
105	0x3e878b8b	0.2647365
106	0xbb232261	-0.0024892318
107	0xbf0f90c0	-0.56080246
108	0xbeb02eb5	-0.34410635
109	0xbfa2e52e	-1.272619
110	0xbf225c86	-0.6342243
111	0xbf6c6df4	-0.92355275
112	0x3f7cff69	0.98827225
113	0xbf51764b	-0.81821126
114	0xbed3929e	-0.41322798
115	0x3f02f01e	0.5114764
116	0x3f6c5485	0.92316467
117	0xbf83a380	-1.0284271
118	0xc018823f	-2.3829496
119	0xbfcad895	-1.5847346
120	0x3fd02ae9	1.6263095
121	0xc00d7bbd	-2.2106774
122	0xbffd5666	-1.9791992
123	0xbee1e249	-0.44117954
124	0xbf9fe1d3	-1.2490791
125	0x3fa104f6	1.2579639
126	0x3cdb9dad	0.026808584
127	0xbfc73ce3	-1.5565456
128	0xbfaca8a3	-1.3488964
129	0xbf3de768	-0.7418122
130	0x3fae8103	1.3633121
131	0x3fc6f3cf	1.5543154
132	0xbffea068	-1.9892702
133	0xbeeb22b8	-0.45924926
134	0xbebc5f9a	-0.36791688
135	0x3f91b50e	1.1383379
136	0xbbcce68c	-0.0062530693
137	0x3ed3673b	0.41289696
138	0x3f18e833	0.5972931
139	0x3f4b133b	0.7932622
140	0xbfb31835	-1.3991762
141	0xbede7eee	-0.43456215
142	0x3ebd0cf3	0.36923942
143	0x3fa4f802	1.2888186
144	0x3f296886	0.66175115
145	0x3d582a99	0.052775
146	0x3f2be11a	0.6714035
147	0x3f346b56	0.7047628
148	0xbfa3ccbd	-1.2796856
149	0x3fbed2c2	1.4908068
150	0xbf5e7af0	-0.8690634
151	0x3e4f824e	0.20264551
152	0x3f72cb45	0.94841415
153	0x3ed56673	0.41679725
154	0xbf7aff37	-0.98045677
155	0xbf47ae26	-0.78000104
156	0xbfbdf0e7	-1.4839143
157	0x3f43a825	0.76428443
158	0x3eb9c93e	0.36286348
159	0x3eec01fc	0.46095264
160	0xbfbb036a	-1.4610417
161	0xbd851b91	-0.064993985
162	0xbe5970b2	-0.21234396
163	0xbf5f67a0	-0.87267494
164	0x3f659c00	0.8969116
165	0xbf0828be	-0.5318717
166	0xbf8d72b0	-1.1050625
167	0x3ef47724	0.47747147
168	0x3fa63d6a	1.2987492
169	0x3f8e0a23	1.1096843
170	0xbefc4b9f	-0.49276444
171	0xbe217f49	-0.15771212
172	0x3f6eaf5e	0.9323634
173	0xbd17de93	-0.037077498
174	0xbecc347f	-0.398838
175	0xbf8e8f16	-1.1137416
176	0xbf8f94bc	-1.1217265
177	0xbf87ef8e	-1.0619981
178	0xbecd7a76	-0.40132493
179	0xbfc68587	-1.5509499
180	0x3d82889b	0.06373712
181	0x3f8d2b7f	1.1028899
182	0x3ee0f33b	0.4393557
183	0xbea06873	-0.31329688
184	0xbd838cf2	-0.064233676
185	0xc04dd0f3	-3.2158782
186	0x3f5b696e	0.8570775
187	0xbfb9b6e1	-1.4508935
188	0x3eb783a6	0.35842627
189	0x3f83a3b6	1.0284336
190	0xbdb497ea	-0.08818038
191	0xbea60ed4	-0.32433188
192	0x3efcf1b2	0.4940315
193	0x3f28b576	0.6590189
194	0xbf26a78c	-0.65099406
195	0xbe914e87	-0.28380224
196	0x40182cb2	2.377728
197	0x3fb1c900	1.3889465
198	0xbf22f90d	-0.6366127
199	0xbf656e31	-0.89621264
200	0x3ee4fe17	0.44725105
201	0xbe94a260	-0.29030132
202	0xbf1d0f6f	-0.61351675
203	0xbd830c2b	-0.06398805
204	0x3eaf8f98	0.3428924
205	0xbe9497f2	-0.29022175
206	0xc0007208	-2.00696
207	0x3dfb236c	0.122626156
208	0xbfafecb4	-1.3744111
209	0x3d68cda8	0.056836754
210	0xbf427e3f	-0.75973886
211	0x3fae2fb0	1.3608303
212	0x3fb1be01	1.388611
213	0xbdcc271c	-0.09968397
214	0xbe99f7cc	-0.30071867
215	0x3fa60727	1.2970933
216	0xbdc69dd7	-0.09698074
217	0x3fe61876	1.7976215
218	0xbf3285bd	-0.6973532
219	0x3f356b2b	0.7086665
220	0x3f1ee41b	0.6206681
221	0xbf31b851	-0.6942187
222	0xbf8f2ac7	-1.118493
223	0xbf12ba31	-0.57315356
224	0xbe4e8c96	-0.20170817
225	0x3e2b4626	0.16725978
226	0x3e9856b7	0.29753658
227	0xbf8eb313	-1.1148399
228	0xbf5894e2	-0.8460218
229	0x3f9f2b2f	1.2435054
230	0x3f906dd5	1.1283518
231	0x3f89cca8	1.0765581
232	0xbe01f633	-0.12691574
233	0xbf45fa23	-0.77334803
234	0xbeb504f5	-0.35355344
235	0x3f2102d7	0.6289496
236	0x3f4a1489	0.78937584
237	0x3f8cdaa1	1.100422
238	0x3ea4d89f	0.3219652
239	0x3d158b35	0.03650971
240	0xbfc2a185	-1.5205542
241	0x401361ee	2.3028522
242	0x3e36642e	0.17811653
243	0xbfad3ea5	-1.3534743
244	0xbeb15c09	-0.3464053
245	0x3f62b699	0.8855987
246	0x3e1e9928	0.15488112
247	0xbefce91e	-0.49396604
248	0xbff08722	-1.8791239
249	0x3b77726c	0.003775741
250	0x3f35e06c	0.71045566
251	0x3f298638	0.66220427
252	0xbf386cd3	-0.7204105
253	0x3fce1f0e	1.6103227
254	0xbf6c131f	-0.92216676
255	0xbf8ef9d1	-1.1169988

layer1.bias f4 [128]
0	0x00000000	0.0
1	0x00000000	0.0
2	0x00000000	0.0
3	0x00000000	0.0
4	0x00000000	0.0
5	0x00000000	0.0
6	0x00000000	0.0
7	0x00000000	0.0
8	0x00000000	0.0
9	0x00000000	0.0
10	0x00000000	0.0
11	0x00000000	0.0
12	0x00000000	0.0
13	0x00000000	0.0
14	0x00000000	0.0
15	0x00000000	0.0
16	0x00000000	0.0
17	0x00000000	0.0
18	0x00000000	0.0
19	0x00000000	0.0
20	0x00000000	0.0
21	0x00000000	0.0
22	0x00000000	0.0
23	0x00000000	0.0
24	0x00000000	0.0
25	0x00000000	0.0
26	0x00000000	0.0
27	0x00000000	0.0
28	0x00000000	0.0
29	0x00000000	0.0
30	0x00000000	0.0
31	0x00000000	0.0
32	0x00000000	0.0
33	0x00000000	0.0
34	0x00000000	0.0
35	0x00000000	0.0
36	0x00000000	0.0
37	0x00000000	0.0
38	0x00000000	0.0
39	0x00000000	0.0
40	0x00000000	0.0
41	0x00000000	0.0
42	0x00000000	0.0
43	0x00000000	0.0
44	0x00000000	0.0
45	0x00000000	0.0
46	0x00000000	0.0
47	0x00000000	0.0
48	0x00000000	0.0
49	0x00000000	0.0
50	0x00000000	0.0
51	0x00000000	0.0
52	0x00000000	0.0
53	0x00000000	0.0
54	0x00000000	0.0
55	0x00000000	0.0
56	0x00000000	0.0
57	0xbf968c5b	-1.1761583
58	0x00000000	0.0
59	0x00000000	0.0
60	0x00000000	0.0
61	0x00000000	0.0
62	0x00000000	0.0
63	0x00000000	0.0
64	0x00000000	0.0
65	0x00000000	0.0
66	0x00000000	0.0
67	0x00000000	0.0
68	0x00000000	0.0
69	0x00000000	0.0
70	0x00000000	0.0
71	0x00000000	0.0
72	0x00000000	0.0
73	0x00000000	0.0
74	0x00000000	0.0
75	0x00000000	0.0
76	0x00000000	0.0
77	0x00000000	0.0
78	0xbfa084e3	-1.2540554
79	0x00000000	0.0
80	0x00000000	0.0
81	0x00000000	0.0
82	0x00000000	0.0
83	0x00000000	0.0
84	0x00000000	0.0
85	0x00000000	0.0
86	0x00000000	0.0
87	0x00000000	0.0
88	0x00000000	0.0
89	0x00000000	0.0
90	0x00000000	0.0
91	0x00000000	0.0
92	0x00000000	0.0
93	0x00000000	0.0
94	0x00000000	0.0
95	0x00000000	0.0
96	0x00000000	0.0
97	0x00000000	0.0
98	0x00000000	0.0
99	0x00000000	0.0
100	0x00000000	0.0
101	0x00000000	0.0
102	0x00000000	0.0
103	0x00000000	0.0
104	0x00000000	0.0
105	0x00000000	0.0
106	0x00000000	0.0
107	0x00000000	0.0
108	0x00000000	0.0
109	0x00000000	0.0
110	0x00000000	0.0
111	0x00000000	0.0
112	0x00000000	0.0
113	0x00000000	0.0
114	0x00000000	0.0
115	0x00000000	0.0
116	0x00000000	0.0
117	0x00000000	0.0
118	0x00000000	0.0
119	0x00000000	0.0
120	0x00000000	0.0
121	0x00000000	0.0
122	0x00000000	0.0
123	0x00000000	0.0
124	0x00000000	0.0
125	0x00000000	0.0
126	0x00000000	0.0
127	0x00000000	0.0

layer2.weight f4 [128, 128]
0	0x3e1a7cbf	0.1508665
1	0x3db48897	0.08815115
2	0xbf9e912f	-1.2388057
3	0x3fa3be43	1.2792438
4	0xbf947b43	-1.1600116
5	0xbf8aeffc	-1.0854487
6	0x3e748052	0.23877075
7	0x3e7a491d	0.24441953
8	0xbec8b968	-0.39203954
9	0xbf36572e	-0.71226776
10	0xbee5e485	-0.4490091
11	0x3f1db122	0.6159841
12	0xbe05debd	-0.13073249
13	0xbf5add9d	-0.85494405
14	0xbf2f713b	-0.6853215
15	0x3f9cd676	1.2252948
16	0xbfaeae3d	-1.3646923
17	0xbed3d7d1	-0.41375592
18	0x3f3e4c49	0.7433515
19	0x3f6402ff	0.8906707
20	0xbedad449	-0.42740086
21	0x3f2eed0f	0.6833047
22	0x3f11a15d	0.56886846
23	0xc02835d1	-2.6282847
24	0x3f798b0a	0.9747778
25	0xbfac22e4	-1.3448148
26	0x3ec632d8	0.38710666
27	0xc008ead1	-2.139332
28	0xbedd9255	-0.43275705
29	0x3f405103	0.75123614
30	0x3eb9e0b3	0.36304244
31	0xbe0a19e6	-0.13486442
32	0xbf3188ed	-0.6934956
33	0xbf28cbc5	-0.6593593
34	0xc0027f13	-2.039006
35	0xbf758f29	-0.9592157
36	0x3e86392f	0.26215503
37	0x3e0e4682	0.13894084
38	0x3a2d4dbc	0.00066110096
39	0xbf4d3fc6	-0.80175436
40	0x3f4dba05	0.8036197
41	0xbf702694	-0.93808866
42	0xbeef03d8	-0.4668262
43	0xbf5360c6	-0.8256954
44	0xbe5aef26	-0.2138029
45	0xbf1982c9	-0.5996519
46	0x3e982845	0.29718223
47	0x3f8b057d	1.086105
48	0x3f5e241d	0.86773854
49	0xbd98b219	-0.074558444
50	0x3f106087	0.5639729
51	0xbf7e9277	-0.9944224
52	0xbe90734a	-0.2821296
53	0xbea4709f	-0.32117173
54	0x3fb5746c	1.4176154
55	0x3dfd2a5a	0.123615935
56	0x3fc9f385	1.5777441
57	0x3f24b9bc	0.6434591
58	0xbec481f2	-0.3838039
59	0xbf03d31e	-0.51494014
60	0x3f136a2f	0.575839
61	0xbf9d02b0	-1.2266445
62	0xbf1e2bad	-0.61785394
63	0x3f485a8c	0.78263164
64	0xbe93ed9c	-0.2889222
65	0x40037498	2.0539913
66	0x3f6c9a16	0.92422616
67	0x3ed9311b	0.42420277
68	0xbf2118e4	-0.62928605
69	0xbeb11fab	-0.34594473
70	0x3fad52ff	1.3540953
71	0x3f9adb3c	1.2098155
72	0x3f29a991	0.6627436
73	0x3e78620b	0.2425615
74	0xc01f47f7	-2.4887674
75	0x3fb769c8	1.4329157
76	0x3f00c4d1	0.5030032
77	0x3ef2e820	0.47442722
78	0x3f2417b1	0.6409865
79	0xbfd4faef	-1.6639079
80	0xbe8e21c5	-0.2776014
81	0x3f2fad60	0.68623924
82	0x3f8a0b2f	1.0784663
83	0xbedb6498	-0.42850184
84	0x3f1e5241	0.6184426
85	0x3eca3259	0.39491537
86	0x40118e7f	2.2743223
87	0xbff9a081	-1.9502107
88	0x3f252275	0.645057
89	0xbf6e862b	-0.93173474
90	0xbf6b3b95	-0.9188779
91	0x3f00edcb	0.50362843
92	0x3f8dbad9	1.1072646
93	0xbd2747eb	-0.04084007
94	0xbf89caab	-1.0764974
95	0xbf73e0ac	-0.952647
96	0x3e9cc900	0.306221
97	0xbff5d831	-1.9206601
98	0xc034c466	-2.8244872
99	0xbff2efe4	-1.8979459
100	0x3f3f9e2c	0.74850726
101	0x3e0cf013	0.13763456
102	0x3f081fcf	0.53173536
103	0xbf02a968	-0.51039743
104	0x3f83d516	1.0299404
105	0xbf44d2cf	-0.7688417
106	0xbe3cbf81	-0.18432428
107	0x3f48a63f	0.7837867
108	0x3e9a0d94	0.30088484
109	0xbe4cf042	-0.20013526
110	0xc0126079	-2.2871382
111	0xbf7e4459	-0.9932304
112	0x3f6d86a0	0.92783546
113	0x3c66e8e3	0.01409361
114	0xbe5b2014	-0.21398956
115	0xbfaf4652	-1.3693335
116	0xbfa6b830	-1.302496
117	0x3e4467ad	0.19180174
118	0x3ddf1d74	0.108942896
119	0x3f64d7a9	0.8939157
120	0x3dbf26f0	0.093335986
121	0x3f9cae4b	1.224069
122	0xbf460929	-0.7735773
123	0x3fa7fcb8	1.3123999
124	0x3fa2929b	1.270099
125	0x3f2fed37	0.68721336
126	0x3e2d1997	0.16904293
127	0xbf11f268	-0.5701051
128	0x3fa7fc81	1.3123933
129	0x3f95a99b	1.1692384
130	0x3f63f0e0	0.8903942
131	0xc014ec71	-2.3269312
132	0xc01f0e4e	-2.485248
133	0xbf412965	-0.7545379
134	0xbf24d360	-0.6438503
135	0xbea7c5d7	-0.32768127
136	0x3f7ad581	0.9798203
137	0xbf83031c	-1.0235324
138	0x3fbf4234	1.4942079
139	0xbf1d69d2	-0.61489594
140	0xbe5f8127	-0.21826611
141	0xbf75f021	-0.9606953
142	0x3d7f8231	0.06238002
143	0xbf009c72	-0.50238717
144	0xbf8b7f23	-1.0898174
145	0x3fae94fc	1.3639216
146	0x3ef9115c	0.48646057
147	0x3f1f32c6	0.6218685
148	0xbe627f5d	-0.22118898
149	0xbff83a32	-1.939276
150	0x3f77c84d	0.9679001
151	0xbe7640e7	-0.24048196
152	0xbe190687	-0.14943896
153	0xbf95227a	-1.1651146
154	0x3f07235c	0.5278833
155	0x3f53f8e7	0.8280167
156	0xbef251dd	-0.47328082
157	0x3f3eb96c	0.7450168
158	0x3e1d66b3	0.15371208
159	0x3f6d3433	0.92657775
160	0xbcbb0bb0	-0.022832721
161	0xbd5912b5	-0.052996356
162	0xbfbd73c9	-1.480096
163	0xbf048d63	-0.5177824
164	0xbdd43cdb	-0.1036317
165	0x3e69d358	0.22834527
166	0xbecdbe97	-0.4018447
167	0x3fdf9324	1.7466779
168	0x3f81ad9b	1.0131105
169	0x3f334c82	0.70038617
170	0xbec76d5c	-0.38950622
171	0x3f007c1a	0.50189364
172	0xbf798ac4	-0.97477365
173	0x3f20db87	0.6283497
174	0xbf60df1b	-0.8784043
175	0x3f94e156	1.1631267
176	0x3f9dc0f1	1.2324506
177	0x3de88707	0.113538794
178	0xbfa5f983	-1.296677
179	0xbf769d7d	-0.9633406
180	0xbf5d7312	-0.8650371
181	0xbcf77507	-0.03020717
182	0xbec6c208	-0.3881991
183	0xc01d6954	-2.4595537
184	0x3e88fc16	0.26754826
185	0x3fa43fa5	1.2831923
186	0xbf0cb214	-0.54959226
187	0x40102f7a	2.2528977
188	0x3f1550f3	0.58326644
189	0x3f29e407	0.6636357
190	0x3fb17f4b	1.3866972
191	0xbfc875d6	-1.5660961
192	0xbe82fdda	-0.25584298
193	0xbff90e30	-1.9457455
194	0x3bf77f40	0.007553011
195	0xbf85e447	-1.046029
196	0xbc480f34	-0.012210656
197	0x3f41524c	0.755162
198	0xbf3d1667	-0.7386231
199	0x3f1574f8	0.58381605
200	0x3d95e12e	0.0731834
201	0xbed5598f	-0.4166989
202	0x3f8b9e00	1.0907593
203	0xbfb60fdd	-1.4223591
204	0xbf32d3f0	-0.6985464
205	0xbf2ad1df	-0.6672649
206	0xbe85e6d9	-0.26152685
207	0xbf86998d	-1.051561
208	0xbf5c66c9	-0.8609434
209	0x3ec6551f	0.38736817
210	0xbfe852df	-1.815029
211	0x3f5181fd	0.8183897
212	0x3f28dbf6	0.65960634
213	0x3f84bde2	1.0370448
214	0x3d73f104	0.059556022
215	0x3f527aed	0.8221882
216	0xbebf27fa	-0.37335187
217	0x3f9bea0e	1.2180803
218	0x3e28d478	0.164873
219	0x3e8f70e4	0.28015816
220	0x3f02129e	0.5080966
221	0x3f065798	0.5247741
222	0x3fadf2c9	1.3589717
223	0x3f530d9e	0.82442653
224	0x3fc1a225	1.5127608
225	0x403b5322	2.926949
226	0x3ea0890f	0.31354567
227	0xbf8f64d8	-1.120265
228	0xbfb00b9e	-1.3753545
229	0xbfa731a9	-1.306203
230	0x3ef8763e	0.48527712
231	0x3faa9345	1.3326193
232	0xbf6f542d	-0.9348782
233	0x3e4e1ade	0.20127437
234	0x3ef58398	0.4795196
235	0xbf528620	-0.8223591
236	0x3f45c2d8	0.7725043
237	0x3e836358	0.2566173
238	0x3dd60c5c	0.10451576
239	0x3ca79037	0.02045451
240	0xbdc737de	-0.09727453
241	0xbf535bcc	-0.82561946
242	0x3f14b1e2	0.5808393
243	0xbebc0515	-0.36722627
244	0xbef46563	-0.47733602
245	0x3f6c81e1	0.9238568
246	0xbfe4d518	-1.7877531
247	0x3f83185b	1.0241808
248	0xbf69a86b	-0.9127261
249	0xbefc2a02	-0.492508
250	0xbfdc1426	-1.7193649
251	0xbf00f13d	-0.503681
252	0xbf20f76b	-0.6287753
253	0x3f1b599b	0.606836
254	0xbf0bcd99	-0.5461059
255	0xbef7ace9	-0.48374107

layer2.bias f4 [128]
0	0x00000000	0.0
1	0x00000000	0.0
2	0x00000000	0.0
3	0x00000000	0.0
4	0x00000000	0.0
5	0x00000000	0.0
6	0x00000000	0.0
7	0x00000000	0.0
8	0x00000000	0.0
9	0x00000000	0.0
10	0x00000000	0.0
11	0x00000000	0.0
12	0x00000000	0.0
13	0x00000000	0.0
14	0x00000000	0.0
15	0x00000000	0.0
16	0x00000000	0.0
17	0x00000000	0.0
18	0x00000000	0.0
19	0x00000000	0.0
20	0x00000000	0.0
21	0x00000000	0.0
22	0x00000000	0.0
23	0x00000000	0.0
24	0x00000000	0.0
25	0x00000000	0.0
26	0x00000000	0.0
27	0x00000000	0.0
28	0x00000000	0.0
29	0x00000000	0.0
30	0x00000000	0.0
31	0x00000000	0.0
32	0x00000000	0.0
33	0x00000000	0.0
34	0x00000000	0.0
35	0x00000000	0.0
36	0x00000000	0.0
37	0x00000000	0.0
38	0x00000000	0.0
39	0x00000000	0.0
40	0x00000000	0.0
41	0x00000000	0.0
42	0x00000000	0.0
43	0x00000000	0.0
44	0x00000000	0.0
45	0x00000000	0.0
46	0x00000000	0.0
47	0x00000000	0.0
48	0x00000000	0.0
49	0xbf26cb21	-0.651537
50	0x00000000	0.0
51	0x00000000	0.0
52	0x00000000	0.0
53	0x00000000	0.0
54	0x00000000	0.0
55	0x00000000	0.0
56	0x00000000	0.0
57	0x00000000	0.0
58	0x00000000	0.0
59	0x00000000	0.0
60	0x00000000	0.0
61	0x00000000	0.0
62	0x00000000	0.0
63	0x00000000	0.0
64	0x00000000	0.0
65	0x00000000	0.0
66	0x00000000	0.0
67	0x00000000	0.0
68	0x00000000	0.0
69	0x00000000	0.0
70	0x00000000	0.0
71	0x00000000	0.0
72	0x00000000	0.0
73	0x00000000	0.0
74	0x00000000	0.0
75	0x00000000	0.0
76	0x00000000	0.0
77	0x00000000	0.0
78	0x00000000	0.0
79	0x00000000	0.0
80	0x00000000	0.0
81	0x00000000	0.0
82	0x00000000	0.0
83	0x00000000	0.0
84	0x00000000	0.0
85	0x00000000	0.0
86	0x00000000	0.0
87	0x00000000	0.0
88	0x00000000	0.0
89	0x00000000	0.0
90	0x00000000	0.0
91	0x00000000	0.0
92	0x00000000	0.0
93	0x00000000	0.0
94	0x00000000	0.0
95	0x00000000	0.0
96	0x00000000	0.0
97	0x00000000	0.0
98	0x00000000	0.0
99	0x00000000	0.0
100	0x00000000	0.0
101	0x00000000	0.0
102	0x00000000	0.0
103	0x00000000	0.0
104	0x00000000	0.0
105	0x00000000	0.0
106	0x00000000	0.0
107	0x00000000	0.0
108	0x00000000	0.0
109	0x00000000	0.0
110	0x00000000	0.0
111	0x00000000	0.0
112	0x00000000	0.0
113	0x00000000	0.0
114	0x00000000	0.0
115	0x00000000	0.0
116	0x00000000	0.0
117	0x00000000	0.0
118	0x00000000	0.0
119	0x00000000	0.0
120	0x00000000	0.0
121	0x00000000	0.0
122	0x00000000	0.0
123	0x00000000	0.0
124	0x00000000	0.0
125	0x00000000	0.0
126	0x00000000	0.0
127	0x00000000	0.0

out_layer.weight f4 [4, 128]
0	0xbde46f45	-0.111540355
1	0x40097a46	2.148088
2	0xbd71b383	-0.059009086
3	0x3f524426	0.82135236
4	0xbfcd4ef6	-1.6039722
5	0xbe2077d2	-0.15670708
6	0xbf391a69	-0.72305924
7	0xbf4a0fcf	-0.7893037
8	0x3ebbfac2	0.3671475
9	0x3f7df230	0.99197674
10	0xbe8e99d0	-0.27851725
11	0xbd6de1f5	-0.058076818
12	0x3f14ffa5	0.5820258
13	0x3e95cdfb	0.29258713
14	0x3f28f499	0.65998226
15	0xbdd226ec	-0.1026133
16	0xbee3ae0e	-0.4446873
17	0xbf257a95	-0.6464017
18	0x3e784b52	0.24247482
19	0xbfda82ec	-1.7071204
20	0xbdf118bc	-0.11772296
21	0x3ed290e5	0.4112617
22	0xbe59f6b3	-0.21285515
23	0xbf82f14b	-1.0229887
24	0xbe4ce668	-0.20009768
25	0xbf294ba0	-0.6613102
26	0xbe2adcbe	-0.16685769
27	0x3f1440d6	0.5791143
28	0xbf10f18b	-0.56618565
29	0x3dc3c567	0.09559136
30	0x3fc0b59e	1.5055425
31	0x3fc9815b	1.5742601
32	0xbf2ebd08	-0.6825719
33	0xbfe2cccf	-1.7718753
34	0xbeb4b7d9	-0.35296515
35	0xbf16c118	-0.5888839
36	0x3fa3959f	1.2780036
37	0x3e928ce4	0.28623116
38	0xbe9ac2d4	-0.30226767
39	0xbd6013dd	-0.054706443
40	0xbe35fa20	-0.17771196
41	0x3f57caee	0.8429402
42	0xbfa0b288	-1.2554483
43	0x3e0b7e04	0.1362229
44	0x3fd8153f	1.6881484
45	0xbe872e62	-0.26402575
46	0x3fa68409	1.3009044
47	0x3fc13759	1.5095016
48	0xbfb766a1	-1.4328195
49	0xbf93c877	-1.1545552
50	0xbe23af29	-0.15984787
51	0x3e27a783	0.16372494
52	0xbd255a6b	-0.040369432
53	0x3fc9e25d	1.5772206
54	0x3e4d4680	0.20046425
55	0x3db24610	0.087047696
56	0xbfb8b397	-1.4429806
57	0xbf84d7f9	-1.037841
58	0x3f37dd1f	0.7182178
59	0xbf992e73	-1.19673
60	0x3e8487f2	0.25884968
61	0x3ff69ad1	1.9265996
62	0x3db0ed30	0.0863899
63	0x3f9abd3a	1.2088997
64	0xbebe98ea	-0.3722604
65	0xbf9bde7c	-1.2177272
66	0xbe0a080d	-0.13479634
67	0xbe36394e	-0.17795298
68	0x3e39b2fc	0.18134683
69	0x3d183d34	0.037167743
70	0xbec8bf62	-0.39208513
71	0x3f8f0951	1.1174718
72	0xbf8ce36c	-1.1006904
73	0xbef4ece7	-0.47836992
74	0x3f78e673	0.9722664
75	0xbf02169d	-0.50815755
76	0xbf0e045f	-0.5547542
77	0xbf02f0ce	-0.5114869
78	0xbf7e2e7a	-0.9928967
79	0xbf79260b	-0.97323674
80	0x3f4c7930	0.7987242
81	0xbdf62569	-0.12018854
82	0x3f9c791c	1.222446
83	0x3ef5553c	0.4791659
84	0xbf5950c9	-0.84888893
85	0x3f1cf3af	0.6130933
86	0x3f66435b	0.89946526
87	0x3d36cf1b	0.044631105
88	0x3f1e8d2b	0.61934155
89	0xbf1f1874	-0.6214669
90	0x3f95272f	1.1652583
91	0x3f6521fb	0.89504975
92	0xbe41b3ad	-0.18916197
93	0xbb7dfb09	-0.0038754365
94	0x3ee2d6ad	0.4430441
95	0x3dcb7615	0.09934632
96	0x3f39cc35	0.7257722
97	0x3efc38b8	0.49262023
98	0xbfb6e246	-1.4287803
99	0xbfd8afb6	-1.6928623
100	0x3f716ed7	0.94309753
101	0xbe9d9930	-0.30780935
102	0x3f0da7c8	0.5533414
103	0x3e80cf64	0.25158226
104	0x3f40ab99	0.7526184
105	0xbfc261c6	-1.5186088
106	0xbd45c48b	-0.04828314
107	0xbfb6b4b9	-1.4273902
108	0x3eca1bf8	0.39474463
109	0x3debae75	0.115078844
110	0x3f17cd40	0.5929756
111	0x3f5c8f73	0.86156386
112	0xc03448c6	-2.8169417
113	0x3f820a59	1.0159408
114	0xbf6b29c2	-0.9186059
115	0xbf29db00	-0.6634979
116	0xc0132ace	-2.2994876
117	0x3f5a51d2	0.852811
118	0xbec59373	-0.38589057
119	0x4009eebd	2.1551964
120	0x3e23c919	0.15994681
121	0xbfda9f2f	-1.7079829
122	0x3ee1834f	0.44045493
123	0x3fc46d64	1.5345883
124	0x3f2e059a	0.679773
125	0x3fb02540	1.3761368
126	0xbefe3f92	-0.49657875
127	0xbf6c6c42	-0.9235269
128	0xbeb520a2	-0.3537646
129	0x3fb33b40	1.4002457
130	0xbf4ec26c	-0.80765414
131	0xbff4b366	-1.9117248
132	0xbf9e305b	-1.2358507
133	0xbf4467a0	-0.7672062
134	0x3d897aed	0.06712899
135	0x3f0bd7cd	0.5462616
136	0x3e11304f	0.14178585
137	0xbfd89964	-1.6921811
138	0x3f9adf8f	1.2099475
139	0x3f3d88a8	0.74036646
140	0xbfa24b9a	-1.2679322
141	0x3d4dff57	0.05029234
142	0xbed702e7	-0.41994402
143	0x3f149591	0.5804072
144	0x401264bf	2.287399
145	0x3ef20fd4	0.472777
146	0xbf944b41	-1.1585466
147	0xbf58c67d	-0.8467787
148	0xbf1609f1	-0.5860892
149	0x3ed60ad2	0.4180513
150	0xbf319b29	-0.6937738
151	0x3faa03dd	1.3282429
152	0x3fd87963	1.6912044
153	0x3f2b7349	0.66972786
154	0xbfa9826f	-1.324293
155	0xbf80e093	-1.0068535
156	0x3d9fa5ad	0.07795272
157	0x3f8b16c7	1.0866326
158	0x3f980b85	1.1878515
159	0x40011f7d	2.017547
160	0x3f10daeb	0.5658404
161	0x3ffe010c	1.984407
162	0xbecae96b	-0.3963121
163	0xbf9b9d15	-1.2157313
164	0xbe9d1c86	-0.30685824
165	0xbfad2eda	-1.3529923
166	0xbe59bb6f	-0.21262906
167	0xbf9272dd	-1.1441303
168	0x3ed11cae	0.40842193
169	0xbd01abb8	-0.031657904
170	0x3f0c1313	0.54716605
171	0x3ce6d92f	0.028179733
172	0xbec89ee1	-0.39183715
173	0xbf05718d	-0.5212639
174	0x3d657a5c	0.056024894
175	0xbf01b9bd	-0.5067404
176	0x3f7cd731	0.98765856
177	0x3f9c74ec	1.2223182
178	0x3ee53bf7	0.44772312
179	0x3f2c9f36	0.67430437
180	0x3fb3a016	1.4033229
181	0xbe685d72	-0.22691897
182	0x3f52ee71	0.8239508
183	0xbe88a842	-0.2669087
184	0xbf74cd45	-0.95625716
185	0xbb0dd112	-0.0021639508
186	0xbfeb7323	-1.8394512
187	0xbf9424cb	-1.1573728
188	0x3fa41555	1.281901
189	0xbedcb2e5	-0.43105236
190	0xbfc5736f	-1.5425853
191	0x3d62d773	0.05538125
192	0xbf8c867f	-1.0978545
193	0x3efec59d	0.49760142
194	0x3fde6a83	1.7376255
195	0xbf967a5a	-1.1756089
196	0xbfb8c0ea	-1.4433873
197	0x3f2521e2	0.64504826
198	0xc02e11dd	-2.7198403
199	0x3e63b592	0.22237232
200	0x3f5db74a	0.866078
201	0xbfd7de8b	-1.686479
202	0x3e142d1c	0.14470333
203	0xbed755e3	-0.42057714
204	0x3eedbfef	0.46435496
205	0x3f854f98	1.0414915
206	0x3fc2a98f	1.5207995
207	0xbea5ff73	-0.32421455
208	0xbf1a990d	-0.60389787
209	0xbf201b6d	-0.6254185
210	0xbfa9d105	-1.3266913
211	0xbe0aed83	-0.13567166
212	0x3fe8b4aa	1.8180134
213	0x3f384f0b	0.7199561
214	0x3ed2aeb9	0.41148928
215	0xbef69984	-0.48163998
216	0xbf1e5b99	-0.61858517
217	0xbf5c4ce2	-0.86054814
218	0x3fcd1502	1.6022036
219	0x3f86c7cc	1.0529723
220	0x3f100492	0.56256974
221	0xbe4bb3c8	-0.198928
222	0x3ff82349	1.9385768
223	0x3dccbf3a	0.09997411
224	0x3fbbea28	1.4680834
225	0x3f48d46d	0.78449136
226	0xbb02d73c	-0.0019964715
227	0x3f6f4559	0.9346519
228	0x3eb2a377	0.3489034
229	0x3e839b94	0.25704634
230	0x3fad18fc	1.352325
231	0xbf9b6cf3	-1.2142624
232	0x3f52bdb6	0.82320726
233	0xbff38bad	-1.9027001
234	0xbf10233c	-0.56303763
235	0xbe1bb94a	-0.15207401
236	0x3f89633b	1.0733408
237	0x3f45457f	0.7705917
238	0xbf9db47a	-1.2320702
239	0xbfaef157	-1.3667401
240	0x3e76ba7f	0.2409458
241	0x3fbcdedd	1.4755512
242	0xbea6a432	-0.32547146
243	0xbf6fbf19	-0.93650967
244	0x3da0e0f4	0.078554064
245	0xbf163145	-0.5866893
246	0x3fc7dad6	1.5613658
247	0xbfa9ccd1	-1.326563
248	0x3f828064	1.0195432
249	0x3e86cb7a	0.26327115
250	0x3f84f345	1.038674
251	0x3f445f63	0.7670805
252	0x3eafa067	0.34302065
253	0xbee2fe80	-0.44334793
254	0x3e9ddd3e	0.30832857
255	0xbfde49cc	-1.7366271

out_layer.bias f4 [4]
0	0x00000000	0.0
1	0x00000000	0.0
2	0x00000000	0.0
3	0x00000000	0.0
