src/ckpt/MountainCar-v0/indiv_79.pt (torch_old, 3954 bytes, 8 tensors)

layer1.weight f4 [16, 2]
000000 c4 37 e9 bf 52 38 1d bf 65 39 2f c0 8b 3f 9a c0
       -1.8220143 -0.6141406 -2.737878 -4.8202567
000010 df 0d 4a c0 96 e5 fb 3f 42 22 cd 3e fe 50 b7 40
       -3.1570966 1.9679439 0.400652 5.7286367
000020 70 ce 26 3e 57 aa 0a c0 45 4e cd bf c3 12 38 bf
       0.16289687 -2.1666467 -1.6039511 -0.7190363
000030 69 c6 b9 bf 27 49 c2 3f 82 9b 08 bf be 05 b4 3e
       -1.4513675 1.5178574 -0.53362286 0.3516063
000040 72 f4 b7 3f 71 55 a6 3e df a3 26 3d f9 57 72 c0
       1.4371474 0.32487062 0.040683623 -3.7866194
000050 26 42 36 40 84 c6 97 3f ca 2a 87 bf fa 38 90 bf
       2.8477874 1.1857457 -1.0559933 -1.1267388
000060 2a 7c 40 3e 5f 8c c0 bf 34 ec b2 3f 3f 3b c2 bf
       0.18797365 -1.5042838 1.3978333 -1.517433
000070 32 89 98 bf 03 f7 7b 40 a7 4d ca bf 16 e9 60 3f
       -1.1916869 3.9369514 -1.5804948 0.8785566

layer1.bias f4 [16]
000000 00 00 00 00 00 00 00 00 00 00 00 00 00 00 00 00
       0.0 0.0 0.0 0.0
000010 00 00 00 00 00 00 00 00 e5 19 40 3f 00 00 00 00
       0.0 0.0 0.7503951 0.0
000020 00 00 00 00 00 00 00 00 00 00 00 00 00 00 00 00
       0.0 0.0 0.0 0.0
000030 00 00 00 00 00 00 00 00 00 00 00 00 00 00 00 00
       0.0 0.0 0.0 0.0

layer2.weight f4 [16, 16]
000000 f2 28 2a bf 6e 49 9f 3f 79 a7 19 c0 e8 da c8 bf
       -0.6646873 1.2444284 -2.4008467 -1.5691805
000010 46 de c5 3f 78 5b d3 bf 8c 2f c9 40 3a 0d 6a 40
       1.5458457 -1.6512289 6.287054 3.6570573
000020 7a 70 40 bf c3 b7 6f bf a4 3a 13 40 fe ee 2c c0
       -0.75171626 -0.93639773 2.3004541 -2.702087
000030 e0 9b 0f 3f f0 48 8f 3f d3 e8 03 40 28 65 3d c0
       0.5609722 1.1194134 2.0610855 -2.959299
000040 7c 5f 06 c0 e6 f5 97 3f c0 a9 36 c0 60 e8 c0 3e
       -2.099578 1.1871917 -2.8541107 0.37677288
000050 63 0d 8d c0 f2 36 f9 3e 35 a2 31 bf 1d 35 90 bf
       -4.407884 0.48674732 -0.69388133 -1.1266209
000060 40 49 32 c0 e9 c2 11 40 e7 3f 0d 3f 59 34 4b bf
       -2.7857208 2.2775214 0.5517563 -0.7937675
000070 22 35 e4 3f a0 2e 90 bf d2 00 87 c0 5d 9d f0 3f
       1.7828715 -1.1264229 -4.21885 1.8798023
000080 e9 45 03 bf e9 5d c7 bf 9c fc 23 40 0f 28 3f 3f
       -0.5127855 -1.5575534 2.562293 0.746705
000090 d1 d8 d7 be e0 3a a3 bf a0 b5 40 c0 7f 7b e8 3f
       -0.42157605 -1.2752342 -3.0110855 1.8162688
0000a0 8b 84 9b be ff 34 9e bf df e1 7c 3f 80 08 27 3f
       -0.3037456 -1.2359923 0.9878215 0.65247345
0000b0 00 70 4a 40 ec 9d 16 40 d3 10 81 3e 4e 4d 82 bd
       3.163086 2.3533888 0.25208148 -0.06362401
0000c0 ae ae ec bf 26 a5 cf bf 58 55 60 c0 72 e0 f6 bf
       -1.8490808 -1.6222274 -3.505209 -1.9287245
0000d0 09 29 4d 3f f3 af 09 40 c8 04 1f 3d 59 04 0e 3f
       0.8014074 2.151364 0.03882292 0.55475384
0000e0 79 c0 83 bf a2 4c 3a c0 35 9d d8 bf 3e 73 ed 3e
       -1.0293113 -2.9109273 -1.6922976 0.46376985
0000f0 9e ef d7 3f fb 97 12 3f 6d db 96 3f e0 3e 1e 40
       1.687 0.57263154 1.1785713 2.4725876
000100 a0 7e 73 be 06 5e 26 3f 28 56 1f 40 d1 ba 97 c0
       -0.23778772 0.6498722 2.4896336 -4.7415547
000110 6b 94 d8 be 8e de 2c 40 6c 43 aa 3f 22 c4 93 3f
       -0.42300734 2.7010837 1.3301826 1.154423
000120 49 a9 98 bf 1b eb e1 bf 9c df cb be 02 07 be bf
       -1.1926662 -1.7649873 -0.39819038 -1.4845889
000130 af f5 26 3e b4 5c 10 3e 84 3a de be 30 43 19 c0
       0.16304658 0.14097863 -0.4340402 -2.3947258
000140 53 85 70 3f e0 88 21 40 b1 a8 f4 bf 52 69 d7 bf
       0.93953437 2.5239792 -1.911398 -1.6829016
000150 ee f6 09 bf 09 df f4 3f 72 dd 76 c0 14 4b ee be
       -0.5389241 1.9130565 -3.857266 -0.46541655
000160 62 e2 bc 3f c7 3b 86 3f 27 6a 91 3f be ac c3 bf
       1.4756587 1.0486993 1.136052 -1.5287092
000170 45 8a ae 3f 87 c2 d5 3f 35 93 47 bf ce 6b 80 bf
       1.3635947 1.669999 -0.77958995 -1.0032899
000180 ca e6 87 3f 6c e5 c7 3e f0 a1 ed bf 48 33 2d c0
       1.0617306 0.39042222 -1.8565044 -2.706255
000190 f3 8f 88 bf 05 18 70 c0 75 5b 58 c0 c9 1c c7 be
       -1.066893 -3.751466 -3.380582 -0.3888915
0001a0 bf ea 2e c0 de c8 88 be 97 53 a9 bf 4e 2f 2d 40
       -2.7330778 -0.2671575 -1.3228635 2.7060122
0001b0 71 c2 3a 40 66 52 7d c0 79 22 ad 3e f6 ff 0b c0
       2.9181178 -3.9581542 0.33815363 -2.1874976
0001c0 2b 3a 01 40 fd 7a 87 40 b2 cd 83 c0 34 02 3c 40
       2.0191753 4.233763 -4.1188593 2.9376345
0001d0 49 d6 cb 3f ae af 33 c0 de 5f a7 3f f1 bf c3 3f
       1.592477 -2.8075976 1.3076131 1.5292951
0001e0 ff e3 07 c0 c9 8d 9e 3f 6b c1 f9 3f d8 01 1b 3e
       -2.1232908 1.2387019 1.9512151 0.15137422
0001f0 f0 44 b7 3f 2e 03 40 3f 32 5d 96 c0 9d 78 2d 40
       1.4317913 0.7500485 -4.6988764 2.7104867
000200 f9 4f 66 3f cb c3 0c 40 15 0b b7 3f a3 82 1e bd
       0.8996578 2.1994503 1.4300257 -0.038698804
000210 8f 64 af be a1 ca db bf f1 26 48 3b 5a fa 3f 40
       -0.34256408 -1.7171212 0.003054079 2.9996552
000220 b3 79 03 c0 33 4a 94 3d 09 a5 ff 3f 42 15 8e bf
       -2.054303 0.07240715 1.997224 -1.1100237
000230 5a 93 4f 40 60 1d ed 3f 46 fb 29 c0 d0 4a c7 bf
       3.2433686 1.852459 -2.6559615 -1.5569706
000240 c3 38 03 40 f8 64 7b c0 87 70 3a bf 48 98 ce 3f
       2.0503395 -3.9280376 -0.72827953 1.6140223
000250 81 a2 52 3e 20 93 58 40 58 13 05 40 73 0b f4 3f
       0.20569803 3.3839798 2.0793056 1.9065994
000260 d2 58 11 c0 81 63 1b be 08 86 61 40 cb cf 13 40
       -2.2710462 -0.15174676 3.5238056 2.3095577
000270 4e e9 a0 bf 00 4d 91 40 9c 32 11 40 30 49 42 c0
       -1.2571199 4.5406494 2.268714 -3.035717
000280 36 28 2e 40 de 1c 18 c0 39 1f 2b 3f d1 db c4 3e
       2.7212043 -2.376762 0.66844517 0.38448957
000290 74 63 b4 bf 95 c7 7a bf 36 03 3c c0 e3 03 ca bf
       -1.4092851 -0.9796079 -2.937696 -1.5782436
0002a0 a4 2c d0 3f 4f 9f 26 3f 79 b3 55 40 75 8e 65 3e
       1.6263623 0.65086836 3.3390791 0.22417624
0002b0 97 28 9b 3f fe bd 06 c0 eb 6a 1a bf 0e 63 51 bf
       1.2121762 -2.1053462 -0.60319394 -0.8179177
0002c0 c3 23 f3 3f 35 51 61 40 cf 50 19 c0 b5 c4 15 bf
       1.8995289 3.5205815 -2.3955572 -0.58503276
0002d0 a8 0a 15 40 8c 97 95 be 88 ef 83 bf e5 da f3 3f
       2.3287754 -0.29217184 -1.0307474 1.9051176
0002e0 2b 7f a9 be fe d9 2c bf b6 b8 d8 bf cb 95 76 3e
       -0.33104834 -0.6752013 -1.6931369 0.24080579
0002f0 1b 0e 43 40 c4 31 a3 3f 79 59 c2 bf d6 0a 86 40
       3.047736 1.2749562 -1.5183555 4.1888227
000300 47 3c a0 3f ad 1b cd be a3 69 27 3f 6f 71 5b be
       1.2518395 -0.40060177 0.65395564 -0.2142999
000310 43 3e f1 3f 50 61 0a c0 bc b6 a5 bf c1 49 43 bf
       1.8847126 -2.1621895 -1.2946391 -0.76284415
000320 29 0d 8a 3e 15 af 28 bf d4 67 3e c0 c5 38 3e 3f
       0.26963165 -0.65892154 -2.9750872 0.74305373
000330 14 c5 f4 3f b7 e5 8b bf 9e cb 8a bf f5 b7 d6 be
       1.9122643 -1.0929478 -1.0843389 -0.41937223
000340 f4 21 01 bf bc 6f 66 3f de c6 aa c0 aa ba 16 40
       -0.50442433 0.90014243 -5.336776 2.355143
000350 03 e5 6c 3e fe fc e0 3e ec 2e 3b c0 a9 21 3f c0
       0.23134236 0.43943018 -2.924739 -2.9864295
000360 8c 1a b5 bf be bb 26 40 f1 4c c7 bf aa b6 13 3f
       -1.4148726 2.6052089 -1.5570356 0.577006
000370 5d 85 29 c0 91 3f 37 3f 9f 47 c3 bf 26 11 7c bf
       -2.6487648 0.7158137 -1.5256232 -0.98463666
000380 80 b6 35 40 cd 6b b0 3f cf dd ce bf e3 c3 6b 3f
       2.839264 1.3782898 -1.6161441 0.92095774
000390 94 af 55 3f 5e 6f 8d bf 8c bd c8 3e 47 94 12 c0
       0.83471036 -1.1049612 0.39207113 -2.2903001
0003a0 e8 e2 a7 bf 8d 5c 90 bf c9 b1 5b 40 7e 32 fa be
       -1.3116121 -1.1278244 3.4327261 -0.48866647
0003b0 8a 2d 10 c0 e8 0c c5 be 85 d4 0f bf 1c 82 99 bf
       -2.2527795 -0.3848641 -0.56183654 -1.1992831
0003c0 80 69 82 3c ab 37 04 3f 42 dd 93 3f 3d 18 37 40
       0.015919447 0.5164744 1.1551898 2.8608544
0003d0 51 03 f1 bf 5c d1 74 3e d0 4b dc 3e fb c2 ac 40
       -1.8829137 0.2390799 0.4302659 5.3988013
0003e0 99 c2 7d 3f e0 47 18 3f 09 db 82 c0 7f fe 09 bc
       0.9912506 0.5948467 -4.0892377 -0.008422493
0003f0 c0 b7 5b 40 12 bd 1f 40 4b f4 5b c0 69 83 5c 40
       3.4330902 2.495915 -3.4367855 3.4455206

layer2.bias f4 [16]
000000 00 00 00 00 00 00 00 00 00 00 00 00 00 00 00 00
       0.0 0.0 0.0 0.0
000010 00 00 00 00 00 00 00 00 00 00 00 00 00 00 00 00
       0.0 0.0 0.0 0.0
000020 00 00 00 00 00 00 00 00 00 00 00 00 00 00 00 00
       0.0 0.0 0.0 0.0
000030 00 00 00 00 00 00 00 00 00 00 00 00 00 00 00 00
       0.0 0.0 0.0 0.0

layer3.weight f4 [16, 16]
000000 f6 72 e5 bf 0b fa 4d c0 cc 77 44 40 a7 9d 32 40
       -1.7925708 -3.2183864 3.0698118 2.7908723
000010 a3 e7 54 40 90 76 8f bf 56 31 7c 40 0e 19 d1 3f
       3.326638 -1.1208057 3.9405112 1.6335771
000020 f9 45 3d 3e 6e 46 55 be 6d 16 aa bf 96 69 cf 3e
       0.18483724 -0.20827648 -1.3288094 0.40510243
000030 ce 99 4d be 8f 54 70 bf 00 f5 e2 bf 93 8d 2f 40
       -0.20078203 -0.93879026 -1.7731018 2.743016
000040 75 2c 1d 40 02 c1 ed be a6 08 4e 40 cc 83 74 bf
       2.4558384 -0.46436316 3.2192779 -0.95513606
000050 9c 32 2b 40 33 d9 82 bd 9a c7 30 bf 1f 8b e9 3e
       2.674964 -0.06389084 -0.6905457 0.45613953
000060 90 d8 91 bf 39 dc 05 40 ac 07 f7 bf 29 72 9d be
       -1.1394215 2.0915663 -1.9299216 -0.3075116
000070 ec c1 17 c0 14 fa 84 c0 f6 76 44 3f d4 8c 9b c0
       -2.371211 -4.155527 0.7674402 -4.860941
000080 55 af 03 c0 d9 9c 3f 40 c5 ef bb 3f 8c f8 e7 3f
       -2.0575764 2.9939482 1.4682547 1.8122725
000090 1f 92 a4 3f 12 9b 55 3f e5 14 57 40 ed cc 75 c0
       1.2857093 0.83439744 3.3606503 -3.8406327
0000a0 c4 40 3a 40 c7 7c c8 40 dd 4d da bd 16 2d bd bf
       2.910203 6.2652316 -0.106593825 -1.4779384
0000b0 09 a4 c7 3f 90 10 bc c0 30 14 2d 3f 20 cc 9b 3f
       1.5596935 -5.877022 0.6760893 1.2171669
0000c0 21 41 a7 3f 32 10 05 3f 06 49 44 3f 93 c7 ef 3f
       1.3066751 0.5197784 0.76673925 1.873278
0000d0 48 55 02 40 7e d0 2c bf 49 65 0e c0 34 05 c5 bf
       2.0364552 -0.67505634 -2.224932 -1.5392213
0000e0 71 b8 1b 40 3e 7c 8c bf b7 2a 9c 3f 60 9d 37 c0
       2.4331324 -1.0975416 1.2200536 -2.8689804
0000f0 bc 1e c0 bf 86 f9 33 3e 18 04 0c 40 f4 33 3e bf
       -1.5009379 0.17575654 2.1877499 -0.74298024
000100 1a 8d 8e 3f 68 33 a3 c0 53 93 a6 be ce ce 5c 40
       1.1136811 -5.100025 -0.32534274 3.4501224
000110 bd 0c d2 bf 52 8c 75 3f 72 ef 4e 3d 87 10 18 3f
       -1.6410137 0.95917237 0.05052132 0.5940022
000120 95 68 1d c0 74 1a 1c 40 32 13 86 bf bc 25 17 c0
       -2.4595082 2.4391146 -1.0474608 -2.3616781
000130 64 b6 91 bf 05 b5 81 40 e9 1c d7 bf 4e db 63 3f
       -1.1383786 4.053347 -1.6805698 0.8900651
000140 65 cf 5b be 5a 49 08 40 fa 41 f3 3f 21 ec 1d c0
       -0.21465833 2.129477 1.900451 -2.4675372
000150 38 d5 9b bf 5c 16 b0 3f 28 92 25 c0 7e c5 2e 40
       -1.2174444 1.3756824 -2.5870457 2.730804
000160 89 75 27 c0 96 0e 60 40 af 80 99 bd b5 96 7c 3d
       -2.6165488 3.5008903 -0.074952476 0.061667163
000170 1a fa 10 40 de d4 87 bf df 6a 8a be 5d e9 18 3d
       2.265265 -1.0611837 -0.2703466 0.037331928
000180 0c eb b3 3f 68 e3 c2 3f 32 13 03 c0 f2 43 77 3f
       1.4056106 1.5225649 -2.0480466 0.9658805
000190 24 16 70 40 93 d2 91 3f 68 64 8f 3e 19 7d 57 c0
       3.7513514 1.1392387 0.2800629 -3.3670104
0001a0 d3 e8 7a bf 54 5e c8 bf e2 76 28 40 d3 70 01 c0
       -0.9801151 -1.5653787 2.632256 -2.0225112
0001b0 16 55 81 bf 21 3b cb 3e 84 91 dd bf 5a 3b 90 40
       -1.0104091 0.3969355 -1.7310033 4.507245
0001c0 34 3e 11 c0 a2 ad e7 bf be 85 79 bf 9a 5a f2 bf
       -2.2694216 -1.8099864 -0.974697 -1.8933899
0001d0 cd 62 26 40 35 86 06 c0 59 ea ba 3f 4b 14 ef 3f
       2.5997803 -2.1019413 1.4602767 1.8678068
0001e0 2e 87 13 40 6a 41 27 c0 4d 34 04 bf ed 3b b6 bf
       2.3051257 -2.6133676 -0.51642305 -1.4237038
0001f0 fd 3d 8c bf 68 89 11 c0 e4 bf 45 3f 4b 82 32 bf
       -1.0956417 -2.2740116 0.77245927 -0.6973006
000200 57 a5 87 c0 a8 ad 43 c0 7f 0c 4d bf c7 57 34 bf
       -4.238933 -3.0574741 -0.8009719 -0.7044644
000210 29 fb d6 3f 15 ad 76 40 4f 9a 00 40 48 3f 82 40
       1.6795398 3.854314 2.0094182 4.070225
000220 df d1 8d 40 8f 22 65 3f bc 58 82 c0 c7 ee fd 3f
       4.431869 0.8950586 -4.073332 1.9838494
000230 59 3d 82 3e 66 d9 1f bf 39 14 0e 3f ae 09 f1 be
       0.2543743 -0.624411 0.5549961 -0.47077698
000240 4f 46 2d 3f ae 6a 96 3e ce 44 20 bf 17 52 52 bf
       0.6768541 0.29378265 -0.6260499 -0.8215651
000250 b9 78 45 3e 42 10 3b c0 08 13 8d bf 87 59 8c c0
       0.19284333 -2.9228673 -1.1021433 -4.3859286
000260 fa 1e 10 c0 89 3b 77 bf f3 f5 4c c0 c9 24 65 bf
       -2.2518907 -0.9657522 -3.2025115 -0.89509255
000270 eb 47 ee bd 27 98 eb be 54 d1 cc bf 4e be 8d bf
       -0.11634811 -0.4601452 -1.6001382 -1.1073701
000280 73 7d fe 3f 1c d7 08 c0 ab 0a 8c bf cb 1a 99 3f
       1.9882034 -2.1381292 -1.0940756 1.1961302
000290 77 dd 00 3e 83 c9 19 c0 24 73 55 bf 40 ba 90 40
       0.12584482 -2.4029243 -0.83378816 4.5227356
0002a0 5c d8 5a c0 c8 b6 8a 3f f8 11 fe bf 81 73 65 40
       -3.4194555 1.083703 -1.9849234 3.5851748
0002b0 fd b2 05 c0 d0 61 2d 3e de c6 02 c0 db 00 80 c0
       -2.0890496 0.16931844 -2.043388 -4.0001044
0002c0 0b d1 18 c0 7e 4e 16 bf 9d b2 4e bf 54 4c 0a 3d
       -2.387759 -0.5871352 -0.8074129 0.0337642
0002d0 7a b1 71 bf e9 0a b0 3f 37 21 e8 3e 27 2b b5 bf
       -0.9441143 1.375333 0.4533784 -1.4153794
0002e0 62 25 c8 bf bf 48 42 c0 35 1f 88 3e 57 9d 80 40
       -1.5636408 -3.03569 0.2658631 4.0192065
0002f0 1c ba 45 c0 2e 96 35 3f b2 7f 5e 3f 37 98 3a c0
       -3.0894842 0.7093228 0.869136 -2.9155405
000300 5e ff 6b be 53 0b b8 bf 4e f8 3c bf d3 aa 3e c0
       -0.23046634 -1.4378456 -0.7381638 -2.9791763
000310 58 cb 84 c0 00 1b c8 be 95 38 ee bf 26 71 69 3f
       -4.149822 -0.390831 -1.8611017 0.91188276
000320 9a 7d b8 3e 93 13 61 3f e5 eb 0e 3e 3c 4e 66 40
       0.36033326 0.8792049 0.13957174 3.598525
000330 2c db 5b c0 1b 1d 42 3e 11 da 40 bf ea 7e 82 3f
       -3.4352522 0.18956415 -0.7533274 1.0194981
000340 91 c3 8e bf c9 e3 d6 3c 1b 5b d6 c0 7b f6 74 40
       -1.1153432 0.026231663 -6.6986213 3.827544
000350 de fa 35 bf 74 da 17 3f ee 79 ca 3f 1a b2 74 bf
       -0.7108592 0.5931771 1.581846 -0.9558426
000360 6e db 95 3d e4 b3 34 c0 57 ee 95 bf 33 a3 fe bf
       0.073172435 -2.8234797 -1.171336 -1.9893554
000370 c5 ac 73 40 bd a4 d8 3f 2b 02 0d 3f 77 81 4b c0
       3.80742 1.6925274 0.55081433 -3.179777
000380 f8 05 80 40 40 c2 3d 3f 84 ab b7 bf 7d cf 61 40
       4.0007286 0.74124527 -1.4349217 3.528289
000390 19 ef ca 3e 3f bd 3c 40 08 89 c8 3f 14 91 5e 40
       0.39635542 2.9490507 1.5666819 3.4776049
0003a0 7a 91 3a 3f 5c 68 bb 3f 6e 9b b1 bf 8c bc 64 bf
       0.7287823 1.4641223 -1.3875558 -0.893502
0003b0 81 c9 02 c0 de ae 21 bc 89 1e bf 3e cd 38 1b c0
       -2.0435488 -0.009868352 0.37327984 -2.4253418
0003c0 7f 27 40 40 e4 5f 20 40 47 21 0c 40 57 af 43 c0
       3.0024107 2.5058527 2.189531 -3.057577
0003d0 2f f1 82 c0 f6 0a cd be bf db f5 3f fe 7b 9a 3f
       -4.0919414 -0.40047425 1.9207686 1.206909
0003e0 ea c2 2b 3f 24 fe 2d c0 9e ce d3 3f 53 be 84 c0
       0.6709429 -2.7186365 1.654743 -4.148233
0003f0 cc 8b 47 40 8b b1 9f 3f 47 c0 6b be e9 f1 c7 bf
       3.1179075 1.2476057 -0.23022567 -1.56207

layer3.bias f4 [16]
000000 00 00 00 00 00 00 00 00 00 00 00 00 00 00 00 00
       0.0 0.0 0.0 0.0
000010 00 00 00 00 00 00 00 00 00 00 00 00 00 00 00 00
       0.0 0.0 0.0 0.0
000020 00 00 00 00 00 00 00 00 00 00 00 00 00 00 00 00
       0.0 0.0 0.0 0.0
000030 00 00 00 00 00 00 00 00 00 00 00 00 00 00 00 00
       0.0 0.0 0.0 0.0

out_layer.weight f4 [3, 16]
000000 32 ed 5b c0 db 61 3c bf fd 41 1f 3f 8a e6 0f c0
       -3.4363523 -0.73586816 0.62210065 -2.248446
000010 94 1f 04 c0 df 26 ed be a3 99 3f 40 2b 62 1e bf
       -2.0644274 -0.4631872 2.9937522 -0.6186854
000020 07 39 95 ba a8 55 66 bf c6 b1 d5 3f ae 97 a0 bf
       -0.0011384793 -0.8997445 1.6694877 -1.2546289
000030 1c 3d ef 3f 4c bb 95 bf 90 24 8e be 65 41 92 bf
       1.8690524 -1.1697783 -0.2776227 -1.1426207
000040 f6 5c f7 3f 42 0a c0 40 84 05 60 c0 b4 cf 22 40
       1.9325244 6.001252 -3.5003366 2.5439272
000050 74 fd 8c bf c0 35 13 3f f9 8f 2b 3f 4f 17 49 bf
       -1.1014848 0.5750389 0.6701656 -0.7855119
000060 d7 3b 63 40 24 f9 48 bb 1d d9 32 3f 13 09 b3 bf
       3.5505273 -0.0030666078 0.6986254 -1.3987144
000070 cd 4a 0d 40 b7 fb 5c 40 81 07 bc c0 5d a9 9e bf
       2.2076905 3.4528635 -5.875916 -1.2395436
000080 72 a4 b7 bf 6c f0 d6 3f 7f c6 e0 3e 4f b1 6b 40
       -1.434706 1.6792121 0.4390144 3.682697
000090 bc 69 91 3f c4 26 0a 3e 7d b2 13 40 8f 30 ba bf
       1.1360393 0.1349135 2.307769 -1.4546069
0000a0 5f 17 20 3f 8f d0 86 c0 d5 58 18 c0 6b db 04 bf
       0.6253566 -4.212959 -2.3804219 -0.51897305
0000b0 c3 d5 d0 be 7f 88 1e 3f f7 dc 9b 3f 7f 10 fb 3e
       -0.40788087 0.61927027 1.2176808 0.49036023

out_layer.bias f4 [3]
000000 00 00 00 00 00 00 00 00 45 72 da be
       0.0 0.0 -0.42665306
