src/ckpt/MountainCar-v0/indiv_80.pt (torch_old, 3954 bytes, 8 tensors)

layer1.weight f4 [16, 2]
-1.8220143 -0.84514505 -2.737878 -4.274116 -3.1570966 1.0054874 0.400652 1.8051884
0.16289687 2.5560215 -1.6039511 0.045728244 -1.4513675 -0.13598855 -0.53362286 0.79093915
1.4371474 -1.9774568 0.040683623 1.9330448 2.8477874 3.6884522 -1.0559933 -0.06290423
0.18797365 -3.3305788 1.3978333 2.1804307 -1.1916869 4.2621093 -1.5804948 0.33384305
00000000: c437 e9bf 6d5b 58bf 6539 2fc0 8fc5 88c0
00000010: df0d 4ac0 d0b3 803f 4222 cd3e 6a10 e73f
00000020: 70ce 263e db95 2340 454e cdbf 8a4d 3b3d
00000030: 69c6 b9bf 9540 0bbe 829b 08bf fd7a 4a3f
00000040: 72f4 b73f 4e1d fdbf dfa3 263d 036e f73f
00000050: 2642 3640 9a0f 6c40 ca2a 87bf efd3 80bd
00000060: 2a7c 403e 3428 55c0 34ec b23f 2d8c 0b40
00000070: 3289 98bf 3363 8840 a74d cabf 7aed aa3e

layer1.bias f4 [16]
0.0 0.0 0.0 0.0 0.0 0.0 0.7503951 0.0
0.0 0.0 0.0 0.0 0.0 0.0 0.0 0.0
00000000: 0000 0000 0000 0000 0000 0000 0000 0000
00000010: 0000 0000 0000 0000 e519 403f 0000 0000
00000020: 0000 0000 0000 0000 0000 0000 0000 0000
00000030: 0000 0000 0000 0000 0000 0000 0000 0000

layer2.weight f4 [16, 16]
-0.6646873 1.2444284 1.1650643 2.6932638 1.5458457 1.0888462 -1.0891249 3.6570573
2.5001416 -0.93639773 2.3004541 -2.702087 0.5609722 1.1194134 0.3424335 1.5963203
-2.099578 1.1871917 0.9489747 3.788654 -4.407884 2.7965677 -3.26035 -1.1266209
1.6851487 2.2775214 0.5517563 -0.7937675 1.7828715 -1.1264229 -0.09493341 -0.22828388
-0.5127855 -1.5575534 -1.9621266 -0.50341755 -0.42157605 -0.33820567 2.4760003 1.8162688
-2.426815 -1.2359923 0.9878215 0.65247345 3.163086 2.3533888 -1.9174722 0.9738148
-1.8490808 -1.6222274 -2.2130585 0.58784187 0.8014074 1.3580588 -0.6775498 0.55475384
-0.07614895 -2.9109273 -1.6922976 0.46376985 1.687 0.57263154 0.20935771 -0.085731685
-0.23778772 0.6498722 -0.3141563 1.0632849 -0.42300734 2.040369 -0.42671075 1.154423
0.8856873 -1.7649873 -0.39819038 -1.4845889 0.16304658 0.14097863 -0.4484867 -2.49832
0.93953437 2.5239792 -0.65275836 -2.024177 -0.5389241 -2.9378884 0.123105064 -0.46541655
-0.5122247 1.0486993 1.136052 -1.5287092 1.3635947 1.669999 -0.74616694 -3.1338406
1.0617306 0.39042222 1.029641 -0.7213081 -1.066893 -1.3365844 -2.1325536 -0.3888915
-2.0379207 -0.2671575 -1.3228635 2.7060122 2.9181178 -3.9581542 1.3298658 -2.6173358
2.0191753 4.233763 2.5285513 -0.91555476 1.592477 -1.2010292 0.017826065 1.5292951
0.9992726 1.2387019 1.9512151 0.15137422 1.4317913 0.7500485 -0.46980613 0.3530819
0.8996578 2.1994503 1.0435714 -2.053805 -0.34256408 -1.8942622 3.330404 2.9996552
-1.5017294 0.07240715 1.997224 -1.1100237 3.2433686 1.852459 0.29973865 -2.256251
2.0503395 -3.9280376 -0.23507103 -2.7434206 0.20569803 -1.1407118 2.417999 1.9065994
2.850929 -0.15174676 3.5238056 2.3095577 -1.2571199 4.5406494 0.55550236 2.8985445
2.7212043 -2.376762 -1.6150076 -0.06460112 -1.4092851 -1.2543899 -0.8565093 -1.5782436
-1.2869731 0.65086836 3.3390791 0.22417624 1.2121762 -2.1053462 0.5366114 -3.3030546
1.8995289 3.5205815 -1.225027 0.11494916 2.3287754 -0.3939528 1.5272323 1.9051176
0.34244716 -0.6752013 -1.6931369 0.24080579 3.047736 1.2749562 1.4053514 -2.2744837
1.2518395 -0.40060177 -1.5142745 -3.6762614 1.8847126 0.9823167 -1.7968868 -0.76284415
-1.4027455 -0.65892154 -2.9750872 0.74305373 1.9122643 -1.0929478 -2.1472898 4.063242
-0.50442433 0.90014243 0.13399471 -2.4408445 0.23134236 -0.3371523 -0.23145662 -2.9864295
0.7111448 2.6052089 -1.5570356 0.577006 -2.6487648 0.7158137 -0.25067008 0.44357806
2.839264 1.3782898 -1.8759611 -0.9269408 0.83471036 0.8492237 -3.6538181 -2.2903001
2.3060536 -1.1278244 3.4327261 -0.48866647 -2.2527795 -0.3848641 -0.4836252 1.3780166
0.015919447 0.5164744 0.97119004 1.4158422 -1.8829137 1.8964773 1.2023695 5.3988013
-3.178223 0.5948467 -4.0892377 -0.008422493 3.4330902 2.495915 0.8686516 -3.0323653
00000000: f228 2abf 6e49 9f3f d420 953f 6f5e 2c40
00000010: 46de c53f 505f 8b3f 7268 8bbf 3a0d 6a40
00000020: 5202 2040 c3b7 6fbf a43a 1340 feee 2cc0
00000030: e09b 0f3f f048 8f3f 7253 af3e 3954 cc3f
00000040: 7c5f 06c0 e6f5 973f 02f0 723f 4f79 7240
00000050: 630d 8dc0 f7fa 3240 93a9 50c0 1d35 90bf
00000060: f4b2 d73f e9c2 1140 e73f 0d3f 5934 4bbf
00000070: 2235 e43f a02e 90bf 736c c2bd 40c3 69be
00000080: e945 03bf e95d c7bf f726 fbbf f9df 00bf
00000090: d1d8 d7be 4b29 adbe ca76 1e40 7f7b e83f
000000a0: f050 1bc0 ff34 9ebf dfe1 7c3f 8008 273f
000000b0: 0070 4a40 ec9d 1640 bb6f f5bf ed4b 793f
000000c0: aeae ecbf 26a5 cfbf c0a2 0dc0 ce7c 163f
000000d0: 0929 4d3f dfd4 ad3f e773 2dbf 5904 0e3f
000000e0: fbf3 9bbd a24c 3ac0 359d d8bf 3e73 ed3e
000000f0: 9eef d73f fb97 123f de61 563e 1894 afbd
00000100: a07e 73be 065e 263f 18d9 a0be b819 883f
00000110: 6b94 d8be 6895 0240 d579 dabe 22c4 933f
00000120: 67bc 623f 1beb e1bf 9cdf cbbe 0207 bebf
00000130: aff5 263e b45c 103e 0ca0 e5be 7ae4 1fc0
00000140: 5385 703f e088 2140 2c1b 27bf 1e8c 01c0
00000150: eef6 09bf 5d06 3cc0 821e fc3d 144b eebe
00000160: 2821 03bf c73b 863f 276a 913f beac c3bf
00000170: 458a ae3f 87c2 d53f cc04 3fbf d890 48c0
00000180: cae6 873f 6ce5 c73e 47cb 833f a6a7 38bf
00000190: f38f 88bf 3315 abbf c27b 08c0 c91c c7be
000001a0: 4b6d 02c0 dec8 88be 9753 a9bf 4e2f 2d40
000001b0: 71c2 3a40 6652 7dc0 0b39 aa3f 6e82 27c0
000001c0: 2b3a 0140 fd7a 8740 c9d3 2140 cc61 6abf
000001d0: 49d6 cb3f 53bb 99bf f807 923c f1bf c33f
000001e0: 54d0 7f3f c98d 9e3f 6bc1 f93f d801 1b3e
000001f0: f044 b73f 2e03 403f 6e8a f0be 27c7 b43e
00000200: f94f 663f cbc3 0c40 bf93 853f 8b71 03c0
00000210: 8f64 afbe 2f77 f2bf 5725 5540 5afa 3f40
00000220: ab38 c0bf 334a 943d 09a5 ff3f 4215 8ebf
00000230: 5a93 4f40 601d ed3f 5877 993e 6b66 10c0
00000240: c338 0340 f864 7bc0 76b6 70be 3494 2fc0
00000250: 81a2 523e d802 92bf 7fc0 1a40 730b f43f
00000260: 9f75 3640 8163 1bbe 0886 6140 cbcf 1340
00000270: 4ee9 a0bf 004d 9140 6735 0e3f c181 3940
00000280: 3628 2e40 de1c 18c0 92b8 cebf 984d 84bd
00000290: 7463 b4bf d98f a0bf 3244 5bbf e303 cabf
000002a0: 89bb a4bf 4f9f 263f 79b3 5540 758e 653e
000002b0: 9728 9b3f febd 06c0 5d5f 093f 3f65 53c0
000002c0: c323 f33f 3551 6140 afcd 9cbf 776a eb3d
000002d0: a80a 1540 2eb4 c9be 597c c33f e5da f33f
000002e0: 3c55 af3e fed9 2cbf b6b8 d8bf cb95 763e
000002f0: 1b0e 4340 c431 a33f 8ee2 b33f 2491 11c0
00000300: 473c a03f ad1b cdbe bfd3 c1bf de47 6bc0
00000310: 433e f13f 1b79 7b3f 6300 e6bf c149 43bf
00000320: 2a8d b3bf 15af 28bf d467 3ec0 c538 3e3f
00000330: 14c5 f43f b7e5 8bbf 326d 09c0 1406 8240
00000340: f421 01bf bc6f 663f e935 093e cc36 1cc0
00000350: 03e5 6c3e 3a9f acbe f702 6dbe a921 3fc0
00000360: 960d 363f bebb 2640 f14c c7bf aab6 133f
00000370: 5d85 29c0 913f 373f d457 80be aa1c e33e
00000380: 80b6 3540 cd6b b03f 7e1f f0bf fe4b 6dbf
00000390: 94af 553f b966 593f 28d8 69c0 4794 12c0
000003a0: 6296 1340 8d5c 90bf c9b1 5b40 7e32 fabe
000003b0: 8a2d 10c0 e80c c5be b99d f7be d962 b03f
000003c0: 8069 823c ab37 043f e99f 783f 513a b53f
000003d0: 5103 f1bf c5bf f23f 3ee7 993f fbc2 ac40
000003e0: 0168 4bc0 e047 183f 09db 82c0 7ffe 09bc
000003f0: c0b7 5b40 12bd 1f40 f45f 5e3f 4612 42c0

layer2.bias f4 [16]
0.0 0.0 0.0 0.0 0.0 0.0 0.0 0.0
0.0 0.0 0.0 0.0 0.0 0.0 0.0 0.0
00000000: 0000 0000 0000 0000 0000 0000 0000 0000
00000010: 0000 0000 0000 0000 0000 0000 0000 0000
00000020: 0000 0000 0000 0000 0000 0000 0000 0000
00000030: 0000 0000 0000 0000 0000 0000 0000 0000

layer3.weight f4 [16, 16]
-1.7925708 -3.2183864 3.0698118 0.0476847 3.326638 -1.1208057 3.9405112 -0.936505
0.18483724 -1.4737945 0.10322999 0.40510243 1.7829599 -0.93879026 -1.7731018 1.6456923
2.4558384 -0.46436316 3.2192779 -0.5044957 2.674964 -0.06389084 -0.6905457 -3.8241172
-1.1394215 0.07209734 -2.7477314 -0.3075116 -1.7827975 -4.155527 0.7674402 4.003186
-2.0575764 2.9939482 1.4682547 1.6710227 1.2857093 0.83439744 3.3606503 -1.0259339
2.910203 4.382331 1.5969757 -1.4779384 2.224444 -5.877022 0.26696345 1.467293
1.3066751 0.5197784 0.76673925 -1.7923818 2.0364552 -1.9007603 -2.224932 0.49378642
2.4331324 0.03244552 -0.48496753 -2.8689804 -1.7922454 0.17575654 2.1877499 -0.69396985
1.1136811 -5.100025 -0.32534274 -0.6038312 -1.6410137 0.95917237 0.05052132 -0.5314745
-2.4595082 -2.8021288 0.84680784 -2.3616781 2.4584515 4.053347 -1.6805698 -1.2814444
-0.21465833 2.129477 1.900451 -1.4675827 -1.2174444 1.3756824 -2.5870457 0.27729735
-2.6165488 -1.4708948 -2.387922 0.061667163 -2.1442287 -1.0611837 -0.2703466 -2.335378
1.4056106 1.5225649 -2.0480466 2.5630443 3.7513514 1.1392387 0.2800629 -3.3017175
-0.9801151 -0.12275845 -2.6938646 -2.0225112 2.2179039 0.3969355 -1.7310033 -1.7071129
-2.2694216 -1.8099864 -0.974697 2.1248724 2.5997803 -2.1019413 1.4602767 4.7121964
2.3051257 -0.59290415 0.050433487 -1.4237038 2.7270782 -2.2740116 0.77245927 0.9439281
-4.238933 -3.0574741 -0.8009719 1.7262298 1.6795398 3.854314 2.0094182 -0.36216024
4.431869 1.0366789 -2.593895 1.9838494 -2.0653625 -2.0215876 0.5549961 -2.504174
0.6768541 0.29378265 -0.6260499 -4.828736 0.19284333 -2.9228673 -1.1021433 0.77061665
-2.2518907 1.3168061 1.7340589 -0.89509255 -0.16574273 -0.4601452 -1.6001382 2.548707
1.9882034 -2.1381292 -1.0940756 2.2018526 0.12584482 -2.4029243 -0.83378816 3.245653
-3.4194555 -1.3882387 -1.4678874 3.5851748 0.2101342 0.16931844 -2.043388 1.4890248
-2.387759 -0.5871352 -0.8074129 2.0037723 -0.9441143 1.375333 0.4533784 -0.19736277
-1.5636408 0.44244945 1.937883 4.0192065 -1.6746298 0.7093228 0.869136 0.34675586
-0.23046634 -1.4378456 -0.7381638 -1.0016701 -2.3787131 -0.390831 -1.8611017 -0.8553784
0.36033326 -3.753135 2.6972477 3.598525 -2.5954976 0.18956415 -0.7533274 -0.5523124
-1.1153432 0.026231663 -6.6986213 -2.7040431 -0.7108592 0.5931771 1.581846 -0.83245933
0.073172435 0.14043923 2.1804335 -1.9893554 0.30444986 1.6925274 0.55081433 3.4053361
4.0007286 0.74124527 -1.4349217 -1.1866417 0.39635542 2.9490507 1.5666819 -0.5582225
0.7287823 -3.5505733 -1.2543908 -0.893502 -0.6124118 -0.009868352 0.37327984 3.6273937
3.0024107 2.5058527 2.189531 0.18502031 -4.0919414 -0.40047425 1.9207686 -0.9292783
0.6709429 -3.0950313 0.05337667 -4.148233 0.3049543 1.2476057 -0.23022567 -2.3555255
00000000: f672 e5bf 0bfa 4dc0 cc77 4440 0851 433d
00000010: a3e7 5440 9076 8fbf 5631 7c40 cbbe 6fbf
00000020: f945 3d3e 4ca5 bcbf 3f6a d33d 9669 cf3e
00000030: 0838 e43f 8f54 70bf 00f5 e2bf 0ca6 d23f
00000040: 752c 1d40 02c1 edbe a608 4e40 a126 01bf
00000050: 9c32 2b40 33d9 82bd 9ac7 30bf 56be 74c0
00000060: 90d8 91bf c5a7 933d d5da 2fc0 2972 9dbe
00000070: b532 e4bf 14fa 84c0 f676 443f 1a1a 8040
00000080: 55af 03c0 d99c 3f40 c5ef bb3f 12e4 d53f
00000090: 1f92 a43f 129b 553f e514 5740 cd51 83bf
000000a0: c440 3a40 0e3c 8c40 b369 cc3f 162d bdbf
000000b0: 4a5d 0e40 9010 bcc0 6faf 883e 42d0 bb3f
000000c0: 2141 a73f 3210 053f 0649 443f c46c e5bf
000000d0: 4855 0240 1d4c f3bf 4965 0ec0 93d1 fc3e
000000e0: 71b8 1b40 98e5 043d aa4d f8be 609d 37c0
000000f0: 4c68 e5bf 86f9 333e 1804 0c40 02a8 31bf
00000100: 1a8d 8e3f 6833 a3c0 5393 a6be ae94 1abf
00000110: bd0c d2bf 528c 753f 72ef 4e3d b60e 08bf
00000120: 9568 1dc0 1456 33c0 66c8 583f bc25 17c0
00000130: 4557 1d40 05b5 8140 e91c d7bf 5f06 a4bf
00000140: 65cf 5bbe 5a49 0840 fa41 f33f c0d9 bbbf
00000150: 38d5 9bbf 5c16 b03f 2892 25c0 ebf9 8d3e
00000160: 8975 27c0 4846 bcbf b7d3 18c0 b596 7c3d
00000170: 0b3b 09c0 ded4 87bf df6a 8abe d576 15c0
00000180: 0ceb b33f 68e3 c23f 3213 03c0 eb08 2440
00000190: 2416 7040 93d2 913f 6864 8f3e 574f 53c0
000001a0: d3e8 7abf c868 fbbd 4768 2cc0 d370 01c0
000001b0: 23f2 0d40 213b cb3e 8491 ddbf ad82 dabf
000001c0: 343e 11c0 a2ad e7bf be85 79bf e9fd 0740
000001d0: cd62 2640 3586 06c0 59ea ba3f 50ca 9640
000001e0: 2e87 1340 91c8 17bf 5893 4e3d ed3b b6bf
000001f0: 7388 2e40 6889 11c0 e4bf 453f 46a5 713f
00000200: 57a5 87c0 a8ad 43c0 7f0c 4dbf 19f5 dc3f
00000210: 29fb d63f 15ad 7640 4f9a 0040 116d b9be
00000220: dfd1 8d40 e5b1 843f 6002 26c0 c7ee fd3f
00000230: e62e 04c0 b161 01c0 3914 0e3f 6344 20c0
00000240: 4f46 2d3f ae6a 963e ce44 20bf 0185 9ac0
00000250: b978 453e 4210 3bc0 0813 8dbf 2247 453f
00000260: fa1e 10c0 1a8d a83f a4f5 dd3f c924 65bf
00000270: 76b8 29be 2798 ebbe 54d1 ccbf 041e 2340
00000280: 737d fe3f 1cd7 08c0 ab0a 8cbf 27eb 0c40
00000290: 77dd 003e 83c9 19c0 2473 55bf c7b8 4f40
000002a0: 5cd8 5ac0 ceb1 b1bf bce3 bbbf 8173 6540
000002b0: 6b2d 573e d061 2d3e dec6 02c0 5d98 be3f
000002c0: 0bd1 18c0 7e4e 16bf 9db2 4ebf ce3d 0040
000002d0: 7ab1 71bf e90a b03f 3721 e83e 7719 4abe
000002e0: 6225 c8bf bc88 e23e 8d0c f83f 579d 8040
000002f0: 455a d6bf 2e96 353f b27f 5e3f fc89 b13e
00000300: 5eff 6bbe 530b b8bf 4ef8 3cbf ba36 80bf
00000310: d63c 18c0 001b c8be 9538 eebf 14fa 5abf
00000320: 9a7d b83e 5d33 70c0 b59f 2c40 3c4e 6640
00000330: a21c 26c0 1b1d 423e 11da 40bf 5864 0dbf
00000340: 91c3 8ebf c9e3 d63c 1b5b d6c0 0b0f 2dc0
00000350: defa 35bf 74da 173f ee79 ca3f 0e1c 55bf
00000360: 6edb 953d 4dcf 0f3e 398c 0b40 33a3 febf
00000370: dae0 9b3e bda4 d83f 2b02 0d3f 07f1 5940
00000380: f805 8040 40c2 3d3f 84ab b7bf e0e3 97bf
00000390: 19ef ca3e 3fbd 3c40 0889 c83f abe7 0ebf
000003a0: 7a91 3a3f 983c 63c0 e18f a0bf 8cbc 64bf
000003b0: 05c7 1cbf deae 21bc 891e bf3e 3827 6840
000003c0: 7f27 4040 e45f 2040 4721 0c40 f775 3d3e
000003d0: 2ff1 82c0 f60a cdbe bfdb f53f 2fe5 6dbf
000003e0: eac2 2b3f fe14 46c0 7fa1 5a3d 53be 84c0
000003f0: f822 9c3e 8bb1 9f3f 47c0 6bbe eec0 16c0

layer3.bias f4 [16]
0.0 0.0 0.0 0.0 0.0 0.0 0.0 0.0
0.0 0.0 0.0 0.0 0.0 0.0 0.0 0.0
00000000: 0000 0000 0000 0000 0000 0000 0000 0000
00000010: 0000 0000 0000 0000 0000 0000 0000 0000
00000020: 0000 0000 0000 0000 0000 0000 0000 0000
00000030: 0000 0000 0000 0000 0000 0000 0000 0000

out_layer.weight f4 [3, 16]
-3.4363523 -0.73586816 0.62210065 -0.92579925 -2.0644274 -0.4631872 2.7898057 -0.6186854
-0.0011384793 -0.8997445 -1.1411506 -1.2546289 -0.6856671 0.830355 2.3054304 -1.1426207
1.9325244 6.001252 -3.5003366 2.344504 -1.1014848 0.5750389 0.5314665 -0.7855119
3.5505273 -0.0030666078 -2.7297053 -1.3987144 0.90782577 4.400125 -2.905078 -1.2395436
-1.434706 1.6792121 0.4390144 0.33140567 1.1360393 0.1349135 -0.5959049 -1.4546069
0.6253566 -4.212959 -0.42608124 -0.51897305 -1.5588912 3.962214 0.14350027 0.49036023
00000000: 32ed 5bc0 db61 3cbf fd41 1f3f 2e01 6dbf
00000010: 941f 04c0 df26 edbe 2d8c 3240 2b62 1ebf
00000020: 0739 95ba a855 66bf 3911 92bf ae97 a0bf
00000030: e187 2fbf 2592 543f 2c8c 1340 6541 92bf
00000040: f65c f73f 420a c040 8405 60c0 5b0c 1640
00000050: 74fd 8cbf c035 133f 300e 083f 4f17 49bf
00000060: d73b 6340 24f9 48bb 7eb3 2ec0 1309 b3bf
00000070: 4567 683f d3cd 8c40 ccec 39c0 5da9 9ebf
00000080: 72a4 b7bf 6cf0 d63f 7fc6 e03e 01ae a93e
00000090: bc69 913f c426 0a3e 398d 18bf 8f30 babf
000000a0: 5f17 203f 8fd0 86c0 5227 dabe 6bdb 04bf
000000b0: bf89 c7bf ea94 7d40 bcf1 123e 7f10 fb3e

out_layer.bias f4 [3]
0.0 0.0 0.0
00000000: 0000 0000 0000 0000 0000 0000
