src/ckpt/MountainCar-v0/indiv_8.pt (torch_old, 3954 bytes, 8 tensors)

layer1.weight f4 [16, 2]
00000000: 197b 26c0 6d5b 58bf e3a4 0840 8fc5 88c0
00000010: a904 fd3f d0b3 803f f1f2 1d3f 6a10 e73f
00000020: 7a4e 07be db95 2340 78f1 2240 8a4d 3b3d
00000030: 4570 99bf 9540 0bbe 6377 03bf fd7a 4a3f
00000040: 29eb 4ebf 4e1d fdbf f669 42c0 036e f73f
00000050: f5a9 cfbe 9a0f 6c40 1d11 c23f efd3 80bd
00000060: b983 5140 3428 55c0 3ef7 d33f 2d8c 0b40
00000070: 904d e240 3363 8840 9c72 1e40 7aed aa3e
-2.6012633 -0.84514505 2.135064 -4.274116 1.9767047 1.0054874 0.61698824 1.8051884
-0.1321353 2.5560215 2.545988 0.045728244 -1.1987387 -0.13598855 -0.51354045 0.79093915
-0.80827576 -1.9774568 -3.0377173 1.9330448 -0.40559354 3.6884522 1.5161473 -0.06290423
3.2736647 -3.3305788 1.6559827 2.1804307 7.071968 4.2621093 2.4757452 0.33384305

layer1.bias f4 [16]
00000000: 0000 0000 0000 0000 0000 0000 0000 0000
00000010: 0000 0000 0000 0000 0000 0000 0000 0000
00000020: 0000 0000 0000 0000 0000 0000 0000 0000
00000030: 0000 0000 0000 0000 0000 0000 0000 0000
0.0 0.0 0.0 0.0 0.0 0.0 0.0 0.0
0.0 0.0 0.0 0.0 0.0 0.0 0.0 0.0

layer2.weight f4 [16, 16]
00000000: b2e0 56bf 6e49 9f3f 79a7 19c0 6f5e 2c40
00000010: 46de c53f 505f 8b3f 7268 8bbf 3a0d 6a40
00000020: 5202 2040 c3b7 6fbf a43a 1340 feee 2cc0
00000030: e09b 0f3f e1e1 21c0 7253 af3e 3954 cc3f
00000040: 4c32 dd3f e6f5 973f c0a9 36c0 4f79 7240
00000050: 630d 8dc0 f7fa 3240 93a9 50c0 1d35 90bf
00000060: f4b2 d73f e9c2 1140 e73f 0d3f 5934 4bbf
00000070: 2235 e43f f1d1 8bbf 736c c2bd 40c3 69be
00000080: 81a3 4440 e95d c7bf 9cfc 2340 f9df 00bf
00000090: d1d8 d7be 4b29 adbe ca76 1e40 7f7b e83f
000000a0: f050 1bc0 ff34 9ebf dfe1 7c3f 8008 273f
000000b0: 0070 4a40 d9ec 853d bb6f f5bf ed4b 793f
000000c0: 5edf 633f 26a5 cfbf 5855 60c0 ce7c 163f
000000d0: 0929 4d3f dfd4 ad3f e773 2dbf 5904 0e3f
000000e0: fbf3 9bbd a24c 3ac0 359d d8bf 3e73 ed3e
000000f0: 9eef d73f bf48 94bf de61 563e 1894 afbd
00000100: 97bb b23e 065e 263f 2856 1f40 b819 883f
00000110: 6b94 d8be 6895 0240 d579 dabe 22c4 933f
00000120: 67bc 623f 1beb e1bf 9cdf cbbe 0207 bebf
00000130: aff5 263e 1b72 1b40 0ca0 e5be 7ae4 1fc0
00000140: 4c8c 60bf e088 2140 b1a8 f4bf 1e8c 01c0
00000150: eef6 09bf 5d06 3cc0 821e fc3d 144b eebe
00000160: 2821 03bf c73b 863f 276a 913f beac c3bf
00000170: 458a ae3f 605c 6140 cc04 3fbf d890 48c0
00000180: 6de6 803f 6ce5 c73e f0a1 edbf a6a7 38bf
00000190: f38f 88bf 3315 abbf c27b 08c0 c91c c7be
000001a0: 4b6d 02c0 dec8 88be 9753 a9bf 4e2f 2d40
000001b0: 71c2 3a40 6bb7 29c0 0b39 aa3f 6e82 27c0
000001c0: cb51 873e fd7a 8740 b2cd 83c0 cc61 6abf
000001d0: 49d6 cb3f 53bb 99bf f807 923c f1bf c33f
000001e0: 54d0 7f3f c98d 9e3f 6bc1 f93f d801 1b3e
000001f0: f044 b73f 733e 1f40 6e8a f0be 27c7 b43e
00000200: 8064 0040 cbc3 0c40 150b b73f 8b71 03c0
00000210: 8f64 afbe 2f77 f2bf 5725 5540 5afa 3f40
00000220: ab38 c0bf 334a 943d 09a5 ff3f 4215 8ebf
00000230: 5a93 4f40 2ba6 28bf 5877 993e f85c 19bf
00000240: 488e e4bf f864 7bc0 8770 3abf 3494 2fc0
00000250: 81a2 523e d802 92bf 7fc0 1a40 730b f43f
00000260: 9f75 3640 8163 1bbe 0886 6140 cbcf 1340
00000270: 4ee9 a0bf fffe 0abf 6735 0e3f c181 3940
00000280: 045c 7a3f de1c 18c0 391f 2b3f 984d 84bd
00000290: 7463 b4bf d98f a0bf 3244 5bbf e303 cabf
000002a0: 89bb a4bf 4f9f 263f 79b3 5540 758e 653e
000002b0: 9728 9b3f d4cd 10bf 5d5f 093f 3f65 53c0
000002c0: 9242 7ebe 3551 6140 cf50 19c0 776a eb3d
000002d0: a80a 1540 2eb4 c9be 597c c33f e5da f33f
000002e0: 3c55 af3e fed9 2cbf b6b8 d8bf cb95 763e
000002f0: 1b0e 4340 eb8d a43f 761e 653f 2491 11c0
00000300: 5001 97bf ad1b cdbe a369 273f de47 6bc0
00000310: 433e f13f 1b79 7b3f 6300 e6bf c149 43bf
00000320: 2a8d b3bf 15af 28bf d467 3ec0 c538 3e3f
00000330: 14c5 f43f 31c4 88be 326d 09c0 1406 8240
00000340: 7ddb fbbf bc6f 663f dec6 aac0 cc36 1cc0
00000350: 03e5 6c3e 3a9f acbe f702 6dbe a921 3fc0
00000360: 960d 363f bebb 2640 f14c c7bf aab6 133f
00000370: 5d85 29c0 0967 68be d457 80be aa1c e33e
00000380: 8b69 4abf cd6b b03f cfdd cebf fe4b 6dbf
00000390: 94af 553f b966 593f 28d8 69c0 51d1 87bf
000003a0: 6296 1340 8d5c 90bf c9b1 5b40 7e32 fabe
000003b0: 8a2d 10c0 fb48 2cc0 b99d f7be d962 b03f
000003c0: 04f8 babe ab37 043f 42dd 933f 513a b53f
000003d0: 5103 f1bf c5bf f23f 3ee7 993f fbc2 ac40
000003e0: 0168 4bc0 e047 183f 09db 82c0 7ffe 09bc
000003f0: c0b7 5b40 8632 90bf f45f 5e3f 4612 42c0
-0.8393661 1.2444284 -2.4008467 2.6932638 1.5458457 1.0888462 -1.0891249 3.6570573
2.5001416 -0.93639773 2.3004541 -2.702087 0.5609722 -2.5294116 0.3424335 1.5963203
1.7280974 1.1871917 -2.8541107 3.788654 -4.407884 2.7965677 -3.26035 -1.1266209
1.6851487 2.2775214 0.5517563 -0.7937675 1.7828715 -1.0923444 -0.09493341 -0.22828388
3.0724795 -1.5575534 2.562293 -0.50341755 -0.42157605 -0.33820567 2.4760003 1.8162688
-2.426815 -1.2359923 0.9878215 0.65247345 3.163086 0.06539316 -1.9174722 0.9738148
0.89012706 -1.6222274 -3.505209 0.58784187 0.8014074 1.3580588 -0.6775498 0.55475384
-0.07614895 -2.9109273 -1.6922976 0.46376985 1.687 -1.15847 0.20935771 -0.085731685
0.34908745 0.6498722 2.4896336 1.0632849 -0.42300734 2.040369 -0.42671075 1.154423
0.8856873 -1.7649873 -0.39819038 -1.4845889 0.16304658 2.4288394 -0.4484867 -2.49832
-0.87714076 2.5239792 -1.911398 -2.024177 -0.5389241 -2.9378884 0.123105064 -0.46541655
-0.5122247 1.0486993 1.136052 -1.5287092 1.3635947 3.5212631 -0.74616694 -3.1338406
1.007032 0.39042222 -1.8565044 -0.7213081 -1.066893 -1.3365844 -2.1325536 -0.3888915
-2.0379207 -0.2671575 -1.3228635 2.7060122 2.9181178 -2.65182 1.3298658 -2.6173358
0.2642959 4.233763 -4.1188593 -0.91555476 1.592477 -1.2010292 0.017826065 1.5292951
0.9992726 1.2387019 1.9512151 0.15137422 1.4317913 2.4881866 -0.46980613 0.3530819
2.006134 2.1994503 1.4300257 -2.053805 -0.34256408 -1.8942622 3.330404 2.9996552
-1.5017294 0.07240715 1.997224 -1.1100237 3.2433686 -0.6587855 0.29973865 -0.59907484
-1.7855921 -3.9280376 -0.72827953 -2.7434206 0.20569803 -1.1407118 2.417999 1.9065994
2.850929 -0.15174676 3.5238056 2.3095577 -1.2571199 -0.54295343 0.55550236 2.8985445
0.97796655 -2.376762 0.66844517 -0.06460112 -1.4092851 -1.2543899 -0.8565093 -1.5782436
-1.2869731 0.65086836 3.3390791 0.22417624 1.2121762 -0.5656407 0.5366114 -3.3030546
-0.24830082 3.5205815 -2.3955572 0.11494916 2.3287754 -0.3939528 1.5272323 1.9051176
0.34244716 -0.6752013 -1.6931369 0.24080579 3.047736 1.285581 0.89499605 -2.2744837
-1.1797276 -0.40060177 0.65395564 -3.6762614 1.8847126 0.9823167 -1.7968868 -0.76284415
-1.4027455 -0.65892154 -2.9750872 0.74305373 1.9122643 -0.26712182 -2.1472898 4.063242
-1.9676358 0.90014243 -5.336776 -2.4408445 0.23134236 -0.3371523 -0.23145662 -2.9864295
0.7111448 2.6052089 -1.5570356 0.577006 -2.6487648 -0.22695555 -0.25067008 0.44357806
-0.79067296 1.3782898 -1.6161441 -0.9269408 0.83471036 0.8492237 -3.6538181 -1.0610753
2.3060536 -1.1278244 3.4327261 -0.48866647 -2.2527795 -2.6919544 -0.4836252 1.3780166
-0.36517346 0.5164744 1.1551898 1.4158422 -1.8829137 1.8964773 1.2023695 5.3988013
-3.178223 0.5948467 -4.0892377 -0.008422493 3.4330902 -1.1265419 0.8686516 -3.0323653

layer2.bias f4 [16]
00000000: 0000 0000 0000 0000 0000 0000 0000 0000
00000010: 0000 0000 0000 0000 0000 0000 0000 0000
00000020: 0000 0000 0000 0000 0000 0000 0000 0000
00000030: 0000 0000 0000 0000 0000 0000 0000 0000
0.0 0.0 0.0 0.0 0.0 0.0 0.0 0.0
0.0 0.0 0.0 0.0 0.0 0.0 0.0 0.0

layer3.weight f4 [16, 16]
00000000: f672 e5bf 0bfa 4dc0 66af e9bf a79d 3240
00000010: 3245 c83e 9076 8fbf 5fd5 09c0 cbbe 6fbf
00000020: f945 3d3e 4ca5 bcbf 3f6a d33d 9669 cf3e
00000030: ce99 4dbe 7d45 40be 00f5 e2bf 938d 2f40
00000040: 752c 1d40 02c1 edbe 9f30 4b3f cc83 74bf
00000050: d6e6 ed3e 33d9 82bd 4913 92c0 56be 74c0
00000060: 90d8 91bf c5a7 933d d5da 2fc0 2972 9dbe
00000070: ecc1 17c0 c258 f7bf f676 443f d48c 9bc0
00000080: 55af 03c0 d99c 3f40 f563 ae3f 8cf8 e73f
00000090: c321 e93f 129b 553f de1d 4dbf cd51 83bf
000000a0: c440 3a40 0e3c 8c40 b369 cc3f 162d bdbf
000000b0: 09a4 c73f e57d f6be 6faf 883e 20cc 9b3f
000000c0: 2141 a73f 3210 053f b4a9 1ac0 93c7 ef3f
000000d0: ca6d b8bf 7ed0 2cbf e802 5540 93d1 fc3e
000000e0: 71b8 1b40 98e5 043d aa4d f8be 609d 37c0
000000f0: bc1e c0bf 5d71 c83e 1804 0c40 f433 3ebf
00000100: 1a8d 8e3f 6833 a3c0 9f09 a73f cece 5c40
00000110: 4721 3dbd 528c 753f 4057 953f b60e 08bf
00000120: 9568 1dc0 1456 33c0 66c8 583f bc25 17c0
00000130: 64b6 91bf 1ea5 523f e91c d7bf 4edb 633f
00000140: 65cf 5bbe 5a49 0840 5c8b 03c0 21ec 1dc0
00000150: ac8a 5540 5c16 b03f 5ad8 6f3f ebf9 8d3e
00000160: 8975 27c0 4846 bcbf b7d3 18c0 b596 7c3d
00000170: 1afa 1040 5b49 ebbf df6a 8abe 5de9 183d
00000180: 0ceb b33f 68e3 c23f 2f1f 38c0 f243 773f
00000190: 8892 bebf 93d2 913f d0ed 48c0 574f 53c0
000001a0: d3e8 7abf c868 fbbd 4768 2cc0 d370 01c0
000001b0: 1655 81bf cda9 0240 8491 ddbf 5a3b 9040
000001c0: 343e 11c0 a2ad e7bf 20d6 04c0 9a5a f2bf
000001d0: 8745 3dc0 3586 06c0 d1b6 ca3f 50ca 9640
000001e0: 2e87 1340 91c8 17bf 5893 4e3d ed3b b6bf
000001f0: fd3d 8cbf a8b4 28bf e4bf 453f 4b82 32bf
00000200: 57a5 87c0 a8ad 43c0 7dc4 b4be c757 34bf
00000210: 5fb7 b2bf 15ad 7640 50f3 09c0 116d b9be
00000220: dfd1 8d40 e5b1 843f 6002 26c0 c7ee fd3f
00000230: 593d 823e 5425 193f 3914 0e3f ae09 f1be
00000240: 4f46 2d3f ae6a 963e a1d0 873f 1752 52bf
00000250: cc97 1d40 4210 3bc0 6769 9dbe 2247 453f
00000260: fa1e 10c0 1a8d a83f a4f5 dd3f c924 65bf
00000270: eb47 eebd 20d2 6fbe 54d1 ccbf 4ebe 8dbf
00000280: 737d fe3f 1cd7 08c0 e3ff c63e cb1a 993f
00000290: a6e8 89bf 83c9 19c0 4b10 b5bf c7b8 4f40
000002a0: 5cd8 5ac0 ceb1 b1bf bce3 bbbf 8173 6540
000002b0: fdb2 05c0 c44f aebf dec6 02c0 db00 80c0
000002c0: 0bd1 18c0 7e4e 16bf 8c7f 96be 544c 0a3d
000002d0: d3d1 22bf e90a b03f 5db1 9cbf 7719 4abe
000002e0: 6225 c8bf bc88 e23e 8d0c f83f 579d 8040
000002f0: 1cba 45c0 1df2 81bf b27f 5e3f 3798 3ac0
00000300: 5eff 6bbe 530b b8bf 1409 7a3e d3aa 3ec0
00000310: 080c 5cbf 001b c8be bd10 5fbf 14fa 5abf
00000320: 9a7d b83e 5d33 70c0 b59f 2c40 3c4e 6640
00000330: 2cdb 5bc0 73a8 c73d 11da 40bf ea7e 823f
00000340: 91c3 8ebf c9e3 d63c 8d20 bfbf 7bf6 7440
00000350: 110e 813f 74da 173f 0b62 f9be 0e1c 55bf
00000360: 6edb 953d 4dcf 0f3e 398c 0b40 33a3 febf
00000370: c5ac 7340 7794 873f 2b02 0d3f 7781 4bc0
00000380: f805 8040 40c2 3d3f ec02 8bbd 7dcf 6140
00000390: 8573 82bc 3fbd 3c40 b952 8abf abe7 0ebf
000003a0: 7a91 3a3f 983c 63c0 e18f a0bf 8cbc 64bf
000003b0: 81c9 02c0 3c8f 9bc0 891e bf3e cd38 1bc0
000003c0: 7f27 4040 e45f 2040 42c5 cbbf 57af 43c0
000003d0: 04b0 b1be f60a cdbe 856e 15c0 2fe5 6dbf
000003e0: eac2 2b3f fe14 46c0 7fa1 5a3d 53be 84c0
000003f0: cc8b 4740 84b4 32c0 47c0 6bbe e9f1 c7bf
-1.7925708 -3.2183864 -1.8256652 2.7908723 0.39115292 -1.1208057 -2.1536481 -0.936505
0.18483724 -1.4737945 0.10322999 0.40510243 -0.20078203 -0.18776508 -1.7731018 2.743016
2.4558384 -0.46436316 0.79371065 -0.95513606 0.46465176 -0.06389084 -4.564854 -3.8241172
-1.1394215 0.07209734 -2.7477314 -0.3075116 -2.371211 -1.9323962 0.7674402 -4.860941
-2.0575764 2.9939482 1.3624254 1.8122725 1.8213428 0.83439744 -0.801237 -1.0259339
2.910203 4.382331 1.5969757 -1.4779384 1.5596935 -0.48142925 0.26696345 1.2171669
1.3066751 0.5197784 -2.4166079 1.873278 -1.4408505 -0.67505634 3.3283024 0.49378642
2.4331324 0.03244552 -0.48496753 -2.8689804 -1.5009379 0.3914899 2.1877499 -0.74298024
1.1136811 -5.100025 1.3049811 3.4501224 -0.046174314 0.95917237 1.1667252 -0.5314745
-2.4595082 -2.8021288 0.84680784 -2.3616781 -1.1383786 0.822832 -1.6805698 0.8900651
-0.21465833 2.129477 -2.0553808 -2.4675372 3.3365889 1.3756824 0.936895 0.27729735
-2.6165488 -1.4708948 -2.387922 0.061667163 2.265265 -1.8381761 -0.2703466 0.037331928
1.4056106 1.5225649 -2.8769033 0.9658805 -1.4888468 1.1392387 -3.139515 -3.3017175
-0.9801151 -0.12275845 -2.6938646 -2.0225112 -1.0104091 2.0416138 -1.7310033 4.507245
-2.2694216 -1.8099864 -2.0755692 -1.8933899 -2.9573686 -2.1019413 1.5837041 4.7121964
2.3051257 -0.59290415 0.050433487 -1.4237038 -1.0956417 -0.6590066 0.77245927 -0.6973006
-4.238933 -3.0574741 -0.3530616 -0.7044644 -1.396221 3.854314 -2.1554756 -0.36216024
4.431869 1.0366789 -2.593895 1.9838494 0.2543743 0.59822583 0.5549961 -0.47077698
0.6768541 0.29378265 1.0610543 -0.8215651 2.46239 -2.9228673 -0.30744478 0.77061665
-2.2518907 1.3168061 1.7340589 -0.89509255 -0.11634811 -0.2342 -1.6001382 -1.1073701
1.9882034 -2.1381292 0.388671 1.1961302 -1.0774124 -2.4029243 -1.4145597 3.245653
-3.4194555 -1.3882387 -1.4678874 3.5851748 -2.0890496 -1.3618093 -2.043388 -4.0001044
-2.387759 -0.5871352 -0.29394186 0.0337642 -0.63601416 1.375333 -1.2241627 -0.19736277
-1.5636408 0.44244945 1.937883 4.0192065 -3.0894842 -1.0152012 0.869136 -2.9155405
-0.23046634 -1.4378456 0.24417526 -2.9791763 -0.8595586 -0.390831 -0.87134916 -0.8553784
0.36033326 -3.753135 2.6972477 3.598525 -3.4352522 0.09748926 -0.7533274 1.0194981
-1.1153432 0.026231663 -1.4931809 3.827544 1.0082418 0.5931771 -0.48707613 -0.83245933
0.073172435 0.14043923 2.1804335 -1.9893554 3.80742 1.0592183 0.55081433 -3.179777
4.0007286 0.74124527 -0.06787667 3.528289 -0.015924225 2.9490507 -1.0806495 -0.5582225
0.7287823 -3.5505733 -1.2543908 -0.893502 -2.0435488 -4.8612347 0.37327984 -2.4253418
3.0024107 2.5058527 -1.5919573 -3.057577 -0.34704602 -0.40047425 -2.3348706 -0.9292783
0.6709429 -3.0950313 0.05337667 -4.148233 3.1179075 -2.7922678 -0.23022567 -1.56207

layer3.bias f4 [16]
00000000: 0000 0000 0000 0000 0000 0000 0000 0000
00000010: 0000 0000 0000 0000 0000 0000 0000 0000
00000020: 0000 0000 0000 0000 0000 0000 0000 0000
00000030: 0000 0000 0000 0000 0000 0000 0000 0000
0.0 0.0 0.0 0.0 0.0 0.0 0.0 0.0
0.0 0.0 0.0 0.0 0.0 0.0 0.0 0.0

out_layer.weight f4 [3, 16]
00000000: 32ed 5bc0 db61 3cbf fd41 1f3f 8a95 16c0
00000010: 941f 04c0 df26 edbe a399 3f40 2b62 1ebf
00000020: 0739 95ba a855 66bf c6b1 d53f ae97 a0bf
00000030: e187 2fbf f645 3d40 7292 9e3f efac 9fbd
00000040: f65c f73f 420a c040 8405 60c0 b406 0840
00000050: 74fd 8cbf c035 133f f98f 2b3f 4f17 49bf
00000060: d73b 6340 24f9 48bb 1dd9 323f 1309 b3bf
00000070: 4567 683f 3ec8 e2bf ee58 32be 6457 63be
00000080: 72a4 b7bf 6cf0 d63f 7fc6 e03e 62a6 9b3e
00000090: bc69 913f c426 0a3e 7db2 1340 8f30 babf
000000a0: 5f17 203f 8fd0 86c0 d558 18c0 6bdb 04bf
000000b0: bf89 c7bf 159d b2bf 65e0 3e3f fa39 3f3f
-3.4363523 -0.73586816 0.62210065 -2.3528771 -2.0644274 -0.4631872 2.9937522 -0.6186854
-0.0011384793 -0.8997445 1.6694877 -1.2546289 -0.6856671 2.957395 1.2388442 -0.07796656
1.9325244 6.001252 -3.5003366 2.1254091 -1.1014848 0.5750389 0.6701656 -0.7855119
3.5505273 -0.0030666078 0.6986254 -1.3987144 0.90782577 -1.7717359 -0.17416736 -0.22201306
-1.434706 1.6792121 0.4390144 0.30400378 1.1360393 0.1349135 2.307769 -1.4546069
0.6253566 -4.212959 -2.3804219 -0.51897305 -1.5588912 -1.3954188 0.7456115 0.7469784

out_layer.bias f4 [3]
00000000: 0000 0000 0000 0000 0000 0000
0.0 0.0 0.0
