src/ckpt/MountainCar-v0/indiv_2.pt (torch_old, 3954 bytes, 8 tensors)

layer1.weight f4 [16, 2]
000000 6c 1f f5 3f 6d 5b 58 bf ef 34 18 40 8f c5 88 c0
       1.9150214 -0.84514505 2.3782308 -4.274116
000010 80 92 99 40 d0 b3 80 3f 87 5f b7 3d 6a 10 e7 3f
       4.7991333 1.0054874 0.08953767 1.8051884
000020 32 a5 98 3f db 95 23 40 47 e4 a5 3f 8a 4d 3b 3d
       1.1925414 2.5560215 1.296029 0.045728244
000030 72 13 1c 40 95 40 0b be 6c fc 45 3f fd 7a 4a 3f
       2.4386868 -0.13598855 0.7733829 0.79093915
000040 95 46 f0 3f 4e 1d fd bf d3 0b 21 3f 03 6e f7 3f
       1.877154 -1.9774568 0.6290867 1.9330448
000050 dc 17 dd 3f 9a 0f 6c 40 2a b1 90 3f ef d3 80 bd
       1.7272906 3.6884522 1.1304066 -0.06290423
000060 28 06 46 c0 34 28 55 c0 46 55 1a be 2d 8c 0b 40
       -3.0941257 -3.3305788 -0.15071592 2.1804307
000070 84 c2 d1 40 33 63 88 40 89 ae 05 3f 7a ed aa 3e
       6.5549946 4.2621093 0.52219445 0.33384305

layer1.bias f4 [16]
000000 00 00 00 00 00 00 00 00 00 00 00 00 00 00 00 00
       0.0 0.0 0.0 0.0
000010 00 00 00 00 00 00 00 00 00 00 00 00 00 00 00 00
       0.0 0.0 0.0 0.0
000020 00 00 00 00 00 00 00 00 00 00 00 00 00 00 00 00
       0.0 0.0 0.0 0.0
000030 00 00 00 00 00 00 00 00 00 00 00 00 00 00 00 00
       0.0 0.0 0.0 0.0

layer2.weight f4 [16, 16]
000000 f2 28 2a bf 6e 49 9f 3f 3f d2 16 40 dc 79 a8 3d
       -0.6646873 1.2444284 2.3565824 0.08226368
000010 46 de c5 3f 78 5b d3 bf 72 68 8b bf 3a 0d 6a 40
       1.5458457 -1.6512289 -1.0891249 3.6570573
000020 52 02 20 40 c3 b7 6f bf a4 3a 13 40 fe ee 2c c0
       2.5001416 -0.93639773 2.3004541 -2.702087
000030 e0 9b 0f 3f f0 48 8f 3f 72 53 af 3e 28 65 3d c0
       0.5609722 1.1194134 0.3424335 -2.959299
000040 7c 5f 06 c0 e6 f5 97 3f 9c 2c e1 3f 97 51 f8 3f
       -2.099578 1.1871917 1.7591739 1.9399899
000050 63 0d 8d c0 f2 36 f9 3e 93 a9 50 c0 1d 35 90 bf
       -4.407884 0.48674732 -3.26035 -1.1266209
000060 f4 b2 d7 3f e9 c2 11 40 e7 3f 0d 3f 59 34 4b bf
       1.6851487 2.2775214 0.5517563 -0.7937675
000070 22 35 e4 3f a0 2e 90 bf 73 6c c2 bd 5d 9d f0 3f
       1.7828715 -1.1264229 -0.09493341 1.8798023
000080 e9 45 03 bf e9 5d c7 bf 80 dc 2d 3e d6 b2 c8 3f
       -0.5127855 -1.5575534 0.16978645 1.5679576
000090 22 67 a6 bf e0 3a a3 bf ca 76 1e 40 7f 7b e8 3f
       -1.3000224 -1.2752342 2.4760003 1.8162688
0000a0 f0 50 1b c0 ff 34 9e bf df e1 7c 3f 80 08 27 3f
       -2.426815 -1.2359923 0.9878215 0.65247345
0000b0 00 70 4a 40 ec 9d 16 40 bb 6f f5 bf 4e 4d 82 bd
       3.163086 2.3533888 -1.9174722 -0.06362401
0000c0 ae ae ec bf 26 a5 cf bf 78 c2 9f bf 1e a8 46 be
       -1.8490808 -1.6222274 -1.2481222 -0.19400069
0000d0 09 29 4d 3f f3 af 09 40 e7 73 2d bf 59 04 0e 3f
       0.8014074 2.151364 -0.6775498 0.55475384
0000e0 fb f3 9b bd a2 4c 3a c0 35 9d d8 bf 3e 73 ed 3e
       -0.07614895 -2.9109273 -1.6922976 0.46376985
0000f0 9e ef d7 3f fb 97 12 3f de 61 56 3e e0 3e 1e 40
       1.687 0.57263154 0.20935771 2.4725876
000100 a0 7e 73 be 06 5e 26 3f 25 86 20 c0 94 e0 44 c0
       -0.23778772 0.6498722 -2.5081875 -3.0762072
000110 6b 94 d8 be 8e de 2c 40 d5 79 da be 22 c4 93 3f
       -0.42300734 2.7010837 -0.42671075 1.154423
000120 67 bc 62 3f 1b eb e1 bf 9c df cb be 02 07 be bf
       0.8856873 -1.7649873 -0.39819038 -1.4845889
000130 af f5 26 3e b4 5c 10 3e 0c a0 e5 be 30 43 19 c0
       0.16304658 0.14097863 -0.4484867 -2.3947258
000140 53 85 70 3f e0 88 21 40 56 ab 21 c0 a2 cf 14 40
       0.93953437 2.5239792 -2.5260825 2.325173
000150 ee f6 09 bf 09 df f4 3f 82 1e fc 3d 14 4b ee be
       -0.5389241 1.9130565 0.123105064 -0.46541655
000160 28 21 03 bf c7 3b 86 3f 27 6a 91 3f be ac c3 bf
       -0.5122247 1.0486993 1.136052 -1.5287092
000170 45 8a ae 3f 87 c2 d5 3f cc 04 3f bf ce 6b 80 bf
       1.3635947 1.669999 -0.74616694 -1.0032899
000180 ca e6 87 3f 6c e5 c7 3e 0c 34 11 c0 c0 51 5f 3d
       1.0617306 0.39042222 -2.2688017 0.054521322
000190 f3 8f 88 bf 05 18 70 c0 c2 7b 08 c0 c9 1c c7 be
       -1.066893 -3.751466 -2.1325536 -0.3888915
0001a0 4b 6d 02 c0 de c8 88 be 97 53 a9 bf 4e 2f 2d 40
       -2.0379207 -0.2671575 -1.3228635 2.7060122
0001b0 71 c2 3a 40 66 52 7d c0 0b 39 aa 3f f6 ff 0b c0
       2.9181178 -3.9581542 1.3298658 -2.1874976
0001c0 2b 3a 01 40 fd 7a 87 40 37 f8 a9 bf 58 b4 43 bf
       2.0191753 4.233763 -1.3278874 -0.7644706
0001d0 49 d6 cb 3f ae af 33 c0 f8 07 92 3c f1 bf c3 3f
       1.592477 -2.8075976 0.017826065 1.5292951
0001e0 54 d0 7f 3f c9 8d 9e 3f 6b c1 f9 3f d8 01 1b 3e
       0.9992726 1.2387019 1.9512151 0.15137422
0001f0 f0 44 b7 3f 2e 03 40 3f 6e 8a f0 be 9d 78 2d 40
       1.4317913 0.7500485 -0.46980613 2.7104867
000200 f9 4f 66 3f cb c3 0c 40 40 71 0f c0 19 f5 ea be
       0.8996578 2.1994503 -2.2412872 -0.4589012
000210 8f 64 af be a1 ca db bf 57 25 55 40 5a fa 3f 40
       -0.34256408 -1.7171212 3.330404 2.9996552
000220 ab 38 c0 bf 33 4a 94 3d 09 a5 ff 3f 42 15 8e bf
       -1.5017294 0.07240715 1.997224 -1.1100237
000230 5a 93 4f 40 60 1d ed 3f 58 77 99 3e d0 4a c7 bf
       3.2433686 1.852459 0.29973865 -1.5569706
000240 c3 38 03 40 f8 64 7b c0 11 d3 75 3f e4 df 5f c0
       2.0503395 -3.9280376 0.96025187 -3.4980402
000250 81 a2 52 3e 20 93 58 40 7f c0 1a 40 73 0b f4 3f
       0.20569803 3.3839798 2.417999 1.9065994
000260 9f 75 36 40 81 63 1b be 08 86 61 40 cb cf 13 40
       2.850929 -0.15174676 3.5238056 2.3095577
000270 4e e9 a0 bf 00 4d 91 40 67 35 0e 3f 30 49 42 c0
       -1.2571199 4.5406494 0.55550236 -3.035717
000280 36 28 2e 40 de 1c 18 c0 7c f3 8e bd 77 c9 c0 bf
       2.7212043 -2.376762 -0.06980035 -1.5061482
000290 74 63 b4 bf 95 c7 7a bf 32 44 5b bf e3 03 ca bf
       -1.4092851 -0.9796079 -0.8565093 -1.5782436
0002a0 89 bb a4 bf 4f 9f 26 3f 79 b3 55 40 75 8e 65 3e
       -1.2869731 0.65086836 3.3390791 0.22417624
0002b0 97 28 9b 3f fe bd 06 c0 5d 5f 09 3f 0e 63 51 bf
       1.2121762 -2.1053462 0.5366114 -0.8179177
0002c0 c3 23 f3 3f 35 51 61 40 53 6b 84 3e 6e 85 7a 3e
       1.8995289 3.5205815 0.25863132 0.24464962
0002d0 a8 0a 15 40 8c 97 95 be 59 7c c3 3f e5 da f3 3f
       2.3287754 -0.29217184 1.5272323 1.9051176
0002e0 3c 55 af 3e fe d9 2c bf b6 b8 d8 bf cb 95 76 3e
       0.34244716 -0.6752013 -1.6931369 0.24080579
0002f0 1b 0e 43 40 c4 31 a3 3f 8e e2 b3 3f d6 0a 86 40
       3.047736 1.2749562 1.4053514 4.1888227
000300 47 3c a0 3f ad 1b cd be 74 51 e2 bf 66 ef 63 bf
       1.2518395 -0.40060177 -1.7681108 -0.8903717
000310 43 3e f1 3f 50 61 0a c0 63 00 e6 bf c1 49 43 bf
       1.8847126 -2.1621895 -1.7968868 -0.76284415
000320 2a 8d b3 bf 15 af 28 bf d4 67 3e c0 c5 38 3e 3f
       -1.4027455 -0.65892154 -2.9750872 0.74305373
000330 14 c5 f4 3f b7 e5 8b bf 32 6d 09 c0 f5 b7 d6 be
       1.9122643 -1.0929478 -2.1472898 -0.41937223
000340 f4 21 01 bf bc 6f 66 3f 25 04 f3 bd a2 38 26 c0
       -0.50442433 0.90014243 -0.11866025 -2.5972066
000350 03 e5 6c 3e fe fc e0 3e f7 02 6d be a9 21 3f c0
       0.23134236 0.43943018 -0.23145662 -2.9864295
000360 96 0d 36 3f be bb 26 40 f1 4c c7 bf aa b6 13 3f
       0.7111448 2.6052089 -1.5570356 0.577006
000370 5d 85 29 c0 91 3f 37 3f d4 57 80 be 26 11 7c bf
       -2.6487648 0.7158137 -0.25067008 -0.98463666
000380 80 b6 35 40 cd 6b b0 3f 96 45 5f 3f 54 4c ef be
       2.839264 1.3782898 0.87215555 -0.4673792
000390 94 af 55 3f 5e 6f 8d bf 28 d8 69 c0 47 94 12 c0
       0.83471036 -1.1049612 -3.6538181 -2.2903001
0003a0 62 96 13 40 8d 5c 90 bf c9 b1 5b 40 7e 32 fa be
       2.3060536 -1.1278244 3.4327261 -0.48866647
0003b0 8a 2d 10 c0 e8 0c c5 be b9 9d f7 be 1c 82 99 bf
       -2.2527795 -0.3848641 -0.4836252 -1.1992831
0003c0 80 69 82 3c ab 37 04 3f 1d 75 66 c0 72 69 a0 be
       0.015919447 0.5164744 -3.600898 -0.31330448
0003d0 51 03 f1 bf 5c d1 74 3e 3e e7 99 3f fb c2 ac 40
       -1.8829137 0.2390799 1.2023695 5.3988013
0003e0 01 68 4b c0 e0 47 18 3f 09 db 82 c0 7f fe 09 bc
       -3.178223 0.5948467 -4.0892377 -0.008422493
0003f0 c0 b7 5b 40 12 bd 1f 40 f4 5f 5e 3f 69 83 5c 40
       3.4330902 2.495915 0.8686516 3.4455206

layer2.bias f4 [16]
000000 00 00 00 00 00 00 00 00 00 00 00 00 00 00 00 00
       0.0 0.0 0.0 0.0
000010 00 00 00 00 00 00 00 00 00 00 00 00 00 00 00 00
       0.0 0.0 0.0 0.0
000020 00 00 00 00 00 00 00 00 00 00 00 00 00 00 00 00
       0.0 0.0 0.0 0.0
000030 00 00 00 00 00 00 00 00 00 00 00 00 00 00 00 00
       0.0 0.0 0.0 0.0

layer3.weight f4 [16, 16]
000000 f6 72 e5 bf f2 51 f8 bf cc 77 44 40 76 5a cc bf
       -1.7925708 -1.9400008 3.0698118 -1.5965106
000010 a3 e7 54 40 e6 53 6f 3e 5f d5 09 c0 cb be 6f bf
       3.326638 0.23371848 -2.1536481 -0.936505
000020 f9 45 3d 3e 6e 46 55 be 3f 6a d3 3d 7d 8a 2d 3e
       0.18483724 -0.20827648 0.10322999 0.1694736
000030 ce 99 4d be 8f 54 70 bf 00 f5 e2 bf 93 8d 2f 40
       -0.20078203 -0.93879026 -1.7731018 2.743016
000040 75 2c 1d 40 c4 b3 2c bf a6 08 4e 40 4a cd 80 3f
       2.4558384 -0.674618 3.2192779 1.0062649
000050 9c 32 2b 40 04 b0 77 be 49 13 92 c0 56 be 74 c0
       2.674964 -0.24188238 -4.564854 -3.8241172
000060 90 d8 91 bf 39 dc 05 40 d5 da 2f c0 3c e9 56 40
       -1.1394215 2.0915663 -2.7477314 3.3579855
000070 ec c1 17 c0 14 fa 84 c0 f6 76 44 3f d4 8c 9b c0
       -2.371211 -4.155527 0.7674402 -4.860941
000080 55 af 03 c0 c2 38 ca bf c5 ef bb 3f 84 97 7c 3e
       -2.0575764 -1.5798571 1.4682547 0.24667174
000090 1f 92 a4 3f 79 fb 8c 3f de 1d 4d bf cd 51 83 bf
       1.2857093 1.1014243 -0.801237 -1.0259339
0000a0 c4 40 3a 40 c7 7c c8 40 b3 69 cc 3f 4c 67 be bf
       2.910203 6.2652316 1.5969757 -1.4875274
0000b0 09 a4 c7 3f 90 10 bc c0 30 14 2d 3f 20 cc 9b 3f
       1.5596935 -5.877022 0.6760893 1.2171669
0000c0 21 41 a7 3f 72 97 2d 40 06 49 44 3f 39 a3 a1 3f
       1.3066751 2.7123685 0.76673925 1.2627937
0000d0 48 55 02 40 bb 17 6d bf e8 02 55 40 93 d1 fc 3e
       2.0364552 -0.92614335 3.3283024 0.49378642
0000e0 71 b8 1b 40 3e 7c 8c bf aa 4d f8 be 2d d4 0a c0
       2.4331324 -1.0975416 -0.48496753 -2.1692002
0000f0 bc 1e c0 bf 86 f9 33 3e 18 04 0c 40 f4 33 3e bf
       -1.5009379 0.17575654 2.1877499 -0.74298024
000100 1a 8d 8e 3f dd b7 c3 bf 53 93 a6 be 5e b2 72 bf
       1.1136811 -1.5290486 -0.32534274 -0.94803417
000110 bd 0c d2 bf 9c cf 59 c0 40 57 95 3f b6 0e 08 bf
       -1.6410137 -3.4032965 1.1667252 -0.5314745
000120 95 68 1d c0 74 1a 1c 40 66 c8 58 3f da 5f 98 40
       -2.4595082 2.4391146 0.84680784 4.7617006
000130 64 b6 91 bf 05 b5 81 40 e9 1c d7 bf 4e db 63 3f
       -1.1383786 4.053347 -1.6805698 0.8900651
000140 65 cf 5b be 6e 6e 43 bf fa 41 f3 3f 7d 36 2a 40
       -0.21465833 -0.7634038 1.900451 2.6595757
000150 38 d5 9b bf 61 a1 f2 be 5a d8 6f 3f eb f9 8d 3e
       -1.2174444 -0.47388747 0.936895 0.27729735
000160 89 75 27 c0 96 0e 60 40 b7 d3 18 c0 18 26 8d bf
       -2.6165488 3.5008903 -2.387922 -1.102725
000170 1a fa 10 40 de d4 87 bf df 6a 8a be 5d e9 18 3d
       2.265265 -1.0611837 -0.2703466 0.037331928
000180 0c eb b3 3f b0 8c 71 40 32 13 03 c0 3e c3 e5 3d
       1.4056106 3.774212 -2.0480466 0.1121888
000190 24 16 70 40 19 3a 36 40 d0 ed 48 c0 57 4f 53 c0
       3.7513514 2.847296 -3.139515 -3.3017175
0001a0 d3 e8 7a bf 54 5e c8 bf 47 68 2c c0 09 72 38 c0
       -0.9801151 -1.5653787 -2.6938646 -2.8819602
0001b0 16 55 81 bf 21 3b cb 3e 84 91 dd bf 8e d4 9b 40
       -1.0104091 0.3969355 -1.7310033 4.8696966
0001c0 34 3e 11 c0 8d e0 6d 3e be 85 79 bf 9f 9d 71 3f
       -2.2694216 0.2323019 -0.974697 0.94381136
0001d0 cd 62 26 40 57 40 80 40 d1 b6 ca 3f 50 ca 96 40
       2.5997803 4.007854 1.5837041 4.7121964
0001e0 2e 87 13 40 6a 41 27 c0 58 93 4e 3d 64 1f f1 3e
       2.3051257 -2.6133676 0.050433487 0.47094262
0001f0 fd 3d 8c bf 68 89 11 c0 e4 bf 45 3f 4b 82 32 bf
       -1.0956417 -2.2740116 0.77245927 -0.6973006
000200 57 a5 87 c0 cc 69 9e 3f 7f 0c 4d bf 0f ea 71 c0
       -4.238933 1.2376037 -0.8009719 -3.7799108
000210 29 fb d6 3f 30 50 b5 bf 50 f3 09 c0 11 6d b9 be
       1.6795398 -1.4165096 -2.1554756 -0.36216024
000220 df d1 8d 40 8f 22 65 3f 60 02 26 c0 b7 c2 9e bf
       4.431869 0.8950586 -2.593895 -1.2403172
000230 59 3d 82 3e b1 61 01 c0 39 14 0e 3f ae 09 f1 be
       0.2543743 -2.0215876 0.5549961 -0.47077698
000240 4f 46 2d 3f af 2d 39 bf ce 44 20 bf ff 28 39 c0
       0.6768541 -0.7233533 -0.6260499 -2.8931272
000250 b9 78 45 3e d5 d2 8d 40 67 69 9d be 22 47 45 3f
       0.19284333 4.4319863 -0.30744478 0.77061665
000260 fa 1e 10 c0 89 3b 77 bf a4 f5 dd 3f b4 29 7d 3f
       -2.2518907 -0.9657522 1.7340589 0.9889176
000270 eb 47 ee bd 27 98 eb be 54 d1 cc bf 4e be 8d bf
       -0.11634811 -0.4601452 -1.6001382 -1.1073701
000280 73 7d fe 3f 92 d3 a2 40 ab 0a 8c bf 54 3d 86 be
       1.9882034 5.0883265 -1.0940756 -0.26218665
000290 77 dd 00 3e b0 a7 72 40 4b 10 b5 bf c7 b8 4f 40
       0.12584482 3.7914848 -1.4145597 3.245653
0002a0 5c d8 5a c0 c8 b6 8a 3f bc e3 bb bf a1 99 25 c0
       -3.4194555 1.083703 -1.4678874 -2.5875018
0002b0 fd b2 05 c0 d0 61 2d 3e de c6 02 c0 db 00 80 c0
       -2.0890496 0.16931844 -2.043388 -4.0001044
0002c0 0b d1 18 c0 96 fb 04 40 9d b2 4e bf 55 d7 ff bf
       -2.387759 2.0778556 -0.8074129 -1.9987589
0002d0 7a b1 71 bf b5 39 0d 3f 5d b1 9c bf 77 19 4a be
       -0.9441143 0.5516618 -1.2241627 -0.19736277
0002e0 62 25 c8 bf bf 48 42 c0 8d 0c f8 3f b3 7c 37 c0
       -1.5636408 -3.03569 1.937883 -2.866986
0002f0 1c ba 45 c0 2e 96 35 3f b2 7f 5e 3f 37 98 3a c0
       -3.0894842 0.7093228 0.869136 -2.9155405
000300 5e ff 6b be c7 b6 6b bf 4e f8 3c bf bb 3b 77 3f
       -0.23046634 -0.9207577 -0.7381638 0.96575516
000310 d6 3c 18 c0 44 82 b5 3f bd 10 5f bf 14 fa 5a bf
       -2.3787131 1.4180379 -0.87134916 -0.8553784
000320 9a 7d b8 3e 93 13 61 3f b5 9f 2c 40 50 94 88 3f
       0.36033326 0.8792049 2.6972477 1.0670261
000330 2c db 5b c0 1b 1d 42 3e 11 da 40 bf ea 7e 82 3f
       -3.4352522 0.18956415 -0.7533274 1.0194981
000340 91 c3 8e bf 34 11 8d 3f 1b 5b d6 c0 f3 79 49 c0
       -1.1153432 1.1020875 -6.6986213 -3.1480682
000350 de fa 35 bf 85 a1 e4 bf 0b 62 f9 be 0e 1c 55 bf
       -0.7108592 -1.7861792 -0.48707613 -0.83245933
000360 6e db 95 3d e4 b3 34 c0 39 8c 0b 40 b0 a4 2a c0
       0.073172435 -2.8234797 2.1804335 -2.6663017
000370 c5 ac 73 40 bd a4 d8 3f 2b 02 0d 3f 77 81 4b c0
       3.80742 1.6925274 0.55081433 -3.179777
000380 f8 05 80 40 73 ac 65 40 84 ab b7 bf 07 2d 86 c0
       4.0007286 3.5886505 -1.4349217 -4.1929965
000390 19 ef ca 3e ee ae c2 bf b9 52 8a bf ab e7 0e bf
       0.39635542 -1.5209634 -1.0806495 -0.5582225
0003a0 7a 91 3a 3f 5c 68 bb 3f e1 8f a0 bf 9f 6a 12 40
       0.7287823 1.4641223 -1.2543908 2.2877576
0003b0 81 c9 02 c0 de ae 21 bc 89 1e bf 3e cd 38 1b c0
       -2.0435488 -0.009868352 0.37327984 -2.4253418
0003c0 7f 27 40 40 49 25 fc bf 47 21 0c 40 f8 bd 44 c0
       3.0024107 -1.9698879 2.189531 -3.0740948
0003d0 2f f1 82 c0 b8 14 13 bf 85 6e 15 c0 2f e5 6d bf
       -4.0919414 -0.5745349 -2.3348706 -0.9292783
0003e0 ea c2 2b 3f 24 fe 2d c0 7f a1 5a 3d c0 3a 47 c0
       0.6709429 -2.7186365 0.05337667 -3.1129608
0003f0 cc 8b 47 40 8b b1 9f 3f 47 c0 6b be e9 f1 c7 bf
       3.1179075 1.2476057 -0.23022567 -1.56207

layer3.bias f4 [16]
000000 00 00 00 00 00 00 00 00 00 00 00 00 00 00 00 00
       0.0 0.0 0.0 0.0
000010 00 00 00 00 00 00 00 00 00 00 00 00 00 00 00 00
       0.0 0.0 0.0 0.0
000020 00 00 00 00 00 00 00 00 00 00 00 00 00 00 00 00
       0.0 0.0 0.0 0.0
000030 00 00 00 00 00 00 00 00 00 00 00 00 00 00 00 00
       0.0 0.0 0.0 0.0

out_layer.weight f4 [3, 16]
000000 32 ed 5b c0 db 61 3c bf fb 26 1f bf 8a e6 0f c0
       -3.4363523 -0.73586816 -0.62168854 -2.248446
000010 cf 38 93 3d df 26 ed be 2d 8c 32 40 0c 3d 83 40
       0.0718857 -0.4631872 2.7898057 4.101202
000020 07 39 95 ba a8 55 66 bf c6 b1 d5 3f ae 97 a0 bf
       -0.0011384793 -0.8997445 1.6694877 -1.2546289
000030 1c 3d ef 3f 25 92 54 3f 2c 8c 13 40 97 bb d1 bf
       1.8690524 0.830355 2.3054304 -1.6385373
000040 f6 5c f7 3f 42 0a c0 40 a5 c8 de bf b4 cf 22 40
       1.9325244 6.001252 -1.7404982 2.5439272
000050 bb 8e 92 3f c0 35 13 3f 30 0e 08 3f 82 4d d1 bd
       1.1449808 0.5750389 0.5314665 -0.102198616
000060 d7 3b 63 40 24 f9 48 bb 1d d9 32 3f 13 09 b3 bf
       3.5505273 -0.0030666078 0.6986254 -1.3987144
000070 cd 4a 0d 40 d3 cd 8c 40 cc ec 39 c0 f2 b3 7c bf
       2.2076905 4.400125 -2.905078 -0.98712075
000080 72 a4 b7 bf 6c f0 d6 3f 8e 0d e0 3f 4f b1 6b 40
       -1.434706 1.6792121 1.7504137 3.682697
000090 71 50 11 40 c4 26 0a 3e 39 8d 18 bf 22 a9 97 3f
       2.2705348 0.1349135 -0.5959049 1.184849
0000a0 5f 17 20 3f 8f d0 86 c0 d5 58 18 c0 6b db 04 bf
       0.6253566 -4.212959 -2.3804219 -0.51897305
0000b0 c3 d5 d0 be ea 94 7d 40 bc f1 12 3e 49 73 32 c0
       -0.40788087 3.962214 0.14350027 -2.7882864

out_layer.bias f4 [3]
000000 00 00 00 00 00 00 00 00 00 00 00 00
       0.0 0.0 0.0
