src/ckpt/MountainCar-v0/indiv_36.pt (torch_old, 3954 bytes, 8 tensors)

layer1.weight f4 [16, 2]
-1.8220143 -0.84514505 -2.737878 -4.274116 -3.1570966 1.0054874 0.400652 1.8051884
0.16289687 2.5560215 -1.6039511 0.045728244 -1.4513675 -0.13598855 -0.53362286 0.79093915
1.4371474 -1.9774568 0.040683623 1.9330448 2.8477874 3.6884522 -1.0559933 -0.06290423
0.18797365 -3.3305788 1.3978333 2.1804307 -1.1916869 4.2621093 -1.5804948 0.33384305
00000000: c437 e9bf 6d5b 58bf 6539 2fc0 8fc5 88c0
00000010: df0d 4ac0 d0b3 803f 4222 cd3e 6a10 e73f
00000020: 70ce 263e db95 2340 454e cdbf 8a4d 3b3d
00000030: 69c6 b9bf 9540 0bbe 829b 08bf fd7a 4a3f
00000040: 72f4 b73f 4e1d fdbf dfa3 263d 036e f73f
00000050: 2642 3640 9a0f 6c40 ca2a 87bf efd3 80bd
00000060: 2a7c 403e 3428 55c0 34ec b23f 2d8c 0b40
00000070: 3289 98bf 3363 8840 a74d cabf 7aed aa3e

layer1.bias f4 [16]
0.0 0.0 0.0 0.0 0.0 0.0 0.0 0.0
0.0 0.0 0.0 0.0 0.0 0.0 0.0 0.0
00000000: 0000 0000 0000 0000 0000 0000 0000 0000
00000010: 0000 0000 0000 0000 0000 0000 0000 0000
00000020: 0000 0000 0000 0000 0000 0000 0000 0000
00000030: 0000 0000 0000 0000 0000 0000 0000 0000

layer2.weight f4 [16, 16]
-0.8393661 -0.72935706 -2.4008467 2.6932638 1.5458457 -1.6512289 -1.0891249 3.6570573
0.6899668 -0.93639773 2.3004541 -2.702087 0.5609722 -0.056362722 0.3424335 1.5963203
1.7280974 -0.9751003 -2.8541107 3.788654 -4.407884 0.48674732 -3.26035 -1.1266209
-0.58442044 2.2775214 0.5517563 -0.7937675 1.7828715 0.44505522 -0.09493341 -0.22828388
3.0724795 -2.0997615 2.562293 -0.50341755 -0.42157605 -1.2752342 2.4760003 1.8162688
-1.1888362 -1.2359923 0.9878215 0.65247345 3.163086 1.2174536 -1.9174722 0.9738148
0.89012706 -1.2290275 -3.505209 0.58784187 0.8014074 2.151364 -0.6775498 0.55475384
-1.0764918 -2.9109273 -1.6922976 0.46376985 1.687 -1.1511137 0.20935771 -0.085731685
0.34908745 5.4914923 2.4896336 1.0632849 -0.42300734 2.7010837 -0.42671075 1.154423
3.4468129 -1.7649873 -0.39819038 -1.4845889 0.16304658 1.4043736 -0.4484867 -2.49832
-0.87714076 -1.0057483 -1.911398 -2.024177 -0.5389241 1.9130565 0.123105064 -0.46541655
3.7874248 1.0486993 1.136052 -1.5287092 1.3635947 0.6191361 -0.74616694 -3.1338406
1.007032 0.49945593 -1.8565044 -0.7213081 -1.066893 -3.751466 -2.1325536 -0.3888915
-0.28826776 -0.2671575 -1.3228635 2.7060122 2.9181178 -0.8701155 1.3298658 -2.6173358
0.2642959 0.55721176 -4.1188593 -0.91555476 1.592477 -2.8075976 0.017826065 1.5292951
4.539296 1.2387019 1.9512151 0.15137422 1.4317913 -0.186268 -0.46980613 0.3530819
2.006134 -1.3044307 1.4300257 -2.053805 -0.34256408 -1.7171212 3.330404 2.9996552
3.906368 0.07240715 1.997224 -1.1100237 3.2433686 2.2643402 0.29973865 -0.59907484
-1.7855921 -1.6918452 -0.72827953 -2.7434206 0.20569803 3.3839798 2.417999 1.9065994
0.9136412 -0.15174676 3.5238056 1.8176292 -1.2571199 -1.1336871 0.55550236 2.8985445
0.97796655 -3.3586166 0.66844517 -0.06460112 -1.4092851 -0.9796079 -0.8565093 -1.5782436
-0.43838117 0.65086836 3.3390791 0.22417624 1.2121762 2.127092 0.5366114 -3.3030546
-0.24830082 0.6330471 -2.3955572 0.11494916 2.3287754 -0.29217184 1.5272323 1.9051176
-1.099303 -0.6752013 -1.6931369 0.24080579 3.047736 -1.4517676 1.4053514 -2.2744837
-1.1797276 -3.9211438 0.7010622 -3.6762614 1.8847126 -2.1621895 -1.7968868 -0.76284415
1.5073756 -0.65892154 -2.9750872 0.74305373 1.9122643 5.59567 -2.1472898 4.063242
-1.9676358 0.275903 -5.336776 -2.4408445 0.23134236 0.43943018 -0.23145662 -2.9864295
0.42584643 2.6052089 -1.5570356 0.577006 -2.6487648 -1.2513702 -0.25067008 0.44357806
-0.79067296 -0.3017248 -1.6161441 -0.9269408 0.83471036 -1.1049612 -3.6538181 -2.2903001
-1.6644295 -1.1278244 3.4327261 -0.48866647 -2.2527795 0.72634804 -0.4836252 1.3780166
-0.36517346 4.19259 1.1551898 1.4158422 -1.8829137 0.2390799 1.2023695 5.3988013
-0.035143275 0.5948467 -4.0892377 -0.008422493 3.4330902 -0.159145 0.8686516 -3.0323653
00000000: b2e0 56bf 25b7 3abf 79a7 19c0 6f5e 2c40
00000010: 46de c53f 785b d3bf 7268 8bbf 3a0d 6a40
00000020: aaa1 303f c3b7 6fbf a43a 1340 feee 2cc0
00000030: e09b 0f3f 99dc 66bd 7253 af3e 3954 cc3f
00000040: 4c32 dd3f 2ca0 79bf c0a9 36c0 4f79 7240
00000050: 630d 8dc0 f236 f93e 93a9 50c0 1d35 90bf
00000060: 949c 15bf e9c2 1140 e73f 0d3f 5934 4bbf
00000070: 2235 e43f 47de e33e 736c c2bd 40c3 69be
00000080: 81a3 4440 7e62 06c0 9cfc 2340 f9df 00bf
00000090: d1d8 d7be e03a a3bf ca76 1e40 7f7b e83f
000000a0: c92b 98bf ff34 9ebf dfe1 7c3f 8008 273f
000000b0: 0070 4a40 85d5 9b3f bb6f f5bf ed4b 793f
000000c0: 5edf 633f c650 9dbf 5855 60c0 ce7c 163f
000000d0: 0929 4d3f f3af 0940 e773 2dbf 5904 0e3f
000000e0: 7cca 89bf a24c 3ac0 359d d8bf 3e73 ed3e
000000f0: 9eef d73f b257 93bf de61 563e 1894 afbd
00000100: 97bb b23e 4eba af40 2856 1f40 b819 883f
00000110: 6b94 d8be 8ede 2c40 d579 dabe 22c4 933f
00000120: 9598 5c40 1beb e1bf 9cdf cbbe 0207 bebf
00000130: aff5 263e 84c2 b33f 0ca0 e5be 7ae4 1fc0
00000140: 4c8c 60bf 5cbc 80bf b1a8 f4bf 1e8c 01c0
00000150: eef6 09bf 09df f43f 821e fc3d 144b eebe
00000160: 2b65 7240 c73b 863f 276a 913f beac c3bf
00000170: 458a ae3f b47f 1e3f cc04 3fbf d890 48c0
00000180: 6de6 803f b0b8 ff3e f0a1 edbf a6a7 38bf
00000190: f38f 88bf 0518 70c0 c27b 08c0 c91c c7be
000001a0: d597 93be dec8 88be 9753 a9bf 4e2f 2d40
000001b0: 71c2 3a40 e4bf 5ebf 0b39 aa3f 6e82 27c0
000001c0: cb51 873e 6ea5 0e3f b2cd 83c0 cc61 6abf
000001d0: 49d6 cb3f aeaf 33c0 f807 923c f1bf c33f
000001e0: ea41 9140 c98d 9e3f 6bc1 f93f d801 1b3e
000001f0: f044 b73f 0abd 3ebe 6e8a f0be 27c7 b43e
00000200: 8064 0040 96f7 a6bf 150b b73f 8b71 03c0
00000210: 8f64 afbe a1ca dbbf 5725 5540 5afa 3f40
00000220: ef01 7a40 334a 943d 09a5 ff3f 4215 8ebf
00000230: 5a93 4f40 f3ea 1040 5877 993e f85c 19bf
00000240: 488e e4bf 628e d8bf 8770 3abf 3494 2fc0
00000250: 81a2 523e 2093 5840 7fc0 1a40 730b f43f
00000260: 64e4 693f 8163 1bbe 0886 6140 13a8 e83f
00000270: 4ee9 a0bf a91c 91bf 6735 0e3f c181 3940
00000280: 045c 7a3f 93f3 56c0 391f 2b3f 984d 84bd
00000290: 7463 b4bf 95c7 7abf 3244 5bbf e303 cabf
000002a0: 7f73 e0be 4f9f 263f 79b3 5540 758e 653e
000002b0: 9728 9b3f 4622 0840 5d5f 093f 3f65 53c0
000002c0: 9242 7ebe 600f 223f cf50 19c0 776a eb3d
000002d0: a80a 1540 8c97 95be 597c c33f e5da f33f
000002e0: f6b5 8cbf fed9 2cbf b6b8 d8bf cb95 763e
000002f0: 1b0e 4340 85d3 b9bf 8ee2 b33f 2491 11c0
00000300: 5001 97bf 05f4 7ac0 d078 333f de47 6bc0
00000310: 433e f13f 5061 0ac0 6300 e6bf c149 43bf
00000320: aff1 c03f 15af 28bf d467 3ec0 c538 3e3f
00000330: 14c5 f43f bb0f b340 326d 09c0 1406 8240
00000340: 7ddb fbbf 2843 8d3e dec6 aac0 cc36 1cc0
00000350: 03e5 6c3e fefc e03e f702 6dbe a921 3fc0
00000360: 8b08 da3e bebb 2640 f14c c7bf aab6 133f
00000370: 5d85 29c0 e62c a0bf d457 80be aa1c e33e
00000380: 8b69 4abf ac7b 9abe cfdd cebf fe4b 6dbf
00000390: 94af 553f 5e6f 8dbf 28d8 69c0 4794 12c0
000003a0: 070c d5bf 8d5c 90bf c9b1 5b40 7e32 fabe
000003b0: 8a2d 10c0 f2f1 393f b99d f7be d962 b03f
000003c0: 04f8 babe b329 8640 42dd 933f 513a b53f
000003d0: 5103 f1bf 5cd1 743e 3ee7 993f fbc2 ac40
000003e0: 65f2 0fbd e047 183f 09db 82c0 7ffe 09bc
000003f0: c0b7 5b40 e8f6 22be f45f 5e3f 4612 42c0

layer2.bias f4 [16]
0.0 0.0 0.0 0.0 0.0 0.0 0.0 0.0
0.0 0.0 0.0 0.0 0.0 0.0 0.0 0.0
00000000: 0000 0000 0000 0000 0000 0000 0000 0000
00000010: 0000 0000 0000 0000 0000 0000 0000 0000
00000020: 0000 0000 0000 0000 0000 0000 0000 0000
00000030: 0000 0000 0000 0000 0000 0000 0000 0000

layer3.weight f4 [16, 16]
-1.7925708 -1.9400008 3.0698118 -1.5965106 0.8347644 -1.1208057 2.2537005 1.6335771
0.20032553 -0.20827648 0.10322999 0.40510243 2.4099276 -0.93879026 -1.7731018 2.743016
2.4558384 -0.674618 3.2192779 1.0062649 -2.2139864 -0.06389084 1.0142882 0.45613953
1.9828336 2.0915663 -2.7477314 -0.3075116 -1.7827975 -4.155527 0.7674402 -4.860941
-2.0575764 -1.5798571 1.4682547 0.24667174 -2.5622344 0.83439744 -0.6484443 -3.8406327
-0.54444575 6.2652316 1.5969757 -1.4779384 2.224444 -5.877022 0.6760893 1.2171669
1.3066751 2.7123685 0.76673925 1.2627937 1.7669829 -0.67505634 -0.9248782 -1.5392213
2.7079942 -1.0975416 -0.48496753 -2.8689804 -1.7922454 0.17575654 2.1877499 -0.74298024
1.1136811 -1.5290486 -0.32534274 -0.94803417 -1.3175756 0.95917237 -1.6444137 0.5940022
0.38122565 2.4391146 0.84680784 -2.3616781 2.4584515 4.053347 -1.6805698 0.8900651
-0.21465833 0.45393994 1.900451 2.6595757 -3.058456 1.3756824 4.5610166 2.730804
1.4866662 3.5008903 -2.387922 0.90028447 -2.1442287 -1.0611837 -0.2703466 0.037331928
1.4056106 3.774212 -2.0480466 0.1121888 -2.9104688 1.1392387 -2.0050392 -3.3670104
2.1530535 -1.5653787 -2.6938646 -2.0225112 2.2179039 0.3969355 -1.7310033 4.507245
-2.2694216 0.2323019 -0.974697 0.94381136 2.1540265 -2.1019413 -0.48708826 1.8678068
4.374882 -2.6133676 0.050433487 -1.4237038 2.7270782 -2.2740116 0.77245927 -0.6973006
-4.238933 1.2376037 -0.8009719 -3.7799108 0.6769428 3.854314 2.2788415 4.070225
3.3396509 0.8950586 -2.593895 1.9838494 -2.0653625 -2.0215876 0.5549961 -0.47077698
0.6768541 -0.7233533 -0.6260499 -2.8931272 2.0481186 -2.9228673 1.2447935 -4.3859286
-1.3988541 -0.9657522 1.7340589 -0.89509255 -0.16574273 -0.4601452 -1.6001382 -1.1073701
1.9882034 5.0883265 -1.0940756 -0.26218665 -2.1245065 -2.4029243 3.2514994 4.5227356
-0.16383606 1.083703 -1.4678874 3.5851748 0.2101342 0.16931844 -2.043388 -4.0001044
-2.387759 2.0778556 -0.8074129 -1.9987589 -2.9338372 1.375333 -1.183245 -1.4153794
-0.685712 -3.03569 1.937883 4.0192065 -1.6746298 0.7093228 0.869136 -2.9155405
-0.23046634 -0.9207577 -0.7381638 0.96575516 -0.8576344 -0.390831 0.77974856 0.91188276
2.1885617 0.8792049 2.6972477 3.598525 -2.5954976 0.18956415 -0.7533274 1.0194981
-1.1153432 1.1020875 -6.6986213 -3.1480682 -3.134351 0.5931771 1.0590293 -0.9558426
-0.4863154 -2.8234797 2.1804335 -1.9893554 0.30444986 1.6925274 0.55081433 -3.179777
4.0007286 3.5886505 -1.4349217 -4.1929965 1.1440609 2.9490507 3.8607488 3.4776049
-0.90745413 1.4641223 -1.2543908 -0.893502 -0.6124118 -0.009868352 0.37327984 -2.4253418
3.0024107 -1.9698879 2.189531 -3.0740948 0.7210483 -0.40047425 1.1680757 1.206909
-0.485566 -2.7186365 0.05337667 -4.148233 0.3049543 1.2476057 -0.23022567 -1.56207
00000000: f672 e5bf f251 f8bf cc77 4440 765a ccbf
00000010: 1fb3 553f 9076 8fbf a13c 1040 0e19 d13f
00000020: 2322 4d3e 6e46 55be 3f6a d33d 9669 cf3e
00000030: 413c 1a40 8f54 70bf 00f5 e2bf 938d 2f40
00000040: 752c 1d40 c4b3 2cbf a608 4e40 4acd 803f
00000050: f4b1 0dc0 33d9 82bd 32d4 813f 1f8b e93e
00000060: 7ecd fd3f 39dc 0540 d5da 2fc0 2972 9dbe
00000070: b532 e4bf 14fa 84c0 f676 443f d48c 9bc0
00000080: 55af 03c0 c238 cabf c5ef bb3f 8497 7c3e
00000090: a6fb 23c0 129b 553f 7200 26bf edcc 75c0
000000a0: cc60 0bbf c77c c840 b369 cc3f 162d bdbf
000000b0: 4a5d 0e40 9010 bcc0 3014 2d3f 20cc 9b3f
000000c0: 2141 a73f 7297 2d40 0649 443f 39a3 a13f
000000d0: 7f2c e23f 7ed0 2cbf d1c4 6cbf 3405 c5bf
000000e0: c74f 2d40 3e7c 8cbf aa4d f8be 609d 37c0
000000f0: 4c68 e5bf 86f9 333e 1804 0c40 f433 3ebf
00000100: 1a8d 8e3f ddb7 c3bf 5393 a6be 5eb2 72bf
00000110: 51a6 a8bf 528c 753f 267c d2bf 8710 183f
00000120: 0230 c33e 741a 1c40 66c8 583f bc25 17c0
00000130: 4557 1d40 05b5 8140 e91c d7bf 4edb 633f
00000140: 65cf 5bbe d16a e83e fa41 f33f 7d36 2a40
00000150: bebd 43c0 5c16 b03f d9f3 9140 7ec5 2e40
00000160: 144b be3f 960e 6040 b7d3 18c0 0b79 663f
00000170: 0b3b 09c0 ded4 87bf df6a 8abe 5de9 183d
00000180: 0ceb b33f b08c 7140 3213 03c0 3ec3 e53d
00000190: 1f45 3ac0 93d2 913f 9052 00c0 197d 57c0
000001a0: a1cb 0940 545e c8bf 4768 2cc0 d370 01c0
000001b0: 23f2 0d40 213b cb3e 8491 ddbf 5a3b 9040
000001c0: 343e 11c0 8de0 6d3e be85 79bf 9f9d 713f
000001d0: 92db 0940 3586 06c0 a263 f9be 4b14 ef3f
000001e0: 09ff 8b40 6a41 27c0 5893 4e3d ed3b b6bf
000001f0: 7388 2e40 6889 11c0 e4bf 453f 4b82 32bf
00000200: 57a5 87c0 cc69 9e3f 7f0c 4dbf 0fea 71c0
00000210: 204c 2d3f 15ad 7640 8ad8 1140 483f 8240
00000220: d7bc 5540 8f22 653f 6002 26c0 c7ee fd3f
00000230: e62e 04c0 b161 01c0 3914 0e3f ae09 f1be
00000240: 4f46 2d3f af2d 39bf ce44 20bf ff28 39c0
00000250: 6014 0340 4210 3bc0 6555 9f3f 8759 8cc0
00000260: a70d b3bf 893b 77bf a4f5 dd3f c924 65bf
00000270: 76b8 29be 2798 ebbe 54d1 ccbf 4ebe 8dbf
00000280: 737d fe3f 92d3 a240 ab0a 8cbf 543d 86be
00000290: eaf7 07c0 83c9 19c0 9118 5040 40ba 9040
000002a0: a4c4 27be c8b6 8a3f bce3 bbbf 8173 6540
000002b0: 6b2d 573e d061 2d3e dec6 02c0 db00 80c0
000002c0: 0bd1 18c0 96fb 0440 9db2 4ebf 55d7 ffbf
000002d0: fdc3 3bc0 e90a b03f 9274 97bf 272b b5bf
000002e0: d28a 2fbf bf48 42c0 8d0c f83f 579d 8040
000002f0: 455a d6bf 2e96 353f b27f 5e3f 3798 3ac0
00000300: 5eff 6bbe c7b6 6bbf 4ef8 3cbf bb3b 773f
00000310: ee8d 5bbf 001b c8be 9a9d 473f 2671 693f
00000320: 6511 0c40 9313 613f b59f 2c40 3c4e 6640
00000330: a21c 26c0 1b1d 423e 11da 40bf ea7e 823f
00000340: 91c3 8ebf 3411 8d3f 1b5b d6c0 f379 49c0
00000350: 3599 48c0 74da 173f 468e 873f 1ab2 74bf
00000360: 55fe f8be e4b3 34c0 398c 0b40 33a3 febf
00000370: dae0 9b3e bda4 d83f 2b02 0d3f 7781 4bc0
00000380: f805 8040 73ac 6540 84ab b7bf 072d 86c0
00000390: 9670 923f 3fbd 3c40 8216 7740 1491 5e40
000003a0: ea4e 68bf 5c68 bb3f e18f a0bf 8cbc 64bf
000003b0: 05c7 1cbf deae 21bc 891e bf3e cd38 1bc0
000003c0: 7f27 4040 4925 fcbf 4721 0c40 f8bd 44c0
000003d0: 9f96 383f f60a cdbe 8183 953f fe7b 9a3f
000003e0: 1b9c f8be 24fe 2dc0 7fa1 5a3d 53be 84c0
000003f0: f822 9c3e 8bb1 9f3f 47c0 6bbe e9f1 c7bf

layer3.bias f4 [16]
0.0 0.0 0.0 0.0 0.0 0.0 0.0 0.0
0.0 0.0 0.0 0.0 0.0 0.0 0.0 0.0
00000000: 0000 0000 0000 0000 0000 0000 0000 0000
00000010: 0000 0000 0000 0000 0000 0000 0000 0000
00000020: 0000 0000 0000 0000 0000 0000 0000 0000
00000030: 0000 0000 0000 0000 0000 0000 0000 0000

out_layer.weight f4 [3, 16]
-3.4363523 -1.0719601 0.62210065 -0.92579925 -2.0644274 -0.4631872 2.9937522 1.5450854
-0.5087104 -0.8997445 1.6694877 -1.7269708 -0.6856671 0.830355 -0.2776227 -0.07796656
1.9325244 1.1710743 -3.5003366 2.344504 -1.1014848 0.5750389 0.6701656 -0.78819007
0.715764 -0.0030666078 0.6986254 2.1793187 0.90782577 4.400125 -5.875916 -0.22201306
-1.434706 1.7416978 0.4390144 0.33140567 1.1360393 0.1349135 2.307769 -1.5180283
-1.7764726 -4.212959 -2.3804219 -0.42625692 -1.5588912 3.962214 1.2176808 0.7469784
00000000: 32ed 5bc0 fd35 89bf fd41 1f3f 2e01 6dbf
00000010: 941f 04c0 df26 edbe a399 3f40 5cc5 c53f
00000020: d83a 02bf a855 66bf c6b1 d53f 610d ddbf
00000030: e187 2fbf 2592 543f 9024 8ebe efac 9fbd
00000040: f65c f73f c3e5 953f 8405 60c0 5b0c 1640
00000050: 74fd 8cbf c035 133f f98f 2b3f d3c6 49bf
00000060: 4f3c 373f 24f9 48bb 1dd9 323f f579 0b40
00000070: 4567 683f d3cd 8c40 8107 bcc0 6457 63be
00000080: 72a4 b7bf f4ef de3f 7fc6 e03e 01ae a93e
00000090: bc69 913f c426 0a3e 7db2 1340 c04e c2bf
000000a0: 7463 e3bf 8fd0 86c0 d558 18c0 593e dabe
000000b0: bf89 c7bf ea94 7d40 f7dc 9b3f fa39 3f3f

out_layer.bias f4 [3]
0.0 0.0 0.0
00000000: 0000 0000 0000 0000 0000 0000
