src/ckpt/MountainCar-v0/indiv_21.pt (torch_old, 3954 bytes, 8 tensors)

layer1.weight f4 [16, 2]
1.9150214 -0.84514505 2.3782308 -4.274116 4.7991333 1.0054874 0.08953767 1.8051884
1.1925414 2.5560215 1.296029 0.045728244 2.4386868 -0.13598855 0.7733829 0.79093915
1.877154 -1.9774568 0.6290867 1.9330448 1.7272906 3.6884522 1.1304066 -0.06290423
-3.0941257 -3.3305788 -0.15071592 2.1804307 6.5549946 4.2621093 0.52219445 0.33384305
00000000: 6c1f f53f 6d5b 58bf ef34 1840 8fc5 88c0
00000010: 8092 9940 d0b3 803f 875f b73d 6a10 e73f
00000020: 32a5 983f db95 2340 47e4 a53f 8a4d 3b3d
00000030: 7213 1c40 9540 0bbe 6cfc 453f fd7a 4a3f
00000040: 9546 f03f 4e1d fdbf d30b 213f 036e f73f
00000050: dc17 dd3f 9a0f 6c40 2ab1 903f efd3 80bd
00000060: 2806 46c0 3428 55c0 4655 1abe 2d8c 0b40
00000070: 84c2 d140 3363 8840 89ae 053f 7aed aa3e

layer1.bias f4 [16]
0.0 0.0 0.0 0.0 0.0 0.0 0.0 0.0
0.0 0.0 0.0 0.0 0.0 0.0 0.0 0.0
00000000: 0000 0000 0000 0000 0000 0000 0000 0000
00000010: 0000 0000 0000 0000 0000 0000 0000 0000
00000020: 0000 0000 0000 0000 0000 0000 0000 0000
00000030: 0000 0000 0000 0000 0000 0000 0000 0000

layer2.weight f4 [16, 16]
-0.6646873 1.2444284 -2.4008467 0.08226368 1.5458457 -1.6512289 -1.0891249 3.6570573
0.6899668 -0.93639773 2.3004541 -2.702087 -2.1949258 1.1194134 0.3424335 -2.959299
-2.099578 1.1871917 -2.8541107 1.9399899 -4.407884 0.48674732 -3.26035 -1.1266209
-0.58442044 2.2775214 0.5517563 -0.7937675 -1.1942886 -1.1264229 -0.09493341 1.8798023
-0.5127855 -1.5575534 2.562293 1.5679576 -0.42157605 -1.2752342 2.4760003 1.8162688
-1.1888362 -1.2359923 0.9878215 0.65247345 3.330713 2.3533888 -1.9174722 -0.06362401
-1.8490808 -1.6222274 -3.505209 -0.19400069 0.8014074 2.151364 -0.6775498 0.55475384
-1.0764918 -2.9109273 -1.6922976 0.46376985 0.2123555 0.57263154 0.20935771 2.4725876
-0.23778772 0.6498722 2.4896336 -3.0762072 -0.42300734 2.7010837 -0.42671075 1.154423
3.4468129 -1.7649873 -0.39819038 -1.4845889 1.0345644 0.14097863 -0.4484867 -2.3947258
0.93953437 2.5239792 -1.911398 2.325173 -0.5389241 1.9130565 0.123105064 -0.46541655
3.7874248 1.0486993 1.136052 -1.5287092 -1.4046667 1.669999 -0.74616694 -1.0032899
1.0617306 0.39042222 -1.8565044 0.054521322 -1.066893 -3.751466 -2.1325536 -0.3888915
-0.28826776 -0.2671575 -1.3228635 2.7060122 -0.4708596 -3.9581542 1.3298658 -2.1874976
2.0191753 4.233763 -4.1188593 -0.7644706 1.592477 -2.8075976 0.017826065 1.5292951
4.539296 1.2387019 1.9512151 0.15137422 1.0782007 0.7500485 -0.46980613 2.7104867
0.8996578 2.1994503 1.4300257 -0.4589012 -0.34256408 -1.7171212 3.330404 2.9996552
3.906368 0.07240715 1.997224 -1.1100237 -1.3861305 1.852459 0.29973865 -1.5569706
2.0503395 -3.9280376 -0.72827953 -3.4980402 0.20569803 3.3839798 2.417999 1.9065994
0.9136412 -0.15174676 3.5238056 2.3095577 1.6487677 4.5406494 0.55550236 -3.035717
2.7212043 -2.376762 0.66844517 -1.5061482 -1.4092851 -0.9796079 -0.8565093 -1.5782436
-0.43838117 0.65086836 3.3390791 0.22417624 0.566703 -2.1053462 0.5366114 -0.8179177
1.8995289 3.5205815 -2.3955572 0.24464962 2.3287754 -0.29217184 1.5272323 1.9051176
-1.099303 -0.6752013 -1.6931369 0.24080579 -1.0356615 1.2749562 0.89499605 4.1888227
1.2518395 -0.40060177 0.65395564 -0.8903717 1.8847126 -2.1621895 -1.7968868 -0.76284415
1.5073756 -0.65892154 -2.9750872 0.74305373 0.5867876 -1.0929478 -2.1472898 -0.41937223
-0.50442433 0.90014243 -5.336776 -2.5972066 0.23134236 0.43943018 -0.23145662 -2.9864295
0.42584643 2.6052089 -1.5570356 0.577006 -1.7961932 0.7158137 -0.25067008 -0.98463666
2.839264 1.3782898 -1.6161441 -0.4673792 0.83471036 -1.1049612 -3.6538181 -2.2903001
-1.6644295 -1.1278244 3.4327261 -0.48866647 2.7308388 -0.3848641 -0.4836252 -1.1992831
0.015919447 0.5164744 1.1551898 -0.31330448 -1.8829137 0.2390799 1.2023695 5.3988013
-0.035143275 0.5948467 -4.0892377 -0.008422493 -0.90964365 2.495915 0.8686516 3.4455206
00000000: f228 2abf 6e49 9f3f 79a7 19c0 dc79 a83d
00000010: 46de c53f 785b d3bf 7268 8bbf 3a0d 6a40
00000020: aaa1 303f c3b7 6fbf a43a 1340 feee 2cc0
00000030: aa79 0cc0 f048 8f3f 7253 af3e 2865 3dc0
00000040: 7c5f 06c0 e6f5 973f c0a9 36c0 9751 f83f
00000050: 630d 8dc0 f236 f93e 93a9 50c0 1d35 90bf
00000060: 949c 15bf e9c2 1140 e73f 0d3f 5934 4bbf
00000070: 73de 98bf a02e 90bf 736c c2bd 5d9d f03f
00000080: e945 03bf e95d c7bf 9cfc 2340 d6b2 c83f
00000090: d1d8 d7be e03a a3bf ca76 1e40 7f7b e83f
000000a0: c92b 98bf ff34 9ebf dfe1 7c3f 8008 273f
000000b0: 672a 5540 ec9d 1640 bb6f f5bf 4e4d 82bd
000000c0: aeae ecbf 26a5 cfbf 5855 60c0 1ea8 46be
000000d0: 0929 4d3f f3af 0940 e773 2dbf 5904 0e3f
000000e0: 7cca 89bf a24c 3ac0 359d d8bf 3e73 ed3e
000000f0: b873 593e fb97 123f de61 563e e03e 1e40
00000100: a07e 73be 065e 263f 2856 1f40 94e0 44c0
00000110: 6b94 d8be 8ede 2c40 d579 dabe 22c4 933f
00000120: 9598 5c40 1beb e1bf 9cdf cbbe 0207 bebf
00000130: 9b6c 843f b45c 103e 0ca0 e5be 3043 19c0
00000140: 5385 703f e088 2140 b1a8 f4bf a2cf 1440
00000150: eef6 09bf 09df f43f 821e fc3d 144b eebe
00000160: 2b65 7240 c73b 863f 276a 913f beac c3bf
00000170: 1ecc b3bf 87c2 d53f cc04 3fbf ce6b 80bf
00000180: cae6 873f 6ce5 c73e f0a1 edbf c051 5f3d
00000190: f38f 88bf 0518 70c0 c27b 08c0 c91c c7be
000001a0: d597 93be dec8 88be 9753 a9bf 4e2f 2d40
000001b0: 8214 f1be 6652 7dc0 0b39 aa3f f6ff 0bc0
000001c0: 2b3a 0140 fd7a 8740 b2cd 83c0 58b4 43bf
000001d0: 49d6 cb3f aeaf 33c0 f807 923c f1bf c33f
000001e0: ea41 9140 c98d 9e3f 6bc1 f93f d801 1b3e
000001f0: 7b02 8a3f 2e03 403f 6e8a f0be 9d78 2d40
00000200: f94f 663f cbc3 0c40 150b b73f 19f5 eabe
00000210: 8f64 afbe a1ca dbbf 5725 5540 5afa 3f40
00000220: ef01 7a40 334a 943d 09a5 ff3f 4215 8ebf
00000230: b96c b1bf 601d ed3f 5877 993e d04a c7bf
00000240: c338 0340 f864 7bc0 8770 3abf e4df 5fc0
00000250: 81a2 523e 2093 5840 7fc0 1a40 730b f43f
00000260: 64e4 693f 8163 1bbe 0886 6140 cbcf 1340
00000270: d20a d33f 004d 9140 6735 0e3f 3049 42c0
00000280: 3628 2e40 de1c 18c0 391f 2b3f 77c9 c0bf
00000290: 7463 b4bf 95c7 7abf 3244 5bbf e303 cabf
000002a0: 7f73 e0be 4f9f 263f 79b3 5540 758e 653e
000002b0: 7313 113f febd 06c0 5d5f 093f 0e63 51bf
000002c0: c323 f33f 3551 6140 cf50 19c0 6e85 7a3e
000002d0: a80a 1540 8c97 95be 597c c33f e5da f33f
000002e0: f6b5 8cbf fed9 2cbf b6b8 d8bf cb95 763e
000002f0: 8e90 84bf c431 a33f 761e 653f d60a 8640
00000300: 473c a03f ad1b cdbe a369 273f 66ef 63bf
00000310: 433e f13f 5061 0ac0 6300 e6bf c149 43bf
00000320: aff1 c03f 15af 28bf d467 3ec0 c538 3e3f
00000330: b637 163f b7e5 8bbf 326d 09c0 f5b7 d6be
00000340: f421 01bf bc6f 663f dec6 aac0 a238 26c0
00000350: 03e5 6c3e fefc e03e f702 6dbe a921 3fc0
00000360: 8b08 da3e bebb 2640 f14c c7bf aab6 133f
00000370: a9e9 e5bf 913f 373f d457 80be 2611 7cbf
00000380: 80b6 3540 cd6b b03f cfdd cebf 544c efbe
00000390: 94af 553f 5e6f 8dbf 28d8 69c0 4794 12c0
000003a0: 070c d5bf 8d5c 90bf c9b1 5b40 7e32 fabe
000003b0: 10c6 2e40 e80c c5be b99d f7be 1c82 99bf
000003c0: 8069 823c ab37 043f 42dd 933f 7269 a0be
000003d0: 5103 f1bf 5cd1 743e 3ee7 993f fbc2 ac40
000003e0: 65f2 0fbd e047 183f 09db 82c0 7ffe 09bc
000003f0: 68de 68bf 12bd 1f40 f45f 5e3f 6983 5c40

layer2.bias f4 [16]
0.0 0.0 0.0 0.0 0.0 0.0 0.0 0.0
0.0 0.0 0.0 0.0 0.0 0.0 0.0 0.0
00000000: 0000 0000 0000 0000 0000 0000 0000 0000
00000010: 0000 0000 0000 0000 0000 0000 0000 0000
00000020: 0000 0000 0000 0000 0000 0000 0000 0000
00000030: 0000 0000 0000 0000 0000 0000 0000 0000

layer3.weight f4 [16, 16]
0.53947955 -1.9400008 3.0698118 2.7908723 0.8347644 0.328258 2.2537005 1.6335771
0.18483724 -1.4737945 0.10322999 0.40510243 -0.20078203 -0.93879026 -1.7731018 -1.5675898
1.0526663 -0.674618 3.2192779 -0.95513606 -2.2139864 1.151079 1.0142882 0.45613953
-1.1394215 0.07209734 -2.7477314 -0.3075116 -2.371211 -4.155527 0.7674402 -1.093503
2.7961442 -1.5798571 1.4682547 1.8122725 -2.5622344 -1.9618249 -0.6484443 -3.8406327
2.910203 4.382331 1.5969757 -1.4779384 1.5596935 -5.877022 0.6760893 1.147808
-2.9330614 2.7123685 0.76673925 1.873278 1.7669829 -2.225429 -0.9248782 -1.5392213
2.4331324 0.03244552 -0.48496753 -2.8689804 -1.5009379 0.17575654 2.1877499 1.275699
0.6934654 -1.5290486 -0.32534274 3.4501224 -1.3175756 -2.1839855 -1.6444137 0.5940022
-2.4595082 -2.8021288 0.84680784 -2.3616781 -1.1383786 4.053347 -1.6805698 -0.789766
1.3753471 0.45393994 1.900451 -2.4675372 -3.058456 -0.37602133 4.5610166 2.730804
-2.6165488 -1.4708948 -2.387922 0.90028447 2.265265 -1.0611837 -0.2703466 -1.2188709
0.5856 3.774212 -2.0480466 0.9658805 -2.9104688 1.4915969 -2.0050392 -3.3670104
-0.9801151 -0.12275845 -2.6938646 -2.0225112 -1.0104091 0.3969355 -1.7310033 -0.9578795
2.7104836 0.2323019 -0.974697 -1.8933899 2.1540265 -2.0577712 -0.48708826 1.8678068
2.3051257 -0.59290415 0.050433487 -1.4237038 -1.0956417 -2.2740116 0.77245927 1.7148865
-0.68542236 1.2376037 -0.8009719 -0.7044644 0.6769428 0.77149504 2.2788415 4.070225
4.431869 1.0366789 -2.593895 1.9838494 0.2543743 -2.0215876 0.5549961 5.767226
0.8726987 -0.7233533 -0.6260499 -0.8215651 2.0481186 -0.6747249 1.2447935 -4.3859286
-2.2518907 1.3168061 1.7340589 -0.89509255 -0.11634811 -0.4601452 -1.6001382 1.0666367
-1.5372758 5.0883265 -1.0940756 1.1961302 -2.1245065 -1.5297022 3.2514994 4.5227356
-3.4194555 -1.3882387 -1.4678874 3.5851748 -2.0890496 0.16931844 -2.043388 0.1856461
-1.1722249 2.0778556 0.043186504 0.0337642 -2.9338372 -0.17083955 -1.183245 -1.4153794
-1.5636408 0.44244945 1.937883 4.0192065 -3.0894842 0.7093228 0.869136 0.15356098
2.2411916 -0.9207577 -0.7381638 -2.9791763 -0.8576344 -2.173881 0.77974856 0.91188276
0.36033326 -3.753135 2.6972477 3.598525 -3.4352522 0.18956415 -0.7533274 0.37445724
-0.35037383 1.1020875 -6.6986213 3.827544 -3.134351 -1.4507016 1.0590293 -0.9558426
0.073172435 0.14043923 2.1804335 -1.9893554 3.80742 1.6925274 0.55081433 -3.7358115
-1.880778 3.5886505 -1.4349217 3.528289 1.1440609 -0.8625381 3.8607488 3.4776049
0.7287823 -3.5505733 -1.2543908 -0.893502 -2.0435488 -0.009868352 0.37327984 0.18262725
-0.8924825 -1.9698879 2.189531 -3.057577 0.7210483 0.252988 1.1680757 1.206909
0.6709429 -3.0950313 0.05337667 -4.148233 3.1179075 1.2476057 -0.23022567 0.18861218
00000000: 551b 0a3f f251 f8bf cc77 4440 a79d 3240
00000010: 1fb3 553f 6f11 a83e a13c 1040 0e19 d13f
00000020: f945 3d3e 4ca5 bcbf 3f6a d33d 9669 cf3e
00000030: ce99 4dbe 8f54 70bf 00f5 e2bf c8a6 c8bf
00000040: c5bd 863f c4b3 2cbf a608 4e40 cc83 74bf
00000050: f4b1 0dc0 8f56 933f 32d4 813f 1f8b e93e
00000060: 90d8 91bf c5a7 933d d5da 2fc0 2972 9dbe
00000070: ecc1 17c0 14fa 84c0 f676 443f e8f7 8bbf
00000080: 07f4 3240 c238 cabf c5ef bb3f 8cf8 e73f
00000090: a6fb 23c0 141d fbbf 7200 26bf edcc 75c0
000000a0: c440 3a40 0e3c 8c40 b369 cc3f 162d bdbf
000000b0: 09a4 c73f 9010 bcc0 3014 2d3f 5feb 923f
000000c0: 47b7 3bc0 7297 2d40 0649 443f 93c7 ef3f
000000d0: 7f2c e23f 6e6d 0ec0 d1c4 6cbf 3405 c5bf
000000e0: 71b8 1b40 98e5 043d aa4d f8be 609d 37c0
000000f0: bc1e c0bf 86f9 333e 1804 0c40 1b4a a33f
00000100: f386 313f ddb7 c3bf 5393 a6be cece 5c40
00000110: 51a6 a8bf 6bc6 0bc0 267c d2bf 8710 183f
00000120: 9568 1dc0 1456 33c0 66c8 583f bc25 17c0
00000130: 64b6 91bf 05b5 8140 e91c d7bf 1b2e 4abf
00000140: 600b b03f d16a e83e fa41 f33f 21ec 1dc0
00000150: bebd 43c0 de85 c0be d9f3 9140 7ec5 2e40
00000160: 8975 27c0 4846 bcbf b7d3 18c0 0b79 663f
00000170: 1afa 1040 ded4 87bf df6a 8abe f603 9cbf
00000180: e2e9 153f b08c 7140 3213 03c0 f243 773f
00000190: 1f45 3ac0 a6ec be3f 9052 00c0 197d 57c0
000001a0: d3e8 7abf c868 fbbd 4768 2cc0 d370 01c0
000001b0: 1655 81bf 213b cb3e 8491 ddbf 9737 75bf
000001c0: 9078 2d40 8de0 6d3e be85 79bf 9a5a f2bf
000001d0: 92db 0940 86b2 03c0 a263 f9be 4b14 ef3f
000001e0: 2e87 1340 91c8 17bf 5893 4e3d ed3b b6bf
000001f0: fd3d 8cbf 6889 11c0 e4bf 453f 6781 db3f
00000200: d777 2fbf cc69 9e3f 7f0c 4dbf c757 34bf
00000210: 204c 2d3f b380 453f 8ad8 1140 483f 8240
00000220: dfd1 8d40 e5b1 843f 6002 26c0 c7ee fd3f
00000230: 593d 823e b161 01c0 3914 0e3f 1e8d b840
00000240: 2f69 5f3f af2d 39bf ce44 20bf 1752 52bf
00000250: 6014 0340 c5ba 2cbf 6555 9f3f 8759 8cc0
00000260: fa1e 10c0 1a8d a83f a4f5 dd3f c924 65bf
00000270: eb47 eebd 2798 ebbe 54d1 ccbf 8d87 883f
00000280: 74c5 c4bf 92d3 a240 ab0a 8cbf cb1a 993f
00000290: eaf7 07c0 48cd c3bf 9118 5040 40ba 9040
000002a0: 5cd8 5ac0 ceb1 b1bf bce3 bbbf 8173 6540
000002b0: fdb2 05c0 d061 2d3e dec6 02c0 031a 3e3e
000002c0: 770b 96bf 96fb 0440 55e4 303d 544c 0a3d
000002d0: fdc3 3bc0 90f0 2ebe 9274 97bf 272b b5bf
000002e0: 6225 c8bf bc88 e23e 8d0c f83f 579d 8040
000002f0: 1cba 45c0 2e96 353f b27f 5e3f 173f 1d3e
00000300: af6f 0f40 c7b6 6bbf 4ef8 3cbf d3aa 3ec0
00000310: ee8d 5bbf de20 0bc0 9a9d 473f 2671 693f
00000320: 9a7d b83e 5d33 70c0 b59f 2c40 3c4e 6640
00000330: 2cdb 5bc0 1b1d 423e 11da 40bf dcb8 bf3e
00000340: 3364 b3be 3411 8d3f 1b5b d6c0 7bf6 7440
00000350: 3599 48c0 97b0 b9bf 468e 873f 1ab2 74bf
00000360: 6edb 953d 4dcf 0f3e 398c 0b40 33a3 febf
00000370: c5ac 7340 bda4 d83f 2b02 0d3f 8917 6fc0
00000380: 55bd f0bf 73ac 6540 84ab b7bf 7dcf 6140
00000390: 9670 923f 4ccf 5cbf 8216 7740 1491 5e40
000003a0: 7a91 3a3f 983c 63c0 e18f a0bf 8cbc 64bf
000003b0: 81c9 02c0 deae 21bc 891e bf3e a302 3b3e
000003c0: bc79 64bf 4925 fcbf 4721 0c40 57af 43c0
000003d0: 9f96 383f a587 813e 8183 953f fe7b 9a3f
000003e0: eac2 2b3f fe14 46c0 7fa1 5a3d 53be 84c0
000003f0: cc8b 4740 8bb1 9f3f 47c0 6bbe 8d23 413e

layer3.bias f4 [16]
0.0 0.0 0.0 0.0 0.0 0.0 0.0 0.0
0.0 0.0 0.0 0.0 0.0 0.0 0.0 0.0
00000000: 0000 0000 0000 0000 0000 0000 0000 0000
00000010: 0000 0000 0000 0000 0000 0000 0000 0000
00000020: 0000 0000 0000 0000 0000 0000 0000 0000
00000030: 0000 0000 0000 0000 0000 0000 0000 0000

out_layer.weight f4 [3, 16]
-0.56251043 -0.73586816 -0.62168854 -2.248446 0.0718857 -0.4631872 2.7898057 4.101202
-1.0264221 -0.8997445 1.6694877 -1.2546289 1.8690524 2.957395 2.3054304 -1.6385373
0.28306848 6.001252 -1.7404982 2.5439272 1.1449808 0.5750389 0.5314665 -0.102198616
1.4425448 -0.0030666078 0.6986254 -1.3987144 2.2076905 -1.7717359 -2.905078 -0.98712075
-1.3069385 1.6792121 1.7504137 3.682697 2.2705348 0.1349135 -0.5959049 1.184849
0.25388277 -4.212959 -2.3804219 -0.51897305 -0.40788087 -1.3954188 0.14350027 -2.7882864
00000000: af00 10bf db61 3cbf fb26 1fbf 8ae6 0fc0
00000010: cf38 933d df26 edbe 2d8c 3240 0c3d 8340
00000020: cd61 83bf a855 66bf c6b1 d53f ae97 a0bf
00000030: 1c3d ef3f f645 3d40 2c8c 1340 97bb d1bf
00000040: 5aee 903e 420a c040 a5c8 debf b4cf 2240
00000050: bb8e 923f c035 133f 300e 083f 824d d1bd
00000060: 4fa5 b83f 24f9 48bb 1dd9 323f 1309 b3bf
00000070: cd4a 0d40 3ec8 e2bf ccec 39c0 f2b3 7cbf
00000080: c349 a7bf 6cf0 d63f 8e0d e03f 4fb1 6b40
00000090: 7150 1140 c426 0a3e 398d 18bf 22a9 973f
000000a0: ecfc 813e 8fd0 86c0 d558 18c0 6bdb 04bf
000000b0: c3d5 d0be 159d b2bf bcf1 123e 4973 32c0

out_layer.bias f4 [3]
0.0 0.0 0.0
00000000: 0000 0000 0000 0000 0000 0000
