src/ckpt/MountainCar-v0/indiv_39.pt (torch_old, 3954 bytes, 8 tensors)

layer1.weight f4 [16, 2]
0	0x3ff51f6c	1.9150214
1	0xbf585b6d	-0.84514505
2	0x401834ef	2.3782308
3	0xc088c58f	-4.274116
4	0x40999280	4.7991333
5	0x3f80b3d0	1.0054874
6	0x3db75f87	0.08953767
7	0x3fe7106a	1.8051884
8	0x3f98a532	1.1925414
9	0x402395db	2.5560215
10	0x3fa5e447	1.296029
11	0x3d3b4d8a	0.045728244
12	0x401c1372	2.4386868
13	0xbe0b4095	-0.13598855
14	0x3f45fc6c	0.7733829
15	0x3f4a7afd	0.79093915
16	0x3ff04695	1.877154
17	0xbffd1d4e	-1.9774568
18	0x3f210bd3	0.6290867
19	0x3ff76e03	1.9330448
20	0x3fdd17dc	1.7272906
21	0x406c0f9a	3.6884522
22	0x3f90b12a	1.1304066
23	0xbd80d3ef	-0.06290423
24	0xc0460628	-3.0941257
25	0xc0552834	-3.3305788
26	0xbe1a5546	-0.15071592
27	0x400b8c2d	2.1804307
28	0x40d1c284	6.5549946
29	0x40886333	4.2621093
30	0x3f05ae89	0.52219445
31	0x3eaaed7a	0.33384305

layer1.bias f4 [16]
0	0x00000000	0.0
1	0x00000000	0.0
2	0x00000000	0.0
3	0x00000000	0.0
4	0x00000000	0.0
5	0x00000000	0.0
6	0x00000000	0.0
7	0x00000000	0.0
8	0x00000000	0.0
9	0x00000000	0.0
10	0x00000000	0.0
11	0x00000000	0.0
12	0x00000000	0.0
13	0x00000000	0.0
14	0x00000000	0.0
15	0x00000000	0.0

layer2.weight f4 [16, 16]
0	0xbf56e0b2	-0.8393661
1	0xbf3ab725	-0.72935706
2	0xc019a779	-2.4008467
3	0x402c5e6f	2.6932638
4	0x403682dd	2.8517373
5	0x3f8b5f50	1.0888462
6	0xbf8b6872	-1.0891249
7	0x406a0d3a	3.6570573
8	0xbf40707a	-0.75171626
9	0xbf6fb7c3	-0.93639773
10	0x40133aa4	2.3004541
11	0xbf1b73ee	-0.6072377
12	0x3f0f9be0	0.5609722
13	0x3f8f48f0	1.1194134
14	0x3eaf5372	0.3424335
15	0xc03d6528	-2.959299
16	0x3fdd324c	1.7280974
17	0xbf8b0c6e	-1.0863168
18	0xc036a9c0	-2.8541107
19	0x4072794f	3.788654
20	0x3f807f3c	1.0038829
21	0x4032faf7	2.7965677
22	0xc050a993	-3.26035
23	0xbf90351d	-1.1266209
24	0xc0324940	-2.7857208
25	0x4011c2e9	2.2775214
26	0x3f0d3fe7	0.5517563
27	0xbfcf187e	-1.617935
28	0x3fe43522	1.7828715
29	0xbf902ea0	-1.1264229
30	0xbdc26c73	-0.09493341
31	0x3ff09d5d	1.8798023
32	0x4044a381	3.0724795
33	0xc006627e	-2.0997615
34	0x4023fc9c	2.562293
35	0xbf00dff9	-0.50341755
36	0x3fcf5130	1.6196651
37	0xbead294b	-0.33820567
38	0x401e76ca	2.4760003
39	0x3fe87b7f	1.8162688
40	0xbe9b848b	-0.3037456
41	0xbf9e34ff	-1.2359923
42	0x3f7ce1df	0.9878215
43	0xbed7410a	-0.42041808
44	0x404a7000	3.163086
45	0x40169dec	2.3533888
46	0xbff56fbb	-1.9174722
47	0xbd824d4e	-0.06362401
48	0x3f63df5e	0.89012706
49	0xbf9d50c6	-1.2290275
50	0xc0605558	-3.505209
51	0x3f167cce	0.58784187
52	0x3faa3c23	1.3299602
53	0x3fadd4df	1.3580588
54	0xbf2d73e7	-0.6775498
55	0x3f0e0459	0.55475384
56	0xbf83c079	-1.0293113
57	0xc03a4ca2	-2.9109273
58	0xbfd89d35	-1.6922976
59	0xbeb4b1b8	-0.3529184
60	0x3fd7ef9e	1.687
61	0x3f1297fb	0.57263154
62	0x3e5661de	0.20935771
63	0x401e3ee0	2.4725876
64	0x3eb2bb97	0.34908745
65	0x40afba4e	5.4914923
66	0x401f5628	2.4896336
67	0x3f8819b8	1.0632849
68	0xbfe50838	-1.7893133
69	0x40029568	2.040369
70	0xbeda79d5	-0.42671075
71	0x3f93c422	1.154423
72	0xbf98a949	-1.1926662
73	0xbfe1eb1b	-1.7649873
74	0xbecbdf9c	-0.39819038
75	0xbd9b8e5f	-0.075955145
76	0x3e26f5af	0.16304658
77	0x3e105cb4	0.14097863
78	0xbee5a00c	-0.4484867
79	0xc0194330	-2.3947258
80	0xbf608c4c	-0.87714076
81	0xbf80bc5c	-1.0057483
82	0xbff4a8b1	-1.911398
83	0xc0018c1e	-2.024177
84	0x3f3539f0	0.7079153
85	0xc03c065d	-2.9378884
86	0x3dfc1e82	0.123105064
87	0xbeee4b14	-0.46541655
88	0x3fbce262	1.4756587
89	0x3f863bc7	1.0486993
90	0x3f916a27	1.136052
91	0x3f75aa12	0.9596263
92	0x3fae8a45	1.3635947
93	0x3fd5c287	1.669999
94	0xbf3f04cc	-0.74616694
95	0xbf806bce	-1.0032899
96	0x3f80e66d	1.007032
97	0x3effb8b0	0.49945593
98	0xbfeda1f0	-1.8565044
99	0xbf38a7a6	-0.7213081
100	0x404b6d1f	3.1785352
101	0xbfab1533	-1.3365844
102	0xc0087bc2	-2.1325536
103	0xbec71cc9	-0.3888915
104	0xc02eeabf	-2.7330778
105	0xbe88c8de	-0.2671575
106	0xbfa95397	-1.3228635
107	0x3fda9d2b	1.7079214
108	0x403ac271	2.9181178
109	0xc07d5266	-3.9581542
110	0x3faa390b	1.3298658
111	0xc00bfff6	-2.1874976
112	0x3e8751cb	0.2642959
113	0x3f0ea56e	0.55721176
114	0xc083cdb2	-4.1188593
115	0xbf6a61cc	-0.91555476
116	0xbf01a431	-0.5064116
117	0xbf99bb53	-1.2010292
118	0x3c9207f8	0.017826065
119	0x3fc3bff1	1.5292951
120	0xc007e3ff	-2.1232908
121	0x3f9e8dc9	1.2387019
122	0x3ff9c16b	1.9512151
123	0xbe949ec2	-0.29027373
124	0x3fb744f0	1.4317913
125	0x3f40032e	0.7500485
126	0xbef08a6e	-0.46980613
127	0x402d789d	2.7104867
128	0x40006480	2.006134
129	0xbfa6f796	-1.3044307
130	0x3fb70b15	1.4300257
131	0xc003718b	-2.053805
132	0xc001c909	-2.0278952
133	0xbff2772f	-1.8942622
134	0x40552557	3.330404
135	0x403ffa5a	2.9996552
136	0xc00379b3	-2.054303
137	0x3d944a33	0.07240715
138	0x3fffa509	1.997224
139	0x3f8b2a62	1.0872309
140	0x404f935a	3.2433686
141	0x3fed1d60	1.852459
142	0x3e997758	0.29973865
143	0xbfc74ad0	-1.5569706
144	0xbfe48e48	-1.7855921
145	0xbfd88e62	-1.6918452
146	0xbf3a7087	-0.72827953
147	0xc02f9434	-2.7434206
148	0xbf93ed74	-1.155684
149	0xbf9202d8	-1.1407118
150	0x401ac07f	2.417999
151	0x3ff40b73	1.9065994
152	0xc01158d2	-2.2710462
153	0xbe1b6381	-0.15174676
154	0x40618608	3.5238056
155	0xc046d6e7	-3.1068666
156	0xbfa0e94e	-1.2571199
157	0x40914d00	4.5406494
158	0x3f0e3567	0.55550236
159	0xc0424930	-3.035717
160	0x3f7a5c04	0.97796655
161	0xc056f393	-3.3586166
162	0x3f2b1f39	0.66844517
163	0xbd844d98	-0.06460112
164	0xc012712d	-2.2881577
165	0xbfa08fd9	-1.2543899
166	0xbf5b4432	-0.8565093
167	0xbfca03e3	-1.5782436
168	0x3fd02ca4	1.6263623
169	0x3f269f4f	0.65086836
170	0x4055b379	3.3390791
171	0xbfef42d1	-1.8692266
172	0x3f9b2897	1.2121762
173	0xc006bdfe	-2.1053462
174	0x3f095f5d	0.5366114
175	0xbf51630e	-0.8179177
176	0xbe7e4292	-0.24830082
177	0x3f220f60	0.6330471
178	0xc01950cf	-2.3955572
179	0x3deb6a77	0.11494916
180	0x4016698d	2.3501923
181	0xbec9b42e	-0.3939528
182	0x3fc37c59	1.5272323
183	0x3ff3dae5	1.9051176
184	0xbea97f2b	-0.33104834
185	0xbf2cd9fe	-0.6752013
186	0xbfd8b8b6	-1.6931369
187	0xc062cdd0	-3.5438118
188	0x40430e1b	3.047736
189	0x3fa331c4	1.2749562
190	0x3f651e76	0.89499605
191	0x40860ad6	4.1888227
192	0xbf970150	-1.1797276
193	0xc07af405	-3.9211438
194	0x3f2769a3	0.65395564
195	0xc06b47de	-3.6762614
196	0xc096044c	-4.6880245
197	0x3f7b791b	0.9823167
198	0xbfe60063	-1.7968868
199	0xbf4349c1	-0.76284415
200	0x3e8a0d29	0.26963165
201	0xbf28af15	-0.65892154
202	0xc03e67d4	-2.9750872
203	0x405172c7	3.2726305
204	0x3ff4c514	1.9122643
205	0xbf8be5b7	-1.0929478
206	0xc0096d32	-2.1472898
207	0xbed6b7f5	-0.41937223
208	0xbffbdb7d	-1.9676358
209	0x3e8d4328	0.275903
210	0xc0aac6de	-5.336776
211	0xc01c36cc	-2.4408445
212	0x40097389	2.1476767
213	0xbeac9f3a	-0.3371523
214	0xbe6d02f7	-0.23145662
215	0xc03f21a9	-2.9864295
216	0xbfb51a8c	-1.4148726
217	0x4026bbbe	2.6052089
218	0xbfc74cf1	-1.5570356
219	0x3f49501f	0.7863788
220	0xc029855d	-2.6487648
221	0x3f373f91	0.7158137
222	0xbe8057d4	-0.25067008
223	0xbf7c1126	-0.98463666
224	0xbf4a698b	-0.79067296
225	0xbe9a7bac	-0.3017248
226	0xbfceddcf	-1.6161441
227	0xbf6d4bfe	-0.9269408
228	0x4070f68a	3.7650476
229	0x3f5966b9	0.8492237
230	0xc069d828	-3.6538181
231	0xc0129447	-2.2903001
232	0xbfa7e2e8	-1.3116121
233	0xbf905c8d	-1.1278244
234	0x405bb1c9	3.4327261
235	0x3f61bcec	0.88178897
236	0xc0102d8a	-2.2527795
237	0xbec50ce8	-0.3848641
238	0xbef79db9	-0.4836252
239	0xbf99821c	-1.1992831
240	0xbebaf804	-0.36517346
241	0x408996be	4.299651
242	0x3f93dd42	1.1551898
243	0x3fb53a51	1.4158422
244	0xbe6f5f8d	-0.23376293
245	0x3ff2bfc5	1.8964773
246	0x3f99e73e	1.2023695
247	0x40acc2fb	5.3988013
248	0x3f7dc299	0.9912506
249	0x3f1847e0	0.5948467
250	0xc082db09	-4.0892377
251	0x3fa581c5	1.2930228
252	0x405bb7c0	3.4330902
253	0x401fbd12	2.495915
254	0x3f5e5ff4	0.8686516
255	0x405c8369	3.4455206

layer2.bias f4 [16]
0	0x00000000	0.0
1	0x00000000	0.0
2	0x00000000	0.0
3	0x00000000	0.0
4	0x00000000	0.0
5	0x00000000	0.0
6	0x00000000	0.0
7	0x00000000	0.0
8	0x00000000	0.0
9	0x00000000	0.0
10	0x00000000	0.0
11	0x00000000	0.0
12	0x00000000	0.0
13	0x00000000	0.0
14	0x00000000	0.0
15	0x00000000	0.0

layer3.weight f4 [16, 16]
0	0xbfe572f6	-1.7925708
1	0xbf9787bc	-1.1838298
2	0x404477cc	3.0698118
3	0x40329da7	2.7908723
4	0x4054e7a3	3.326638
5	0x3e6f53e6	0.23371848
6	0x40103ca1	2.2537005
7	0x3f9d5728	1.2292223
8	0x3e3d45f9	0.18483724
9	0xbfbca54c	-1.4737945
10	0x3dd36a3f	0.10322999
11	0x3ecf6996	0.40510243
12	0xbe4d99ce	-0.20078203
13	0xbf70548f	-0.93879026
14	0xbfe2f500	-1.7731018
15	0x402f8d93	2.743016
16	0x401d2c75	2.4558384
17	0x406f8aa5	3.7428372
18	0x404e08a6	3.2192779
19	0xbf7483cc	-0.95513606
20	0x402b329c	2.674964
21	0xbe77b004	-0.24188238
22	0x3f81d432	1.0142882
23	0xc00f8214	-2.2423143
24	0xbf91d890	-1.1394215
25	0x3d93a7c5	0.07209734
26	0xc02fdad5	-2.7477314
27	0xbe9d7229	-0.3075116
28	0xc017c1ec	-2.371211
29	0xc084fa14	-4.155527
30	0x3f4476f6	0.7674402
31	0xc09b8cd4	-4.860941
32	0xc003af55	-2.0575764
33	0xbf93ccc0	-1.154686
34	0x3fbbefc5	1.4682547
35	0x3fe7f88c	1.8122725
36	0x3fa4921f	1.2857093
37	0x3f8cfb79	1.1014243
38	0xbf260072	-0.6484443
39	0xc00d4748	-2.2074757
40	0x403a40c4	2.910203
41	0x408c3c0e	4.382331
42	0x3fcc69b3	1.5969757
43	0xbfbd2d16	-1.4779384
44	0x3fc7a409	1.5596935
45	0xc0bc1090	-5.877022
46	0x3f2d1430	0.6760893
47	0x3f9bcc20	1.2171669
48	0x3fa74121	1.3066751
49	0x400e0f01	2.2196658
50	0x3f444906	0.76673925
51	0x3fefc793	1.873278
52	0x40025548	2.0364552
53	0xbf6d17bb	-0.92614335
54	0xbf6cc4d1	-0.9248782
55	0x3f903bfa	1.1268303
56	0x401bb871	2.4331324
57	0x3d04e598	0.03244552
58	0xbef84daa	-0.48496753
59	0xc0379d60	-2.8689804
60	0xbfc01ebc	-1.5009379
61	0x3e33f986	0.17575654
62	0x400c0418	2.1877499
63	0xbf3e33f4	-0.74298024
64	0x3f8e8d1a	1.1136811
65	0x40598384	3.398652
66	0xbea69353	-0.32534274
67	0x405ccece	3.4501224
68	0xbfd20cbd	-1.6410137
69	0xc059cf9c	-3.4032965
70	0xbfd27c26	-1.6444137
71	0xbfa7427c	-1.3067164
72	0xc01d6895	-2.4595082
73	0xc0335614	-2.8021288
74	0x3f58c866	0.84680784
75	0xc01725bc	-2.3616781
76	0xbf91b664	-1.1383786
77	0x4081b505	4.053347
78	0xbfd71ce9	-1.6805698
79	0x3f63db4e	0.8900651
80	0xbe5bcf65	-0.21465833
81	0x401ccdae	2.4500537
82	0x3ff341fa	1.900451
83	0xc01dec21	-2.4675372
84	0xbf9bd538	-1.2174444
85	0xbef2a161	-0.47388747
86	0x4091f3d9	4.5610166
87	0xc051f22c	-3.280406
88	0xc0277589	-2.6165488
89	0xbfbc4648	-1.4708948
90	0xc018d3b7	-2.387922
91	0x3d7c96b5	0.061667163
92	0x4010fa1a	2.265265
93	0xbf87d4de	-1.0611837
94	0xbe8a6adf	-0.2703466
95	0x3d18e95d	0.037331928
96	0x3fb3eb0c	1.4056106
97	0x3ba16807	0.004925731
98	0xc0031332	-2.0480466
99	0x3f7743f2	0.9658805
100	0x40701624	3.7513514
101	0x40363a19	2.847296
102	0xc0005290	-2.0050392
103	0xbf7101bf	-0.9414329
104	0xbf7ae8d3	-0.9801151
105	0xbdfb68c8	-0.12275845
106	0xc02c6847	-2.6938646
107	0xc00170d3	-2.0225112
108	0xbf815516	-1.0104091
109	0x3ecb3b21	0.3969355
110	0xbfdd9184	-1.7310033
111	0x40903b5a	4.507245
112	0xc0113e34	-2.2694216
113	0x3e5ec90f	0.21756385
114	0xbf7985be	-0.974697
115	0xbff25a9a	-1.8933899
116	0x402662cd	2.5997803
117	0x40804057	4.007854
118	0xbef963a2	-0.48708826
119	0x3f8325cd	1.0245911
120	0x4013872e	2.3051257
121	0xbf17c891	-0.59290415
122	0x3d4e9358	0.050433487
123	0xbfb63bed	-1.4237038
124	0xbf8c3dfd	-1.0956417
125	0xc0118968	-2.2740116
126	0x3f45bfe4	0.77245927
127	0xbf32824b	-0.6973006
128	0xc087a557	-4.238933
129	0x40b2da48	5.5891457
130	0xbf4d0c7f	-0.8009719
131	0xbf3457c7	-0.7044644
132	0x3fd6fb29	1.6795398
133	0xbfb55030	-1.4165096
134	0x4011d88a	2.2788415
135	0xc00f44db	-2.2385776
136	0x408dd1df	4.431869
137	0x3f84b1e5	1.0366789
138	0xc0260260	-2.593895
139	0x3ffdeec7	1.9838494
140	0x3e823d59	0.2543743
141	0xc00161b1	-2.0215876
142	0x3f0e1439	0.5549961
143	0xbef109ae	-0.47077698
144	0x3f2d464f	0.6768541
145	0x3f6a1375	0.9143594
146	0xbf2044ce	-0.6260499
147	0xbf525217	-0.8215651
148	0x3e4578b9	0.19284333
149	0x408dd2d5	4.4319863
150	0x3f9f5565	1.2447935
151	0xc0758909	-3.836489
152	0xc0101efa	-2.2518907
153	0x3fa88d1a	1.3168061
154	0x3fddf5a4	1.7340589
155	0xbf6524c9	-0.89509255
156	0xbdee47eb	-0.11634811
157	0xbeeb9827	-0.4601452
158	0xbfccd154	-1.6001382
159	0xbf8dbe4e	-1.1073701
160	0x3ffe7d73	1.9882034
161	0x400c4ecb	2.1923091
162	0xbf8c0aab	-1.0940756
163	0x3f991acb	1.1961302
164	0x3e00dd77	0.12584482
165	0x4072a7b0	3.7914848
166	0x40501891	3.2514994
167	0x3fb7c53b	1.4357065
168	0xc05ad85c	-3.4194555
169	0xbfb1b1ce	-1.3882387
170	0xbfbbe3bc	-1.4678874
171	0x40657381	3.5851748
172	0xc005b2fd	-2.0890496
173	0x3e2d61d0	0.16931844
174	0xc002c6de	-2.043388
175	0xc08000db	-4.0001044
176	0xc018d10b	-2.387759
177	0x408f5fc3	4.4804397
178	0xbf4eb29d	-0.8074129
179	0x3d0a4c54	0.0337642
180	0xbf71b17a	-0.9441143
181	0x3f0d39b5	0.5516618
182	0xbf977492	-1.183245
183	0xbeebf82a	-0.46087772
184	0xbfc82562	-1.5636408
185	0x3ee288bc	0.44244945
186	0x3ff80c8d	1.937883
187	0x40809d57	4.0192065
188	0xc045ba1c	-3.0894842
189	0x3f35962e	0.7093228
190	0x3f5e7fb2	0.869136
191	0xc03a9837	-2.9155405
192	0xbe6bff5e	-0.23046634
193	0xbfcc9b2c	-1.5984855
194	0xbf3cf84e	-0.7381638
195	0xc03eaad3	-2.9791763
196	0xc0183cd6	-2.3787131
197	0x3fb58244	1.4180379
198	0x3f479d9a	0.77974856
199	0xbf3d9ad4	-0.74064374
200	0x3eb87d9a	0.36033326
201	0xc070335d	-3.753135
202	0x402c9fb5	2.6972477
203	0x40664e3c	3.598525
204	0xc05bdb2c	-3.4352522
205	0x3e421d1b	0.18956415
206	0xbf40da11	-0.7533274
207	0x3f827eea	1.0194981
208	0xbf8ec391	-1.1153432
209	0x3fb4d79a	1.4128296
210	0xc0d65b1b	-6.6986213
211	0x4074f67b	3.827544
212	0xbf35fade	-0.7108592
213	0xbfe4a185	-1.7861792
214	0x3f878e46	1.0590293
215	0xc0183f5f	-2.3788679
216	0x3d95db6e	0.073172435
217	0x3e0fcf4d	0.14043923
218	0x400b8c39	2.1804335
219	0xbffea333	-1.9893554
220	0x4073acc5	3.80742
221	0x3fd8a4bd	1.6925274
222	0x3f0d022b	0.55081433
223	0xc04b8177	-3.179777
224	0x408005f8	4.0007286
225	0x3fd57c3f	1.6678542
226	0xbfb7ab84	-1.4349217
227	0x4061cf7d	3.528289
228	0x3ecaef19	0.39635542
229	0xbfc2aeee	-1.5209634
230	0x40771682	3.8607488
231	0xc044c997	-3.074804
232	0x3f3a917a	0.7287823
233	0xc0633c98	-3.5505733
234	0xbfa08fe1	-1.2543908
235	0xbf64bc8c	-0.893502
236	0xc002c981	-2.0435488
237	0xbc21aede	-0.009868352
238	0x3ebf1e89	0.37327984
239	0xc01b38cd	-2.4253418
240	0x4040277f	3.0024107
241	0x3f2972b5	0.66190654
242	0x400c2147	2.189531
243	0xc043af57	-3.057577
244	0xc082f12f	-4.0919414
245	0xbf1314b8	-0.5745349
246	0x3f958381	1.1680757
247	0x4054841c	3.3205633
248	0x3f2bc2ea	0.6709429
249	0xc04614fe	-3.0950313
250	0x3d5aa17f	0.05337667
251	0xc084be53	-4.148233
252	0x40478bcc	3.1179075
253	0x3f9fb18b	1.2476057
254	0xbe6bc047	-0.23022567
255	0xbfc7f1e9	-1.56207

layer3.bias f4 [16]
0	0x00000000	0.0
1	0x00000000	0.0
2	0x00000000	0.0
3	0x00000000	0.0
4	0x00000000	0.0
5	0x00000000	0.0
6	0x00000000	0.0
7	0x00000000	0.0
8	0x00000000	0.0
9	0x00000000	0.0
10	0x00000000	0.0
11	0x00000000	0.0
12	0x00000000	0.0
13	0x00000000	0.0
14	0x00000000	0.0
15	0x00000000	0.0

out_layer.weight f4 [3, 16]
0	0xc05bed32	-3.4363523
1	0xbf3c61db	-0.73586816
2	0x3f1f41fd	0.62210065
3	0xc016958a	-2.3528771
4	0x3d9338cf	0.0718857
5	0xbeed26df	-0.4631872
6	0x3d77f614	0.060537413
7	0xbf1e622b	-0.6186854
8	0xba953907	-0.0011384793
9	0xbf6655a8	-0.8997445
10	0x3fd5b1c6	1.6694877
11	0xbfa097ae	-1.2546289
12	0xbf2f87e1	-0.6856671
13	0x403d45f6	2.957395
14	0x3f9e9272	1.2388442
15	0xbd9facef	-0.07796656
16	0x3ff75cf6	1.9325244
17	0x40c00a42	6.001252
18	0xc0600584	-3.5003366
19	0x400806b4	2.1254091
20	0x3f928ebb	1.1449808
21	0x3f1335c0	0.5750389
22	0xbe740052	-0.23828247
23	0xbf49174f	-0.7855119
24	0x40633bd7	3.5505273
25	0xbb48f924	-0.0030666078
26	0x3f32d91d	0.6986254
27	0xbfb30913	-1.3987144
28	0x3f686745	0.90782577
29	0xbfe2c83e	-1.7717359
30	0xbe3258ee	-0.17416736
31	0xbe635764	-0.22201306
32	0xbfb7a472	-1.434706
33	0x3fd6f06c	1.6792121
34	0x3ee0c67f	0.4390144
35	0x3e9ba662	0.30400378
36	0x40115071	2.2705348
37	0x3e0a26c4	0.1349135
38	0xbf5958bb	-0.84901017
39	0xbfba308f	-1.4546069
40	0x3f20175f	0.6253566
41	0xc086d08f	-4.212959
42	0xc01858d5	-2.3804219
43	0xbf04db6b	-0.51897305
44	0xbfc789bf	-1.5588912
45	0xbfb29d15	-1.3954188
46	0x3f3ee065	0.7456115
47	0x3f3f39fa	0.7469784

out_layer.bias f4 [3]
0	0x00000000	0.0
1	0x00000000	0.0
2	0x00000000	0.0
