src/ckpt/MountainCar-v0/indiv_52.pt (torch_old, 3954 bytes, 8 tensors)

layer1.weight f4 [16, 2]
0	0xc0267b19	-2.6012633
1	0xbf585b6d	-0.84514505
2	0x4008a4e3	2.135064
3	0xc088c58f	-4.274116
4	0x3ffd04a9	1.9767047
5	0x3f80b3d0	1.0054874
6	0x3f1df2f1	0.61698824
7	0x3fe7106a	1.8051884
8	0xbe074e7a	-0.1321353
9	0x402395db	2.5560215
10	0x4022f178	2.545988
11	0x3d3b4d8a	0.045728244
12	0xbf997045	-1.1987387
13	0xbe0b4095	-0.13598855
14	0xbf037763	-0.51354045
15	0x3f4a7afd	0.79093915
16	0xbf4eeb29	-0.80827576
17	0xbffd1d4e	-1.9774568
18	0xc04269f6	-3.0377173
19	0x3ff76e03	1.9330448
20	0xbecfa9f5	-0.40559354
21	0x406c0f9a	3.6884522
22	0x3fc2111d	1.5161473
23	0xbd80d3ef	-0.06290423
24	0x405183b9	3.2736647
25	0xc0552834	-3.3305788
26	0x3fd3f73e	1.6559827
27	0x400b8c2d	2.1804307
28	0x40e24d90	7.071968
29	0x40886333	4.2621093
30	0x401e729c	2.4757452
31	0x3eaaed7a	0.33384305

layer1.bias f4 [16]
0	0x00000000	0.0
1	0x00000000	0.0
2	0x00000000	0.0
3	0x00000000	0.0
4	0x00000000	0.0
5	0x00000000	0.0
6	0x00000000	0.0
7	0x00000000	0.0
8	0x00000000	0.0
9	0x00000000	0.0
10	0x00000000	0.0
11	0x00000000	0.0
12	0x00000000	0.0
13	0x00000000	0.0
14	0x00000000	0.0
15	0x00000000	0.0

layer2.weight f4 [16, 16]
0	0xbf2a28f2	-0.6646873
1	0x3f9f496e	1.2444284
2	0xc019a779	-2.4008467
3	0x402c5e6f	2.6932638
4	0x3fc5de46	1.5458457
5	0xbfd35b78	-1.6512289
6	0xbf8b6872	-1.0891249
7	0x406a0d3a	3.6570573
8	0x40200252	2.5001416
9	0xbf6fb7c3	-0.93639773
10	0x40133aa4	2.3004541
11	0xc02ceefe	-2.702087
12	0x3f0f9be0	0.5609722
13	0x3f8f48f0	1.1194134
14	0x3eaf5372	0.3424335
15	0xc03d6528	-2.959299
16	0xc0065f7c	-2.099578
17	0x3f97f5e6	1.1871917
18	0xc036a9c0	-2.8541107
19	0x4072794f	3.788654
20	0xc08d0d63	-4.407884
21	0x3ef936f2	0.48674732
22	0xc050a993	-3.26035
23	0xbf90351d	-1.1266209
24	0x3fd7b2f4	1.6851487
25	0x4011c2e9	2.2775214
26	0x3f0d3fe7	0.5517563
27	0xbf4b3459	-0.7937675
28	0x3fe43522	1.7828715
29	0xbf902ea0	-1.1264229
30	0xbdc26c73	-0.09493341
31	0x3ff09d5d	1.8798023
32	0xbf0345e9	-0.5127855
33	0xbfc75de9	-1.5575534
34	0x4023fc9c	2.562293
35	0xbf00dff9	-0.50341755
36	0xbed7d8d1	-0.42157605
37	0xbfa33ae0	-1.2752342
38	0x401e76ca	2.4760003
39	0x3fe87b7f	1.8162688
40	0xc01b50f0	-2.426815
41	0xbf9e34ff	-1.2359923
42	0x3f7ce1df	0.9878215
43	0x3f270880	0.65247345
44	0x404a7000	3.163086
45	0x40169dec	2.3533888
46	0xbff56fbb	-1.9174722
47	0xbd824d4e	-0.06362401
48	0xbfecaeae	-1.8490808
49	0xbfcfa526	-1.6222274
50	0xc0605558	-3.505209
51	0x3f167cce	0.58784187
52	0x3f4d2909	0.8014074
53	0x4009aff3	2.151364
54	0xbf2d73e7	-0.6775498
55	0x3f0e0459	0.55475384
56	0xbd9bf3fb	-0.07614895
57	0xc03a4ca2	-2.9109273
58	0xbfd89d35	-1.6922976
59	0x3eed733e	0.46376985
60	0x3fd7ef9e	1.687
61	0x3f1297fb	0.57263154
62	0x3e5661de	0.20935771
63	0x401e3ee0	2.4725876
64	0xbe737ea0	-0.23778772
65	0x3f265e06	0.6498722
66	0x401f5628	2.4896336
67	0x3f8819b8	1.0632849
68	0xbed8946b	-0.42300734
69	0x402cde8e	2.7010837
70	0xbeda79d5	-0.42671075
71	0x3f93c422	1.154423
72	0x3f62bc67	0.8856873
73	0xbfe1eb1b	-1.7649873
74	0xbecbdf9c	-0.39819038
75	0xbfbe0702	-1.4845889
76	0x3e26f5af	0.16304658
77	0x3e105cb4	0.14097863
78	0xbee5a00c	-0.4484867
79	0xc0194330	-2.3947258
80	0x3f708553	0.93953437
81	0x402188e0	2.5239792
82	0xbff4a8b1	-1.911398
83	0xc0018c1e	-2.024177
84	0xbf09f6ee	-0.5389241
85	0x3ff4df09	1.9130565
86	0x3dfc1e82	0.123105064
87	0xbeee4b14	-0.46541655
88	0xbf032128	-0.5122247
89	0x3f863bc7	1.0486993
90	0x3f916a27	1.136052
91	0xbfc3acbe	-1.5287092
92	0x3fae8a45	1.3635947
93	0x3fd5c287	1.669999
94	0xbf3f04cc	-0.74616694
95	0xbf806bce	-1.0032899
96	0x3f87e6ca	1.0617306
97	0x3ec7e56c	0.39042222
98	0xbfeda1f0	-1.8565044
99	0xbf38a7a6	-0.7213081
100	0xbf888ff3	-1.066893
101	0xc0701805	-3.751466
102	0xc0087bc2	-2.1325536
103	0xbec71cc9	-0.3888915
104	0xc0026d4b	-2.0379207
105	0xbe88c8de	-0.2671575
106	0xbfa95397	-1.3228635
107	0x402d2f4e	2.7060122
108	0x403ac271	2.9181178
109	0xc07d5266	-3.9581542
110	0x3faa390b	1.3298658
111	0xc00bfff6	-2.1874976
112	0x40013a2b	2.0191753
113	0x40877afd	4.233763
114	0xc083cdb2	-4.1188593
115	0xbf6a61cc	-0.91555476
116	0x3fcbd649	1.592477
117	0xc033afae	-2.8075976
118	0x3c9207f8	0.017826065
119	0x3fc3bff1	1.5292951
120	0x3f7fd054	0.9992726
121	0x3f9e8dc9	1.2387019
122	0x3ff9c16b	1.9512151
123	0x3e1b01d8	0.15137422
124	0x3fb744f0	1.4317913
125	0x3f40032e	0.7500485
126	0xbef08a6e	-0.46980613
127	0x402d789d	2.7104867
128	0x3f664ff9	0.8996578
129	0x400cc3cb	2.1994503
130	0x3fb70b15	1.4300257
131	0xc003718b	-2.053805
132	0xbeaf648f	-0.34256408
133	0xbfdbcaa1	-1.7171212
134	0x40552557	3.330404
135	0x403ffa5a	2.9996552
136	0xbfc038ab	-1.5017294
137	0x3d944a33	0.07240715
138	0x3fffa509	1.997224
139	0xbf8e1542	-1.1100237
140	0x404f935a	3.2433686
141	0x3fed1d60	1.852459
142	0x3e997758	0.29973865
143	0xbfc74ad0	-1.5569706
144	0x400338c3	2.0503395
145	0xc07b64f8	-3.9280376
146	0xbf3a7087	-0.72827953
147	0xc02f9434	-2.7434206
148	0x3e52a281	0.20569803
149	0x40589320	3.3839798
150	0x401ac07f	2.417999
151	0x3ff40b73	1.9065994
152	0x4036759f	2.850929
153	0xbe1b6381	-0.15174676
154	0x40618608	3.5238056
155	0x4013cfcb	2.3095577
156	0xbfa0e94e	-1.2571199
157	0x40914d00	4.5406494
158	0x3f0e3567	0.55550236
159	0xc0424930	-3.035717
160	0x402e2836	2.7212043
161	0xc0181cde	-2.376762
162	0x3f2b1f39	0.66844517
163	0xbd844d98	-0.06460112
164	0xbfb46374	-1.4092851
165	0xbf7ac795	-0.9796079
166	0xbf5b4432	-0.8565093
167	0xbfca03e3	-1.5782436
168	0xbfa4bb89	-1.2869731
169	0x3f269f4f	0.65086836
170	0x4055b379	3.3390791
171	0x3e658e75	0.22417624
172	0x3f9b2897	1.2121762
173	0xc006bdfe	-2.1053462
174	0x3f095f5d	0.5366114
175	0xbf51630e	-0.8179177
176	0x3ff323c3	1.8995289
177	0x40615135	3.5205815
178	0xc01950cf	-2.3955572
179	0x3deb6a77	0.11494916
180	0x40150aa8	2.3287754
181	0xbe95978c	-0.29217184
182	0x3fc37c59	1.5272323
183	0x3ff3dae5	1.9051176
184	0x3eaf553c	0.34244716
185	0xbf2cd9fe	-0.6752013
186	0xbfd8b8b6	-1.6931369
187	0x3e7695cb	0.24080579
188	0x40430e1b	3.047736
189	0x3fa331c4	1.2749562
190	0x3fb3e28e	1.4053514
191	0x40860ad6	4.1888227
192	0x3fa03c47	1.2518395
193	0xbecd1bad	-0.40060177
194	0x3f2769a3	0.65395564
195	0xc06b47de	-3.6762614
196	0x3ff13e43	1.8847126
197	0xc00a6150	-2.1621895
198	0xbfe60063	-1.7968868
199	0xbf4349c1	-0.76284415
200	0xbfb38d2a	-1.4027455
201	0xbf28af15	-0.65892154
202	0xc03e67d4	-2.9750872
203	0x3f3e38c5	0.74305373
204	0x3ff4c514	1.9122643
205	0xbf8be5b7	-1.0929478
206	0xc0096d32	-2.1472898
207	0xbed6b7f5	-0.41937223
208	0xbf0121f4	-0.50442433
209	0x3f666fbc	0.90014243
210	0xc0aac6de	-5.336776
211	0xc01c36cc	-2.4408445
212	0x3e6ce503	0.23134236
213	0x3ee0fcfe	0.43943018
214	0xbe6d02f7	-0.23145662
215	0xc03f21a9	-2.9864295
216	0x3f360d96	0.7111448
217	0x4026bbbe	2.6052089
218	0xbfc74cf1	-1.5570356
219	0x3f13b6aa	0.577006
220	0xc029855d	-2.6487648
221	0x3f373f91	0.7158137
222	0xbe8057d4	-0.25067008
223	0xbf7c1126	-0.98463666
224	0x4035b680	2.839264
225	0x3fb06bcd	1.3782898
226	0xbfceddcf	-1.6161441
227	0xbf6d4bfe	-0.9269408
228	0x3f55af94	0.83471036
229	0xbf8d6f5e	-1.1049612
230	0xc069d828	-3.6538181
231	0xc0129447	-2.2903001
232	0x40139662	2.3060536
233	0xbf905c8d	-1.1278244
234	0x405bb1c9	3.4327261
235	0xbefa327e	-0.48866647
236	0xc0102d8a	-2.2527795
237	0xbec50ce8	-0.3848641
238	0xbef79db9	-0.4836252
239	0xbf99821c	-1.1992831
240	0x3c826980	0.015919447
241	0x3f0437ab	0.5164744
242	0x3f93dd42	1.1551898
243	0x3fb53a51	1.4158422
244	0xbff10351	-1.8829137
245	0x3e74d15c	0.2390799
246	0x3f99e73e	1.2023695
247	0x40acc2fb	5.3988013
248	0xc04b6801	-3.178223
249	0x3f1847e0	0.5948467
250	0xc082db09	-4.0892377
251	0xbc09fe7f	-0.008422493
252	0x405bb7c0	3.4330902
253	0x401fbd12	2.495915
254	0x3f5e5ff4	0.8686516
255	0x405c8369	3.4455206

layer2.bias f4 [16]
0	0x00000000	0.0
1	0x00000000	0.0
2	0x00000000	0.0
3	0x00000000	0.0
4	0x00000000	0.0
5	0x00000000	0.0
6	0x00000000	0.0
7	0x00000000	0.0
8	0x00000000	0.0
9	0x00000000	0.0
10	0x00000000	0.0
11	0x00000000	0.0
12	0x00000000	0.0
13	0x00000000	0.0
14	0x00000000	0.0
15	0x00000000	0.0

layer3.weight f4 [16, 16]
0	0xbfe572f6	-1.7925708
1	0xbff851f2	-1.9400008
2	0x404477cc	3.0698118
3	0xbfcc5a76	-1.5965106
4	0x4054e7a3	3.326638
5	0x3e6f53e6	0.23371848
6	0x40103ca1	2.2537005
7	0xbf6fbecb	-0.936505
8	0x3e3d45f9	0.18483724
9	0xbfbca54c	-1.4737945
10	0x3dd36a3f	0.10322999
11	0x3ecf6996	0.40510243
12	0x3fe43808	1.7829599
13	0xbf70548f	-0.93879026
14	0x3e654a53	0.22391634
15	0x3fd2a60c	1.6456923
16	0x401d2c75	2.4558384
17	0xbf2cb3c4	-0.674618
18	0x404e08a6	3.2192779
19	0x3f80cd4a	1.0062649
20	0x402b329c	2.674964
21	0xbe77b004	-0.24188238
22	0x3f81d432	1.0142882
23	0xc074be56	-3.8241172
24	0xbf91d890	-1.1394215
25	0x3d93a7c5	0.07209734
26	0xc02fdad5	-2.7477314
27	0xbe9d7229	-0.3075116
28	0xbfe432b5	-1.7827975
29	0xc084fa14	-4.155527
30	0xbed97568	-0.42472386
31	0x40801a1a	4.003186
32	0xc003af55	-2.0575764
33	0xbfca38c2	-1.5798571
34	0x3fbbefc5	1.4682547
35	0x3e7c9784	0.24667174
36	0x3f8a0d1c	1.0785251
37	0x3f8cfb79	1.1014243
38	0xbf260072	-0.6484443
39	0xbf8351cd	-1.0259339
40	0x403a40c4	2.910203
41	0x408c3c0e	4.382331
42	0x3fcc69b3	1.5969757
43	0xbfbd2d16	-1.4779384
44	0x400e5d4a	2.224444
45	0xc0bc1090	-5.877022
46	0xc0402f08	-3.0028706
47	0x3fbbd042	1.467293
48	0x3fa74121	1.3066751
49	0x402d9772	2.7123685
50	0x3f444906	0.76673925
51	0x3fa1a339	1.2627937
52	0x40025548	2.0364552
53	0xbf6d17bb	-0.92614335
54	0xbf6cc4d1	-0.9248782
55	0x3efcd193	0.49378642
56	0x401bb871	2.4331324
57	0x3d04e598	0.03244552
58	0xbef84daa	-0.48496753
59	0xc0379d60	-2.8689804
60	0xbfe5684c	-1.7922454
61	0x3e33f986	0.17575654
62	0x3f1dcc86	0.61640203
63	0xbf31a802	-0.69396985
64	0x3f8e8d1a	1.1136811
65	0xbfc3b7dd	-1.5290486
66	0xbea69353	-0.32534274
67	0xbf72b25e	-0.94803417
68	0xbfd20cbd	-1.6410137
69	0xc059cf9c	-3.4032965
70	0xbfd27c26	-1.6444137
71	0xbf080eb6	-0.5314745
72	0xc01d6895	-2.4595082
73	0xc0335614	-2.8021288
74	0x3f58c866	0.84680784
75	0xc01725bc	-2.3616781
76	0x401d5745	2.4584515
77	0x4081b505	4.053347
78	0x404a63ea	3.1623483
79	0xbfa4065f	-1.2814444
80	0xbe5bcf65	-0.21465833
81	0x3ee86ad1	0.45393994
82	0x3ff341fa	1.900451
83	0x402a367d	2.6595757
84	0xbf9bd538	-1.2174444
85	0xbef2a161	-0.47388747
86	0x4091f3d9	4.5610166
87	0x3e8df9eb	0.27729735
88	0xc0277589	-2.6165488
89	0xbfbc4648	-1.4708948
90	0xc018d3b7	-2.387922
91	0x3d7c96b5	0.061667163
92	0xc0093b0b	-2.1442287
93	0xbf87d4de	-1.0611837
94	0x40305c57	2.755636
95	0xc01576d5	-2.335378
96	0x3fb3eb0c	1.4056106
97	0x40718cb0	3.774212
98	0xc0031332	-2.0480466
99	0x3de5c33e	0.1121888
100	0x40701624	3.7513514
101	0x40363a19	2.847296
102	0xc0005290	-2.0050392
103	0xc0534f57	-3.3017175
104	0xbf7ae8d3	-0.9801151
105	0xbdfb68c8	-0.12275845
106	0xc02c6847	-2.6938646
107	0xc00170d3	-2.0225112
108	0x400df223	2.2179039
109	0x3ecb3b21	0.3969355
110	0xc01451f6	-2.3175025
111	0xbfda82ad	-1.7071129
112	0xc0113e34	-2.2694216
113	0x3e6de08d	0.2323019
114	0xbf7985be	-0.974697
115	0x3f719d9f	0.94381136
116	0x402662cd	2.5997803
117	0x40804057	4.007854
118	0xbefc6198	-0.49293208
119	0x4096ca50	4.7121964
120	0x4013872e	2.3051257
121	0xbf17c891	-0.59290415
122	0x3d4e9358	0.050433487
123	0xbfb63bed	-1.4237038
124	0x402e8873	2.7270782
125	0xc0118968	-2.2740116
126	0x3f295c92	0.66156876
127	0x3f71a546	0.9439281
128	0xc087a557	-4.238933
129	0x3f9e69cc	1.2376037
130	0xbf4d0c7f	-0.8009719
131	0xc071ea0f	-3.7799108
132	0x3fd6fb29	1.6795398
133	0xbfb55030	-1.4165096
134	0x4011d88a	2.2788415
135	0xbeb96d11	-0.36216024
136	0x408dd1df	4.431869
137	0x3f84b1e5	1.0366789
138	0xc0260260	-2.593895
139	0x3ffdeec7	1.9838494
140	0xc0042ee6	-2.0653625
141	0xc00161b1	-2.0215876
142	0x3f341a5e	0.70352733
143	0xc0204463	-2.504174
144	0x3f2d464f	0.6768541
145	0xbf392daf	-0.7233533
146	0xbf2044ce	-0.6260499
147	0xc03928ff	-2.8931272
148	0x3e4578b9	0.19284333
149	0x408dd2d5	4.4319863
150	0x3f9f5565	1.2447935
151	0x3f454722	0.77061665
152	0xc0101efa	-2.2518907
153	0x3fa88d1a	1.3168061
154	0x3fddf5a4	1.7340589
155	0xbf6524c9	-0.89509255
156	0xbe29b876	-0.16574273
157	0xbeeb9827	-0.4601452
158	0x3e27c28e	0.1638281
159	0x40231e04	2.548707
160	0x3ffe7d73	1.9882034
161	0x40a2d392	5.0883265
162	0xbf8c0aab	-1.0940756
163	0xbe863d54	-0.26218665
164	0x3e00dd77	0.12584482
165	0x4072a7b0	3.7914848
166	0x40501891	3.2514994
167	0x404fb8c7	3.245653
168	0xc05ad85c	-3.4194555
169	0xbfb1b1ce	-1.3882387
170	0xbfbbe3bc	-1.4678874
171	0x40657381	3.5851748
172	0x3e572d6b	0.2101342
173	0x3e2d61d0	0.16931844
174	0x4071348e	3.7688327
175	0x3fbe985d	1.4890248
176	0xc018d10b	-2.387759
177	0x4004fb96	2.0778556
178	0xbf4eb29d	-0.8074129
179	0xbfffd755	-1.9987589
180	0xbf71b17a	-0.9441143
181	0x3f0d39b5	0.5516618
182	0xbf977492	-1.183245
183	0xbe4a1977	-0.19736277
184	0xbfc82562	-1.5636408
185	0x3ee288bc	0.44244945
186	0x3ff80c8d	1.937883
187	0x40809d57	4.0192065
188	0xbfd65a45	-1.6746298
189	0x3f35962e	0.7093228
190	0xbf3fcdc7	-0.74923366
191	0x3eb189fc	0.34675586
192	0xbe6bff5e	-0.23046634
193	0xbf6bb6c7	-0.9207577
194	0xbf3cf84e	-0.7381638
195	0x3f773bbb	0.96575516
196	0xc0183cd6	-2.3787131
197	0x3fb58244	1.4180379
198	0x3f479d9a	0.77974856
199	0xbf5afa14	-0.8553784
200	0x3eb87d9a	0.36033326
201	0xc070335d	-3.753135
202	0x402c9fb5	2.6972477
203	0x40664e3c	3.598525
204	0xc0261ca2	-2.5954976
205	0x3e421d1b	0.18956415
206	0x400fd209	2.2471945
207	0xbf0d6458	-0.5523124
208	0xbf8ec391	-1.1153432
209	0x3f8d1134	1.1020875
210	0xc0d65b1b	-6.6986213
211	0xc04979f3	-3.1480682
212	0xbf35fade	-0.7108592
213	0xbfe4a185	-1.7861792
214	0x3f878e46	1.0590293
215	0xbf551c0e	-0.83245933
216	0x3d95db6e	0.073172435
217	0x3e0fcf4d	0.14043923
218	0x400b8c39	2.1804335
219	0xbffea333	-1.9893554
220	0x3e9be0da	0.30444986
221	0x3fd8a4bd	1.6925274
222	0xbc5ebc47	-0.0135946935
223	0x4059f107	3.4053361
224	0x408005f8	4.0007286
225	0x4065ac73	3.5886505
226	0xbfb7ab84	-1.4349217
227	0xc0862d07	-4.1929965
228	0x3ecaef19	0.39635542
229	0xbfc2aeee	-1.5209634
230	0x40771682	3.8607488
231	0xbf0ee7ab	-0.5582225
232	0x3f3a917a	0.7287823
233	0xc0633c98	-3.5505733
234	0xbfa08fe1	-1.2543908
235	0xbf64bc8c	-0.893502
236	0xbf1cc705	-0.6124118
237	0xbc21aede	-0.009868352
238	0xbdb17e8d	-0.08666716
239	0x40682738	3.6273937
240	0x4040277f	3.0024107
241	0xbffc2549	-1.9698879
242	0x400c2147	2.189531
243	0xc044bdf8	-3.0740948
244	0xc082f12f	-4.0919414
245	0xbf1314b8	-0.5745349
246	0x3f958381	1.1680757
247	0xbf6de52f	-0.9292783
248	0x3f2bc2ea	0.6709429
249	0xc04614fe	-3.0950313
250	0x3d5aa17f	0.05337667
251	0xc084be53	-4.148233
252	0x3e9c22f8	0.3049543
253	0x3f9fb18b	1.2476057
254	0xbfed5af6	-1.8543384
255	0xc016c0ee	-2.3555255

layer3.bias f4 [16]
0	0x00000000	0.0
1	0x00000000	0.0
2	0x00000000	0.0
3	0x00000000	0.0
4	0x00000000	0.0
5	0x00000000	0.0
6	0x00000000	0.0
7	0x00000000	0.0
8	0x00000000	0.0
9	0x00000000	0.0
10	0x00000000	0.0
11	0x00000000	0.0
12	0x00000000	0.0
13	0x00000000	0.0
14	0x00000000	0.0
15	0x00000000	0.0

out_layer.weight f4 [3, 16]
0	0xbf1000af	-0.56251043
1	0xbf3c61db	-0.73586816
2	0x3f1f41fd	0.62210065
3	0xbf6d012e	-0.92579925
4	0xc0041f94	-2.0644274
5	0xbeed26df	-0.4631872
6	0x40328c2d	2.7898057
7	0x40833d0c	4.101202
8	0xbf8361cd	-1.0264221
9	0xbf6655a8	-0.8997445
10	0x3fd5b1c6	1.6694877
11	0xbfdd0d61	-1.7269708
12	0x3fef3d1c	1.8690524
13	0x403d45f6	2.957395
14	0x40138c2c	2.3054304
15	0xbfd1bb97	-1.6385373
16	0x3e90ee5a	0.28306848
17	0x40c00a42	6.001252
18	0xc0600584	-3.5003366
19	0x40160c5b	2.344504
20	0xbf8cfd74	-1.1014848
21	0x3f1335c0	0.5750389
22	0x3f080e30	0.5314665
23	0xbdd14d82	-0.102198616
24	0x3fb8a54f	1.4425448
25	0xbb48f924	-0.0030666078
26	0x3f32d91d	0.6986254
27	0x400b79f5	2.1793187
28	0x400d4acd	2.2076905
29	0xbfe2c83e	-1.7717359
30	0xc039eccc	-2.905078
31	0xbf7cb3f2	-0.98712075
32	0xbfa749c3	-1.3069385
33	0x3fd6f06c	1.6792121
34	0x3ee0c67f	0.4390144
35	0x3ea9ae01	0.33140567
36	0x3f9169bc	1.1360393
37	0x3e0a26c4	0.1349135
38	0xbf188d39	-0.5959049
39	0x3f97a922	1.184849
40	0x3e81fcec	0.25388277
41	0xc086d08f	-4.212959
42	0xc01858d5	-2.3804219
43	0xbeda3e59	-0.42625692
44	0xbed0d5c3	-0.40788087
45	0xbfb29d15	-1.3954188
46	0x3e12f1bc	0.14350027
47	0xc0327349	-2.7882864

out_layer.bias f4 [3]
0	0x00000000	0.0
1	0x00000000	0.0
2	0x00000000	0.0
