src/ckpt/MountainCar-v0/indiv_77.pt (torch_old, 3954 bytes, 8 tensors)

layer1.weight f4 [16, 2]
0	0xc010e5f8	-2.2640362
1	0xbf1d3852	-0.6141406
2	0xc02f3965	-2.737878
3	0xc09a3f8b	-4.8202567
4	0xc04a0ddf	-3.1570966
5	0x3ffbe596	1.9679439
6	0x3ecd2242	0.400652
7	0x40b750fe	5.7286367
8	0x3e26ce70	0.16289687
9	0xc00aaa57	-2.1666467
10	0xbfcd4e45	-1.6039511
11	0xbf3812c3	-0.7190363
12	0xbfb9c669	-1.4513675
13	0x3fc24927	1.5178574
14	0xbf089b82	-0.53362286
15	0x3eb405be	0.3516063
16	0x3fb7f472	1.4371474
17	0x3ea65571	0.32487062
18	0x3d26a3df	0.040683623
19	0xc07257f9	-3.7866194
20	0x40364226	2.8477874
21	0x3f97c684	1.1857457
22	0xbf872aca	-1.0559933
23	0xbf9038fa	-1.1267388
24	0x3e407c2a	0.18797365
25	0xbfc08c5f	-1.5042838
26	0x3fb2ec34	1.3978333
27	0xbfc23b3f	-1.517433
28	0xbf988932	-1.1916869
29	0x407bf703	3.9369514
30	0xbfca4da7	-1.5804948
31	0x3f60e916	0.8785566

layer1.bias f4 [16]
0	0x00000000	0.0
1	0x00000000	0.0
2	0x00000000	0.0
3	0x00000000	0.0
4	0x00000000	0.0
5	0x00000000	0.0
6	0x3fec6c54	1.8470559
7	0x00000000	0.0
8	0x00000000	0.0
9	0x00000000	0.0
10	0x00000000	0.0
11	0x00000000	0.0
12	0x00000000	0.0
13	0x00000000	0.0
14	0x00000000	0.0
15	0x00000000	0.0

layer2.weight f4 [16, 16]
0	0xbf2a28f2	-0.6646873
1	0x3f9f496e	1.2444284
2	0xc019a779	-2.4008467
3	0x402c5e6f	2.6932638
4	0x3fc5de46	1.5458457
5	0xbfd35b78	-1.6512289
6	0x40cc3b79	6.38226
7	0x406a0d3a	3.6570573
8	0xbf40707a	-0.75171626
9	0xbf6fb7c3	-0.93639773
10	0x40133aa4	2.3004541
11	0xc02ceefe	-2.702087
12	0x3f0f9be0	0.5609722
13	0x3f8f48f0	1.1194134
14	0x3eaf5372	0.3424335
15	0x3fcc5439	1.5963203
16	0xc0065f7c	-2.099578
17	0x3f97f5e6	1.1871917
18	0xc036a9c0	-2.8541107
19	0x4072794f	3.788654
20	0xc08d0d63	-4.407884
21	0x3ef936f2	0.48674732
22	0xbf31a235	-0.69388133
23	0xbf90351d	-1.1266209
24	0xc0324940	-2.7857208
25	0x4011c2e9	2.2775214
26	0x3f0d3fe7	0.5517563
27	0xbf4b3459	-0.7937675
28	0x3fe43522	1.7828715
29	0xbf902ea0	-1.1264229
30	0xbdc26c73	-0.09493341
31	0xbe69c340	-0.22828388
32	0xbf0345e9	-0.5127855
33	0xbfc75de9	-1.5575534
34	0x4023fc9c	2.562293
35	0xbf00dff9	-0.50341755
36	0xbed7d8d1	-0.42157605
37	0xbfa33ae0	-1.2752342
38	0xc040b5a0	-3.0110855
39	0x3fe87b7f	1.8162688
40	0xbe9b848b	-0.3037456
41	0xbf9e34ff	-1.2359923
42	0x3f7ce1df	0.9878215
43	0x3f270880	0.65247345
44	0x404a7000	3.163086
45	0x40169dec	2.3533888
46	0xbff56fbb	-1.9174722
47	0x3f794bed	0.9738148
48	0xbfecaeae	-1.8490808
49	0xbfcfa526	-1.6222274
50	0xc0605558	-3.505209
51	0x3f167cce	0.58784187
52	0x3f4d2909	0.8014074
53	0x4009aff3	2.151364
54	0x3d1f04c8	0.03882292
55	0x3f0e0459	0.55475384
56	0xbf83c079	-1.0293113
57	0xc03a4ca2	-2.9109273
58	0xbfd89d35	-1.6922976
59	0x3eed733e	0.46376985
60	0x3fd7ef9e	1.687
61	0x3f1297fb	0.57263154
62	0x3e5661de	0.20935771
63	0xbdaf9418	-0.085731685
64	0xbe737ea0	-0.23778772
65	0x3f265e06	0.6498722
66	0x401f5628	2.4896336
67	0x3f8819b8	1.0632849
68	0xbed8946b	-0.42300734
69	0x402cde8e	2.7010837
70	0x3fd61d29	1.6727649
71	0x3f93c422	1.154423
72	0xbf98a949	-1.1926662
73	0xbfe1eb1b	-1.7649873
74	0xbecbdf9c	-0.39819038
75	0xbfbe0702	-1.4845889
76	0x3e26f5af	0.16304658
77	0x3e105cb4	0.14097863
78	0xbee5a00c	-0.4484867
79	0xc01fe47a	-2.49832
80	0x3f708553	0.93953437
81	0x402188e0	2.5239792
82	0xbff4a8b1	-1.911398
83	0xc0018c1e	-2.024177
84	0xbf09f6ee	-0.5389241
85	0x3ff4df09	1.9130565
86	0xc076dd72	-3.857266
87	0xbeee4b14	-0.46541655
88	0x3fbce262	1.4756587
89	0x3f863bc7	1.0486993
90	0x3f916a27	1.136052
91	0xbfc3acbe	-1.5287092
92	0x3fae8a45	1.3635947
93	0x3fd5c287	1.669999
94	0xbf3f04cc	-0.74616694
95	0xc04890d8	-3.1338406
96	0x3f87e6ca	1.0617306
97	0x3ec7e56c	0.39042222
98	0xbfeda1f0	-1.8565044
99	0xbf38a7a6	-0.7213081
100	0xbf888ff3	-1.066893
101	0xc0701805	-3.751466
102	0xc0585b75	-3.380582
103	0xbec71cc9	-0.3888915
104	0xc02eeabf	-2.7330778
105	0xbe88c8de	-0.2671575
106	0xbfa95397	-1.3228635
107	0x402d2f4e	2.7060122
108	0x403ac271	2.9181178
109	0xc07d5266	-3.9581542
110	0x3faa390b	1.3298658
111	0xc027826e	-2.6173358
112	0x40013a2b	2.0191753
113	0x407d6c9b	3.9597538
114	0xc083cdb2	-4.1188593
115	0xbf6a61cc	-0.91555476
116	0x3fcbd649	1.592477
117	0xc033afae	-2.8075976
118	0x3fa75fde	1.3076131
119	0x3fc3bff1	1.5292951
120	0xc007e3ff	-2.1232908
121	0x3f9e8dc9	1.2387019
122	0x3ff9c16b	1.9512151
123	0x3e1b01d8	0.15137422
124	0x3fb744f0	1.4317913
125	0x3f40032e	0.7500485
126	0xbef08a6e	-0.46980613
127	0x3eb4c727	0.3530819
128	0x3f664ff9	0.8996578
129	0x400cc3cb	2.1994503
130	0x3fb70b15	1.4300257
131	0xc003718b	-2.053805
132	0xbeaf648f	-0.34256408
133	0xbfdbcaa1	-1.7171212
134	0x3b4826f1	0.003054079
135	0x403ffa5a	2.9996552
136	0xc00379b3	-2.054303
137	0x3d944a33	0.07240715
138	0x3fffa509	1.997224
139	0xbf8e1542	-1.1100237
140	0x404f935a	3.2433686
141	0x3fed1d60	1.852459
142	0x3e997758	0.29973865
143	0xbf195cf8	-0.59907484
144	0x40313d77	2.7693765
145	0xc07b64f8	-3.9280376
146	0xbf3a7087	-0.72827953
147	0xc02f9434	-2.7434206
148	0x3e52a281	0.20569803
149	0x40589320	3.3839798
150	0x40051358	2.0793056
151	0x3ff40b73	1.9065994
152	0xc01158d2	-2.2710462
153	0xbe1b6381	-0.15174676
154	0x40618608	3.5238056
155	0x4013cfcb	2.3095577
156	0xbfa0e94e	-1.2571199
157	0x40914d00	4.5406494
158	0x3f0e3567	0.55550236
159	0x403981c1	2.8985445
160	0x402e2836	2.7212043
161	0xc0181cde	-2.376762
162	0x3f2b1f39	0.66844517
163	0xbd844d98	-0.06460112
164	0xbfb46374	-1.4092851
165	0xbf7ac795	-0.9796079
166	0xc03c0336	-2.937696
167	0xbfca03e3	-1.5782436
168	0x3fd02ca4	1.6263623
169	0x3f269f4f	0.65086836
170	0x4055b379	3.3390791
171	0x3e658e75	0.22417624
172	0x3f9b2897	1.2121762
173	0xc006bdfe	-2.1053462
174	0x3f095f5d	0.5366114
175	0xc053653f	-3.3030546
176	0x3ff323c3	1.8995289
177	0x40615135	3.5205815
178	0xc01950cf	-2.3955572
179	0x3deb6a77	0.11494916
180	0x40150aa8	2.3287754
181	0xbe95978c	-0.29217184
182	0xbf83ef88	-1.0307474
183	0x3ff3dae5	1.9051176
184	0xbea97f2b	-0.33104834
185	0xbf2cd9fe	-0.6752013
186	0xbfd8b8b6	-1.6931369
187	0x3e7695cb	0.24080579
188	0x40430e1b	3.047736
189	0x3fa331c4	1.2749562
190	0x3f651e76	0.89499605
191	0xc0119124	-2.2744837
192	0x3fa03c47	1.2518395
193	0xbecd1bad	-0.40060177
194	0x3f2769a3	0.65395564
195	0xc06b47de	-3.6762614
196	0x3ff13e43	1.8847126
197	0xc00a6150	-2.1621895
198	0xbfa5b6bc	-1.2946391
199	0xbf4349c1	-0.76284415
200	0x3e8a0d29	0.26963165
201	0xbf28af15	-0.65892154
202	0xc03e67d4	-2.9750872
203	0x3f3e38c5	0.74305373
204	0x3ff4c514	1.9122643
205	0xbf8be5b7	-1.0929478
206	0xc0096d32	-2.1472898
207	0x40820614	4.063242
208	0xbf0121f4	-0.50442433
209	0x3f666fbc	0.90014243
210	0xc0aac6de	-5.336776
211	0xc01c36cc	-2.4408445
212	0x3e6ce503	0.23134236
213	0x3ee0fcfe	0.43943018
214	0xc03b2eec	-2.924739
215	0xc03f21a9	-2.9864295
216	0xbfb51a8c	-1.4148726
217	0x4026bbbe	2.6052089
218	0xbfc74cf1	-1.5570356
219	0x3f13b6aa	0.577006
220	0xc029855d	-2.6487648
221	0x3f373f91	0.7158137
222	0xbe8057d4	-0.25067008
223	0x3ee31caa	0.44357806
224	0x4035b680	2.839264
225	0x3fb06bcd	1.3782898
226	0xbfceddcf	-1.6161441
227	0xbf6d4bfe	-0.9269408
228	0x3f55af94	0.83471036
229	0xbf8d6f5e	-1.1049612
230	0x3ec8bd8c	0.39207113
231	0xc0129447	-2.2903001
232	0xbfa7e2e8	-1.3116121
233	0xbf905c8d	-1.1278244
234	0x405bb1c9	3.4327261
235	0xbefa327e	-0.48866647
236	0xc0102d8a	-2.2527795
237	0xbec50ce8	-0.3848641
238	0xbef79db9	-0.4836252
239	0x3fb062d9	1.3780166
240	0x3c826980	0.015919447
241	0x3f0437ab	0.5164744
242	0x3f93dd42	1.1551898
243	0x3fb53a51	1.4158422
244	0xbff10351	-1.8829137
245	0x3e74d15c	0.2390799
246	0x3edc4bd0	0.4302659
247	0x40acc2fb	5.3988013
248	0x3f7dc299	0.9912506
249	0x3f1847e0	0.5948467
250	0xc082db09	-4.0892377
251	0xbc09fe7f	-0.008422493
252	0x405bb7c0	3.4330902
253	0x401fbd12	2.495915
254	0x3f5e5ff4	0.8686516
255	0xc0421246	-3.0323653

layer2.bias f4 [16]
0	0x00000000	0.0
1	0x00000000	0.0
2	0x00000000	0.0
3	0x00000000	0.0
4	0x00000000	0.0
5	0x00000000	0.0
6	0x00000000	0.0
7	0x00000000	0.0
8	0x00000000	0.0
9	0x00000000	0.0
10	0x00000000	0.0
11	0x00000000	0.0
12	0x00000000	0.0
13	0x00000000	0.0
14	0x00000000	0.0
15	0x00000000	0.0

layer3.weight f4 [16, 16]
0	0x3f0a1b55	0.53947955
1	0xbff851f2	-1.9400008
2	0x404477cc	3.0698118
3	0xbfcc5a76	-1.5965106
4	0x4054e7a3	3.326638
5	0xbf8f7690	-1.1208057
6	0x407c3156	3.9405112
7	0x3fd1190e	1.6335771
8	0x3e3d45f9	0.18483724
9	0xbe55466e	-0.20827648
10	0x3dd36a3f	0.10322999
11	0x3ecf6996	0.40510243
12	0x3fe43808	1.7829599
13	0xbf70548f	-0.93879026
14	0xbfe2f500	-1.7731018
15	0x402f8d93	2.743016
16	0x3f86bdc5	1.0526663
17	0xbf2cb3c4	-0.674618
18	0x404e08a6	3.2192779
19	0x3f80cd4a	1.0062649
20	0x402b329c	2.674964
21	0xbd82d933	-0.06389084
22	0xbf30c79a	-0.6905457
23	0x3ee98b1f	0.45613953
24	0xbf91d890	-1.1394215
25	0x4005dc39	2.0915663
26	0xc02fdad5	-2.7477314
27	0xbe9d7229	-0.3075116
28	0xbfe432b5	-1.7827975
29	0xc084fa14	-4.155527
30	0x3f4476f6	0.7674402
31	0xc09b8cd4	-4.860941
32	0x4032f407	2.7961442
33	0xbfca38c2	-1.5798571
34	0x3fbbefc5	1.4682547
35	0x3e7c9784	0.24667174
36	0x3fa4921f	1.2857093
37	0x3f559b12	0.83439744
38	0x405714e5	3.3606503
39	0xc075cced	-3.8406327
40	0x403a40c4	2.910203
41	0x40c87cc7	6.2652316
42	0x3fcc69b3	1.5969757
43	0xbfbd2d16	-1.4779384
44	0x400e5d4a	2.224444
45	0xc0bc1090	-5.877022
46	0x3e88af6f	0.26696345
47	0x3f9bcc20	1.2171669
48	0xc03bb747	-2.9330614
49	0x402d9772	2.7123685
50	0x3f444906	0.76673925
51	0x3fa1a339	1.2627937
52	0x40025548	2.0364552
53	0xbff34c1d	-1.9007603
54	0xc00e6549	-2.224932
55	0xbfc50534	-1.5392213
56	0x401bb871	2.4331324
57	0xbf8c7c3e	-1.0975416
58	0xbef84daa	-0.48496753
59	0xc0379d60	-2.8689804
60	0xbfe5684c	-1.7922454
61	0x3e33f986	0.17575654
62	0x400c0418	2.1877499
63	0xbf3e33f4	-0.74298024
64	0x3f3186f3	0.6934654
65	0xbfc3b7dd	-1.5290486
66	0xbea69353	-0.32534274
67	0xbf72b25e	-0.94803417
68	0xbfd20cbd	-1.6410137
69	0x3f758c52	0.95917237
70	0x3d4eef72	0.05052132
71	0x3f181087	0.5940022
72	0xc01d6895	-2.4595082
73	0x401c1a74	2.4391146
74	0x3f58c866	0.84680784
75	0xc01725bc	-2.3616781
76	0x401d5745	2.4584515
77	0x4081b505	4.053347
78	0xbfd71ce9	-1.6805698
79	0x3f63db4e	0.8900651
80	0x3fb00b60	1.3753471
81	0x3ee86ad1	0.45393994
82	0x3ff341fa	1.900451
83	0x402a367d	2.6595757
84	0xbf9bd538	-1.2174444
85	0x3fb0165c	1.3756824
86	0xc0259228	-2.5870457
87	0x402ec57e	2.730804
88	0xc0277589	-2.6165488
89	0x40600e96	3.5008903
90	0xc018d3b7	-2.387922
91	0x3d7c96b5	0.061667163
92	0xc0093b0b	-2.1442287
93	0xbf87d4de	-1.0611837
94	0xbe8a6adf	-0.2703466
95	0x3d18e95d	0.037331928
96	0x3f15e9e2	0.5856
97	0x40718cb0	3.774212
98	0xc0031332	-2.0480466
99	0x3de5c33e	0.1121888
100	0x40701624	3.7513514
101	0x3f91d293	1.1392387
102	0x3e8f6468	0.2800629
103	0xc0577d19	-3.3670104
104	0xbf7ae8d3	-0.9801151
105	0xbfc85e54	-1.5653787
106	0xc02c6847	-2.6938646
107	0xc00170d3	-2.0225112
108	0x400df223	2.2179039
109	0x3ecb3b21	0.3969355
110	0xbfdd9184	-1.7310033
111	0x40903b5a	4.507245
112	0x402d7890	2.7104836
113	0x3e6de08d	0.2323019
114	0xbf7985be	-0.974697
115	0x3f719d9f	0.94381136
116	0x402662cd	2.5997803
117	0xc0068635	-2.1019413
118	0x3fbaea59	1.4602767
119	0x3fef144b	1.8678068
120	0x4013872e	2.3051257
121	0xc027416a	-2.6133676
122	0x3d4e9358	0.050433487
123	0xbfb63bed	-1.4237038
124	0x402e8873	2.7270782
125	0xc0118968	-2.2740116
126	0x3f45bfe4	0.77245927
127	0xbf32824b	-0.6973006
128	0xbf2f77d7	-0.68542236
129	0x3f9e69cc	1.2376037
130	0xbf4d0c7f	-0.8009719
131	0xc071ea0f	-3.7799108
132	0x3fd6fb29	1.6795398
133	0x4076ad15	3.854314
134	0x40009a4f	2.0094182
135	0x40823f48	4.070225
136	0x408dd1df	4.431869
137	0x3f65228f	0.8950586
138	0xc0260260	-2.593895
139	0x3ffdeec7	1.9838494
140	0xc0042ee6	-2.0653625
141	0xc00161b1	-2.0215876
142	0x3f0e1439	0.5549961
143	0xbef109ae	-0.47077698
144	0x3f5f692f	0.8726987
145	0xbf392daf	-0.7233533
146	0xbf2044ce	-0.6260499
147	0xc03928ff	-2.8931272
148	0x3e4578b9	0.19284333
149	0xc03b1042	-2.9228673
150	0xbf8d1308	-1.1021433
151	0xc08c5987	-4.3859286
152	0xc0101efa	-2.2518907
153	0xbf773b89	-0.9657522
154	0x3fddf5a4	1.7340589
155	0xbf6524c9	-0.89509255
156	0xbe29b876	-0.16574273
157	0xbeeb9827	-0.4601452
158	0xbfccd154	-1.6001382
159	0xbf8dbe4e	-1.1073701
160	0xbfc4c574	-1.5372758
161	0x40a2d392	5.0883265
162	0xbf8c0aab	-1.0940756
163	0xbe863d54	-0.26218665
164	0x3e00dd77	0.12584482
165	0xc019c983	-2.4029243
166	0xbf557324	-0.83378816
167	0x4090ba40	4.5227356
168	0xc05ad85c	-3.4194555
169	0x3f8ab6c8	1.083703
170	0xbfbbe3bc	-1.4678874
171	0x40657381	3.5851748
172	0x3e572d6b	0.2101342
173	0x3e2d61d0	0.16931844
174	0xc002c6de	-2.043388
175	0xc08000db	-4.0001044
176	0xbf960b77	-1.1722249
177	0x4004fb96	2.0778556
178	0xbf4eb29d	-0.8074129
179	0xbfffd755	-1.9987589
180	0xbf71b17a	-0.9441143
181	0x3fb00ae9	1.375333
182	0x3ee82137	0.4533784
183	0xbfb52b27	-1.4153794
184	0xbfc82562	-1.5636408
185	0xc04248bf	-3.03569
186	0x3ff80c8d	1.937883
187	0x40809d57	4.0192065
188	0xbfd65a45	-1.6746298
189	0x3f35962e	0.7093228
190	0x3f5e7fb2	0.869136
191	0xc03a9837	-2.9155405
192	0x400f6faf	2.2411916
193	0xbf6bb6c7	-0.9207577
194	0xbf3cf84e	-0.7381638
195	0x3f773bbb	0.96575516
196	0xc0183cd6	-2.3787131
197	0xbec81b00	-0.390831
198	0xbfee3895	-1.8611017
199	0x3f697126	0.91188276
200	0x3eb87d9a	0.36033326
201	0x3f611393	0.8792049
202	0x402c9fb5	2.6972477
203	0x40664e3c	3.598525
204	0xc0261ca2	-2.5954976
205	0x3e421d1b	0.18956415
206	0xbf40da11	-0.7533274
207	0x3f827eea	1.0194981
208	0xbeb36433	-0.35037383
209	0x3f8d1134	1.1020875
210	0xc0d65b1b	-6.6986213
211	0xc04979f3	-3.1480682
212	0xbf35fade	-0.7108592
213	0x3f17da74	0.5931771
214	0x3fca79ee	1.581846
215	0xbf74b21a	-0.9558426
216	0x3d95db6e	0.073172435
217	0xc034b3e4	-2.8234797
218	0x400b8c39	2.1804335
219	0xbffea333	-1.9893554
220	0x3e9be0da	0.30444986
221	0x3fd8a4bd	1.6925274
222	0x3f0d022b	0.55081433
223	0xc04b8177	-3.179777
224	0xbff0bd55	-1.880778
225	0x4065ac73	3.5886505
226	0xbfb7ab84	-1.4349217
227	0xc0862d07	-4.1929965
228	0x3ecaef19	0.39635542
229	0x403cbd3f	2.9490507
230	0x3fc88908	1.5666819
231	0x405e9114	3.4776049
232	0x3f3a917a	0.7287823
233	0x3fbb685c	1.4641223
234	0xbfa08fe1	-1.2543908
235	0xbf64bc8c	-0.893502
236	0xbf1cc705	-0.6124118
237	0xbc21aede	-0.009868352
238	0x3ebf1e89	0.37327984
239	0xc01b38cd	-2.4253418
240	0xbf6479bc	-0.8924825
241	0xbffc2549	-1.9698879
242	0x400c2147	2.189531
243	0xc044bdf8	-3.0740948
244	0xc082f12f	-4.0919414
245	0xbecd0af6	-0.40047425
246	0x3ff5dbbf	1.9207686
247	0x3f9a7bfe	1.206909
248	0x3f2bc2ea	0.6709429
249	0xc02dfe24	-2.7186365
250	0x3d5aa17f	0.05337667
251	0xc084be53	-4.148233
252	0x3e9c22f8	0.3049543
253	0x3f9fb18b	1.2476057
254	0xbe6bc047	-0.23022567
255	0xbfc7f1e9	-1.56207

layer3.bias f4 [16]
0	0x00000000	0.0
1	0x00000000	0.0
2	0x00000000	0.0
3	0x00000000	0.0
4	0x00000000	0.0
5	0x00000000	0.0
6	0x00000000	0.0
7	0x00000000	0.0
8	0x00000000	0.0
9	0x00000000	0.0
10	0x00000000	0.0
11	0x00000000	0.0
12	0x00000000	0.0
13	0x00000000	0.0
14	0x00000000	0.0
15	0x00000000	0.0

out_layer.weight f4 [3, 16]
0	0xc05bed32	-3.4363523
1	0xbf8935fd	-1.0719601
2	0x405e11b6	3.469831
3	0xbf6d012e	-0.92579925
4	0x3d9338cf	0.0718857
5	0xbeed26df	-0.4631872
6	0x40328c2d	2.7898057
7	0x40833d0c	4.101202
8	0xba953907	-0.0011384793
9	0xbf6655a8	-0.8997445
10	0x3fd5b1c6	1.6694877
11	0xbfdd0d61	-1.7269708
12	0x3fef3d1c	1.8690524
13	0x403d45f6	2.957395
14	0x40138c2c	2.3054304
15	0xbd9facef	-0.07796656
16	0x3ff75cf6	1.9325244
17	0x3f95e5c3	1.1710743
18	0x3fd914af	1.6959437
19	0x40160c5b	2.344504
20	0x3f928ebb	1.1449808
21	0x3f1335c0	0.5750389
22	0x3f080e30	0.5314665
23	0xbdd14d82	-0.102198616
24	0x40633bd7	3.5505273
25	0xbb48f924	-0.0030666078
26	0x3f32d91d	0.6986254
27	0x400b79f5	2.1793187
28	0x400d4acd	2.2076905
29	0xbfe2c83e	-1.7717359
30	0xc039eccc	-2.905078
31	0xbe635764	-0.22201306
32	0xbfb7a472	-1.434706
33	0x3fdeeff4	1.7416978
34	0x3df7ab51	0.12093223
35	0x3ea9ae01	0.33140567
36	0x40115071	2.2705348
37	0x3e0a26c4	0.1349135
38	0xbf188d39	-0.5959049
39	0x3f97a922	1.184849
40	0x3f20175f	0.6253566
41	0xc086d08f	-4.212959
42	0xc01858d5	-2.3804219
43	0xbeda3e59	-0.42625692
44	0xbed0d5c3	-0.40788087
45	0xbfb29d15	-1.3954188
46	0x3e12f1bc	0.14350027
47	0x3f3f39fa	0.7469784

out_layer.bias f4 [3]
0	0x00000000	0.0
1	0x00000000	0.0
2	0xbeda7245	-0.42665306
