src/ckpt/MountainCar-v0/indiv_59.pt (torch_old, 3954 bytes, 8 tensors)

layer1.weight f4 [16, 2]
00000000: c437 e9bf 6d5b 58bf 6539 2fc0 8fc5 88c0
00000010: df0d 4ac0 d0b3 803f 4222 cd3e 6a10 e73f
00000020: 70ce 263e db95 2340 454e cdbf 8a4d 3b3d
00000030: 69c6 b9bf 9540 0bbe 829b 08bf fd7a 4a3f
00000040: 72f4 b73f 4e1d fdbf dfa3 263d 036e f73f
00000050: 2642 3640 9a0f 6c40 ca2a 87bf efd3 80bd
00000060: 2a7c 403e 3428 55c0 34ec b23f 2d8c 0b40
00000070: 3289 98bf 3363 8840 a74d cabf 7aed aa3e
-1.8220143 -0.84514505 -2.737878 -4.274116 -3.1570966 1.0054874 0.400652 1.8051884
0.16289687 2.5560215 -1.6039511 0.045728244 -1.4513675 -0.13598855 -0.53362286 0.79093915
1.4371474 -1.9774568 0.040683623 1.9330448 2.8477874 3.6884522 -1.0559933 -0.06290423
0.18797365 -3.3305788 1.3978333 2.1804307 -1.1916869 4.2621093 -1.5804948 0.33384305

layer1.bias f4 [16]
00000000: 0000 0000 0000 0000 0000 0000 0000 0000
00000010: 0000 0000 0000 0000 e519 403f 0000 0000
00000020: 0000 0000 0000 0000 0000 0000 0000 0000
00000030: 0000 0000 0000 0000 0000 0000 0000 0000
0.0 0.0 0.0 0.0 0.0 0.0 0.7503951 0.0
0.0 0.0 0.0 0.0 0.0 0.0 0.0 0.0

layer2.weight f4 [16, 16]
00000000: f228 2abf 6e49 9f3f 79a7 19c0 6f5e 2c40
00000010: 46de c53f 785b d3bf 7268 8bbf 3a0d 6a40
00000020: aaa1 303f c3b7 6fbf a43a 1340 feee 2cc0
00000030: aa79 0cc0 f048 8f3f 7253 af3e 2865 3dc0
00000040: 7c5f 06c0 e6f5 973f c0a9 36c0 4f79 7240
00000050: 630d 8dc0 f236 f93e 93a9 50c0 1d35 90bf
00000060: 949c 15bf e9c2 1140 e73f 0d3f 5934 4bbf
00000070: 73de 98bf a02e 90bf 736c c2bd 5d9d f03f
00000080: e945 03bf e95d c7bf 9cfc 2340 f9df 00bf
00000090: d1d8 d7be e03a a3bf ca76 1e40 7f7b e83f
000000a0: c92b 98bf ff34 9ebf dfe1 7c3f 8008 273f
000000b0: 672a 5540 ec9d 1640 bb6f f5bf 4e4d 82bd
000000c0: aeae ecbf 26a5 cfbf 5855 60c0 ce7c 163f
000000d0: 0929 4d3f f3af 0940 e773 2dbf 5904 0e3f
000000e0: 7cca 89bf a24c 3ac0 359d d8bf 3e73 ed3e
000000f0: b873 593e fb97 123f de61 563e e03e 1e40
00000100: a07e 73be 065e 263f 2856 1f40 b819 883f
00000110: 6b94 d8be 8ede 2c40 d579 dabe 22c4 933f
00000120: 9598 5c40 1beb e1bf 9cdf cbbe 0207 bebf
00000130: 9b6c 843f b45c 103e 0ca0 e5be 3043 19c0
00000140: 5385 703f e088 2140 b1a8 f4bf 1e8c 01c0
00000150: eef6 09bf 09df f43f 821e fc3d 144b eebe
00000160: 2b65 7240 c73b 863f 276a 913f beac c3bf
00000170: 1ecc b3bf 87c2 d53f cc04 3fbf ce6b 80bf
00000180: cae6 873f 6ce5 c73e f0a1 edbf a6a7 38bf
00000190: f38f 88bf 0518 70c0 c27b 08c0 c91c c7be
000001a0: d597 93be dec8 88be 9753 a9bf 4e2f 2d40
000001b0: 8214 f1be 6652 7dc0 0b39 aa3f f6ff 0bc0
000001c0: 2b3a 0140 fd7a 8740 b2cd 83c0 cc61 6abf
000001d0: 49d6 cb3f aeaf 33c0 f807 923c f1bf c33f
000001e0: ea41 9140 c98d 9e3f 6bc1 f93f d801 1b3e
000001f0: 7b02 8a3f 2e03 403f 6e8a f0be 9d78 2d40
00000200: f94f 663f cbc3 0c40 150b b73f 8b71 03c0
00000210: 8f64 afbe a1ca dbbf 5725 5540 5afa 3f40
00000220: ef01 7a40 334a 943d 09a5 ff3f 4215 8ebf
00000230: b96c b1bf 601d ed3f 5877 993e d04a c7bf
00000240: c338 0340 f864 7bc0 8770 3abf 3494 2fc0
00000250: 81a2 523e 2093 5840 7fc0 1a40 730b f43f
00000260: 64e4 693f 8163 1bbe 0886 6140 cbcf 1340
00000270: d20a d33f 004d 9140 6735 0e3f 3049 42c0
00000280: 3628 2e40 de1c 18c0 391f 2b3f 984d 84bd
00000290: 7463 b4bf 95c7 7abf 3244 5bbf e303 cabf
000002a0: 7f73 e0be 4f9f 263f 79b3 5540 758e 653e
000002b0: 7313 113f febd 06c0 5d5f 093f 0e63 51bf
000002c0: c323 f33f 3551 6140 cf50 19c0 776a eb3d
000002d0: a80a 1540 8c97 95be 597c c33f e5da f33f
000002e0: f6b5 8cbf fed9 2cbf b6b8 d8bf cb95 763e
000002f0: 8e90 84bf c431 a33f 761e 653f d60a 8640
00000300: 473c a03f ad1b cdbe a369 273f de47 6bc0
00000310: 433e f13f 5061 0ac0 6300 e6bf c149 43bf
00000320: aff1 c03f 15af 28bf d467 3ec0 c538 3e3f
00000330: b637 163f b7e5 8bbf 326d 09c0 f5b7 d6be
00000340: f421 01bf bc6f 663f dec6 aac0 cc36 1cc0
00000350: 03e5 6c3e fefc e03e f702 6dbe a921 3fc0
00000360: 8b08 da3e bebb 2640 f14c c7bf aab6 133f
00000370: a9e9 e5bf 913f 373f d457 80be 2611 7cbf
00000380: 80b6 3540 cd6b b03f cfdd cebf fe4b 6dbf
00000390: 94af 553f 5e6f 8dbf 28d8 69c0 4794 12c0
000003a0: 070c d5bf 8d5c 90bf c9b1 5b40 7e32 fabe
000003b0: 10c6 2e40 e80c c5be b99d f7be 1c82 99bf
000003c0: 8069 823c ab37 043f 42dd 933f 513a b53f
000003d0: 5103 f1bf 5cd1 743e 3ee7 993f fbc2 ac40
000003e0: 65f2 0fbd e047 183f 09db 82c0 7ffe 09bc
000003f0: 68de 68bf 12bd 1f40 f45f 5e3f 6983 5c40
-0.6646873 1.2444284 -2.4008467 2.6932638 1.5458457 -1.6512289 -1.0891249 3.6570573
0.6899668 -0.93639773 2.3004541 -2.702087 -2.1949258 1.1194134 0.3424335 -2.959299
-2.099578 1.1871917 -2.8541107 3.788654 -4.407884 0.48674732 -3.26035 -1.1266209
-0.58442044 2.2775214 0.5517563 -0.7937675 -1.1942886 -1.1264229 -0.09493341 1.8798023
-0.5127855 -1.5575534 2.562293 -0.50341755 -0.42157605 -1.2752342 2.4760003 1.8162688
-1.1888362 -1.2359923 0.9878215 0.65247345 3.330713 2.3533888 -1.9174722 -0.06362401
-1.8490808 -1.6222274 -3.505209 0.58784187 0.8014074 2.151364 -0.6775498 0.55475384
-1.0764918 -2.9109273 -1.6922976 0.46376985 0.2123555 0.57263154 0.20935771 2.4725876
-0.23778772 0.6498722 2.4896336 1.0632849 -0.42300734 2.7010837 -0.42671075 1.154423
3.4468129 -1.7649873 -0.39819038 -1.4845889 1.0345644 0.14097863 -0.4484867 -2.3947258
0.93953437 2.5239792 -1.911398 -2.024177 -0.5389241 1.9130565 0.123105064 -0.46541655
3.7874248 1.0486993 1.136052 -1.5287092 -1.4046667 1.669999 -0.74616694 -1.0032899
1.0617306 0.39042222 -1.8565044 -0.7213081 -1.066893 -3.751466 -2.1325536 -0.3888915
-0.28826776 -0.2671575 -1.3228635 2.7060122 -0.4708596 -3.9581542 1.3298658 -2.1874976
2.0191753 4.233763 -4.1188593 -0.91555476 1.592477 -2.8075976 0.017826065 1.5292951
4.539296 1.2387019 1.9512151 0.15137422 1.0782007 0.7500485 -0.46980613 2.7104867
0.8996578 2.1994503 1.4300257 -2.053805 -0.34256408 -1.7171212 3.330404 2.9996552
3.906368 0.07240715 1.997224 -1.1100237 -1.3861305 1.852459 0.29973865 -1.5569706
2.0503395 -3.9280376 -0.72827953 -2.7434206 0.20569803 3.3839798 2.417999 1.9065994
0.9136412 -0.15174676 3.5238056 2.3095577 1.6487677 4.5406494 0.55550236 -3.035717
2.7212043 -2.376762 0.66844517 -0.06460112 -1.4092851 -0.9796079 -0.8565093 -1.5782436
-0.43838117 0.65086836 3.3390791 0.22417624 0.566703 -2.1053462 0.5366114 -0.8179177
1.8995289 3.5205815 -2.3955572 0.11494916 2.3287754 -0.29217184 1.5272323 1.9051176
-1.099303 -0.6752013 -1.6931369 0.24080579 -1.0356615 1.2749562 0.89499605 4.1888227
1.2518395 -0.40060177 0.65395564 -3.6762614 1.8847126 -2.1621895 -1.7968868 -0.76284415
1.5073756 -0.65892154 -2.9750872 0.74305373 0.5867876 -1.0929478 -2.1472898 -0.41937223
-0.50442433 0.90014243 -5.336776 -2.4408445 0.23134236 0.43943018 -0.23145662 -2.9864295
0.42584643 2.6052089 -1.5570356 0.577006 -1.7961932 0.7158137 -0.25067008 -0.98463666
2.839264 1.3782898 -1.6161441 -0.9269408 0.83471036 -1.1049612 -3.6538181 -2.2903001
-1.6644295 -1.1278244 3.4327261 -0.48866647 2.7308388 -0.3848641 -0.4836252 -1.1992831
0.015919447 0.5164744 1.1551898 1.4158422 -1.8829137 0.2390799 1.2023695 5.3988013
-0.035143275 0.5948467 -4.0892377 -0.008422493 -0.90964365 2.495915 0.8686516 3.4455206

layer2.bias f4 [16]
00000000: 0000 0000 0000 0000 0000 0000 0000 0000
00000010: 0000 0000 0000 0000 0000 0000 0000 0000
00000020: 0000 0000 0000 0000 0000 0000 0000 0000
00000030: 0000 0000 0000 0000 0000 0000 0000 0000
0.0 0.0 0.0 0.0 0.0 0.0 0.0 0.0
0.0 0.0 0.0 0.0 0.0 0.0 0.0 0.0

layer3.weight f4 [16, 16]
00000000: 551b 0a3f f251 f8bf cc77 4440 a79d 3240
00000010: 1fb3 553f 9076 8fbf 5631 7c40 cbbe 6fbf
00000020: f945 3d3e 4ca5 bcbf 3f6a d33d 9669 cf3e
00000030: 0838 e43f 8f54 70bf 60da 07c0 0ca6 d23f
00000040: c5bd 863f c4b3 2cbf a608 4e40 cc83 74bf
00000050: f4b1 0dc0 33d9 82bd 9ac7 30bf 56be 74c0
00000060: 90d8 91bf c5a7 933d d5da 2fc0 2972 9dbe
00000070: b532 e4bf 14fa 84c0 ed09 3bc0 1a1a 8040
00000080: 07f4 3240 c238 cabf c5ef bb3f 8cf8 e73f
00000090: a6fb 23c0 129b 553f e514 5740 cd51 83bf
000000a0: c440 3a40 0e3c 8c40 b369 cc3f 162d bdbf
000000b0: 4a5d 0e40 9010 bcc0 0b5a 73be 42d0 bb3f
000000c0: 47b7 3bc0 7297 2d40 0649 443f 93c7 ef3f
000000d0: 7f2c e23f 7ed0 2cbf 4965 0ec0 93d1 fc3e
000000e0: 71b8 1b40 98e5 043d aa4d f8be 609d 37c0
000000f0: 4c68 e5bf 86f9 333e 7346 853f 02a8 31bf
00000100: f386 313f ddb7 c3bf 5393 a6be cece 5c40
00000110: 51a6 a8bf 528c 753f 72ef 4e3d b60e 08bf
00000120: 9568 1dc0 1456 33c0 66c8 583f bc25 17c0
00000130: 4557 1d40 05b5 8140 4c9b 523f 5f06 a4bf
00000140: 600b b03f d16a e83e fa41 f33f 21ec 1dc0
00000150: bebd 43c0 5c16 b03f 2892 25c0 ebf9 8d3e
00000160: 8975 27c0 4846 bcbf b7d3 18c0 b596 7c3d
00000170: 0b3b 09c0 ded4 87bf 41c9 d0bf d576 15c0
00000180: e2e9 153f b08c 7140 3213 03c0 f243 773f
00000190: 1f45 3ac0 93d2 913f 6864 8f3e 574f 53c0
000001a0: d3e8 7abf c868 fbbd 4768 2cc0 d370 01c0
000001b0: 23f2 0d40 213b cb3e 1d51 1b3f ad82 dabf
000001c0: 9078 2d40 8de0 6d3e be85 79bf 9a5a f2bf
000001d0: 92db 0940 3586 06c0 59ea ba3f 50ca 9640
000001e0: 2e87 1340 91c8 17bf 5893 4e3d ed3b b6bf
000001f0: 7388 2e40 6889 11c0 3dd1 9b3f 46a5 713f
00000200: d777 2fbf cc69 9e3f 7f0c 4dbf c757 34bf
00000210: 204c 2d3f 15ad 7640 4f9a 0040 116d b9be
00000220: dfd1 8d40 e5b1 843f 6002 26c0 c7ee fd3f
00000230: e62e 04c0 b161 01c0 1d00 2ebf 6344 20c0
00000240: 2f69 5f3f af2d 39bf ce44 20bf 1752 52bf
00000250: 6014 0340 4210 3bc0 0813 8dbf 2247 453f
00000260: fa1e 10c0 1a8d a83f a4f5 dd3f c924 65bf
00000270: 76b8 29be 2798 ebbe 14c1 1e40 041e 2340
00000280: 74c5 c4bf 92d3 a240 ab0a 8cbf cb1a 993f
00000290: eaf7 07c0 83c9 19c0 2473 55bf c7b8 4f40
000002a0: 5cd8 5ac0 ceb1 b1bf bce3 bbbf 8173 6540
000002b0: 6b2d 573e d061 2d3e 3090 4cbd 5d98 be3f
000002c0: 770b 96bf 96fb 0440 9db2 4ebf 544c 0a3d
000002d0: fdc3 3bc0 e90a b03f 3721 e83e 7719 4abe
000002e0: 6225 c8bf bc88 e23e 8d0c f83f 579d 8040
000002f0: 455a d6bf 2e96 353f 8a96 493e fc89 b13e
00000300: af6f 0f40 c7b6 6bbf 4ef8 3cbf d3aa 3ec0
00000310: ee8d 5bbf 001b c8be 9538 eebf 14fa 5abf
00000320: 9a7d b83e 5d33 70c0 b59f 2c40 3c4e 6640
00000330: a21c 26c0 1b1d 423e 535c 4f40 5864 0dbf
00000340: 3364 b3be 3411 8d3f 1b5b d6c0 7bf6 7440
00000350: 3599 48c0 74da 173f ee79 ca3f 0e1c 55bf
00000360: 6edb 953d 4dcf 0f3e 398c 0b40 33a3 febf
00000370: dae0 9b3e bda4 d83f 8aa3 b33e 07f1 5940
00000380: 55bd f0bf 73ac 6540 84ab b7bf 7dcf 6140
00000390: 9670 923f 3fbd 3c40 0889 c83f abe7 0ebf
000003a0: 7a91 3a3f 983c 63c0 e18f a0bf 8cbc 64bf
000003b0: 05c7 1cbf deae 21bc 0cc2 073e 3827 6840
000003c0: bc79 64bf 4925 fcbf 4721 0c40 57af 43c0
000003d0: 9f96 383f f60a cdbe bfdb f53f 2fe5 6dbf
000003e0: eac2 2b3f fe14 46c0 7fa1 5a3d 53be 84c0
000003f0: f822 9c3e 8bb1 9f3f c33a fc3f eec0 16c0
0.53947955 -1.9400008 3.0698118 2.7908723 0.8347644 -1.1208057 3.9405112 -0.936505
0.18483724 -1.4737945 0.10322999 0.40510243 1.7829599 -0.93879026 -2.1227036 1.6456923
1.0526663 -0.674618 3.2192779 -0.95513606 -2.2139864 -0.06389084 -0.6905457 -3.8241172
-1.1394215 0.07209734 -2.7477314 -0.3075116 -1.7827975 -4.155527 -2.9224808 4.003186
2.7961442 -1.5798571 1.4682547 1.8122725 -2.5622344 0.83439744 3.3606503 -1.0259339
2.910203 4.382331 1.5969757 -1.4779384 2.224444 -5.877022 -0.23764817 1.467293
-2.9330614 2.7123685 0.76673925 1.873278 1.7669829 -0.67505634 -2.224932 0.49378642
2.4331324 0.03244552 -0.48496753 -2.8689804 -1.7922454 0.17575654 1.0412124 -0.69396985
0.6934654 -1.5290486 -0.32534274 3.4501224 -1.3175756 0.95917237 0.05052132 -0.5314745
-2.4595082 -2.8021288 0.84680784 -2.3616781 2.4584515 4.053347 0.82268214 -1.2814444
1.3753471 0.45393994 1.900451 -2.4675372 -3.058456 1.3756824 -2.5870457 0.27729735
-2.6165488 -1.4708948 -2.387922 0.061667163 -2.1442287 -1.0611837 -1.6311418 -2.335378
0.5856 3.774212 -2.0480466 0.9658805 -2.9104688 1.1392387 0.2800629 -3.3017175
-0.9801151 -0.12275845 -2.6938646 -2.0225112 2.2179039 0.3969355 0.60670644 -1.7071129
2.7104836 0.2323019 -0.974697 -1.8933899 2.1540265 -2.1019413 1.4602767 4.7121964
2.3051257 -0.59290415 0.050433487 -1.4237038 2.7270782 -2.2740116 1.217323 0.9439281
-0.68542236 1.2376037 -0.8009719 -0.7044644 0.6769428 3.854314 2.0094182 -0.36216024
4.431869 1.0366789 -2.593895 1.9838494 -2.0653625 -2.0215876 -0.6796892 -2.504174
0.8726987 -0.7233533 -0.6260499 -0.8215651 2.0481186 -2.9228673 -1.1021433 0.77061665
-2.2518907 1.3168061 1.7340589 -0.89509255 -0.16574273 -0.4601452 2.4805346 2.548707
-1.5372758 5.0883265 -1.0940756 1.1961302 -2.1245065 -2.4029243 -0.83378816 3.245653
-3.4194555 -1.3882387 -1.4678874 3.5851748 0.2101342 0.16931844 -0.049942195 1.4890248
-1.1722249 2.0778556 -0.8074129 0.0337642 -2.9338372 1.375333 0.4533784 -0.19736277
-1.5636408 0.44244945 1.937883 4.0192065 -1.6746298 0.7093228 0.19686332 0.34675586
2.2411916 -0.9207577 -0.7381638 -2.9791763 -0.8576344 -0.390831 -1.8611017 -0.8553784
0.36033326 -3.753135 2.6972477 3.598525 -2.5954976 0.18956415 3.24001 -0.5523124
-0.35037383 1.1020875 -6.6986213 3.827544 -3.134351 0.5931771 1.581846 -0.83245933
0.073172435 0.14043923 2.1804335 -1.9893554 0.30444986 1.6925274 0.35085708 3.4053361
-1.880778 3.5886505 -1.4349217 3.528289 1.1440609 2.9490507 1.5666819 -0.5582225
0.7287823 -3.5505733 -1.2543908 -0.893502 -0.6124118 -0.009868352 0.13257617 3.6273937
-0.8924825 -1.9698879 2.189531 -3.057577 0.7210483 -0.40047425 1.9207686 -0.9292783
0.6709429 -3.0950313 0.05337667 -4.148233 0.3049543 1.2476057 1.9705433 -2.3555255

layer3.bias f4 [16]
00000000: 0000 0000 0000 0000 0000 0000 0000 0000
00000010: 0000 0000 0000 0000 0000 0000 0000 0000
00000020: 0000 0000 0000 0000 0000 0000 0000 0000
00000030: 0000 0000 0000 0000 0000 0000 0000 0000
0.0 0.0 0.0 0.0 0.0 0.0 0.0 0.0
0.0 0.0 0.0 0.0 0.0 0.0 0.0 0.0

out_layer.weight f4 [3, 16]
00000000: af00 10bf db61 3cbf fb26 1fbf 2e01 6dbf
00000010: 941f 04c0 df26 edbe 2d8c 3240 0c3d 8340
00000020: bce7 e9bf a855 66bf c6b1 d53f ae97 a0bf
00000030: 1c3d ef3f f645 3d40 2c8c 1340 97bb d1bf
00000040: 5aee 903e 420a c040 a5c8 debf 5b0c 1640
00000050: 74fd 8cbf c035 133f 300e 083f 824d d1bd
00000060: 4f3c 373f 24f9 48bb 1dd9 323f 1309 b3bf
00000070: cd4a 0d40 3ec8 e2bf ccec 39c0 f2b3 7cbf
00000080: c349 a7bf 6cf0 d63f 8e0d e03f 01ae a93e
00000090: bc69 913f c426 0a3e 398d 18bf 22a9 973f
000000a0: 7463 e3bf 8fd0 86c0 d558 18c0 6bdb 04bf
000000b0: c3d5 d0be 159d b2bf bcf1 123e 4973 32c0
-0.56251043 -0.73586816 -0.62168854 -0.92579925 -2.0644274 -0.4631872 2.7898057 4.101202
-1.8273845 -0.8997445 1.6694877 -1.2546289 1.8690524 2.957395 2.3054304 -1.6385373
0.28306848 6.001252 -1.7404982 2.344504 -1.1014848 0.5750389 0.5314665 -0.102198616
0.715764 -0.0030666078 0.6986254 -1.3987144 2.2076905 -1.7717359 -2.905078 -0.98712075
-1.3069385 1.6792121 1.7504137 0.33140567 1.1360393 0.1349135 -0.5959049 1.184849
-1.7764726 -4.212959 -2.3804219 -0.51897305 -0.40788087 -1.3954188 0.14350027 -2.7882864

out_layer.bias f4 [3]
00000000: 0000 0000 0000 0000 0000 0000
0.0 0.0 0.0
