src/ckpt/MountainCar-v0/indiv_15.pt (torch_old, 3954 bytes, 8 tensors)

layer1.weight f4 [16, 2]
0	0xbfe937c4	-1.8220143
1	0xbf1d3852	-0.6141406
2	0xc02f3965	-2.737878
3	0xc09a3f8b	-4.8202567
4	0xc04a0ddf	-3.1570966
5	0x3ffbe596	1.9679439
6	0x3ecd2242	0.400652
7	0x40b750fe	5.7286367
8	0x3e26ce70	0.16289687
9	0xc00aaa57	-2.1666467
10	0xbfcd4e45	-1.6039511
11	0xbf3812c3	-0.7190363
12	0xbfb9c669	-1.4513675
13	0x3fc24927	1.5178574
14	0xbf089b82	-0.53362286
15	0x3eb405be	0.3516063
16	0x3fb7f472	1.4371474
17	0x3ea65571	0.32487062
18	0x3d26a3df	0.040683623
19	0xc07257f9	-3.7866194
20	0x40364226	2.8477874
21	0x3f97c684	1.1857457
22	0xbf872aca	-1.0559933
23	0xbf9038fa	-1.1267388
24	0x3e407c2a	0.18797365
25	0xbfc08c5f	-1.5042838
26	0x3fb2ec34	1.3978333
27	0xbfc23b3f	-1.517433
28	0xbf988932	-1.1916869
29	0x407bf703	3.9369514
30	0xbfca4da7	-1.5804948
31	0x3f60e916	0.8785566

layer1.bias f4 [16]
0	0x00000000	0.0
1	0x00000000	0.0
2	0x00000000	0.0
3	0x00000000	0.0
4	0x00000000	0.0
5	0x00000000	0.0
6	0x3f4019e5	0.7503951
7	0x00000000	0.0
8	0x00000000	0.0
9	0x00000000	0.0
10	0x00000000	0.0
11	0x00000000	0.0
12	0x00000000	0.0
13	0x00000000	0.0
14	0x00000000	0.0
15	0x00000000	0.0

layer2.weight f4 [16, 16]
0	0xbf2a28f2	-0.6646873
1	0xbf3ab725	-0.72935706
2	0xc019a779	-2.4008467
3	0x402c5e6f	2.6932638
4	0x3fc5de46	1.5458457
5	0xbfd35b78	-1.6512289
6	0x40c92f8c	6.287054
7	0x406a0d3a	3.6570573
8	0xbf40707a	-0.75171626
9	0xbf6fb7c3	-0.93639773
10	0x40133aa4	2.3004541
11	0xc02ceefe	-2.702087
12	0x3f0f9be0	0.5609722
13	0xbd66dc99	-0.056362722
14	0x3eaf5372	0.3424335
15	0x3fcc5439	1.5963203
16	0xc0065f7c	-2.099578
17	0xbf8b0c6e	-1.0863168
18	0xc036a9c0	-2.8541107
19	0x4072794f	3.788654
20	0xc08d0d63	-4.407884
21	0x3ef936f2	0.48674732
22	0xbf31a235	-0.69388133
23	0xbf90351d	-1.1266209
24	0xc0324940	-2.7857208
25	0x4011c2e9	2.2775214
26	0x3f0d3fe7	0.5517563
27	0xbf4b3459	-0.7937675
28	0x3fe43522	1.7828715
29	0x3ee3de47	0.44505522
30	0xbdc26c73	-0.09493341
31	0xbe69c340	-0.22828388
32	0xbf0345e9	-0.5127855
33	0xc006627e	-2.0997615
34	0x4023fc9c	2.562293
35	0xbf00dff9	-0.50341755
36	0xbed7d8d1	-0.42157605
37	0xbfa33ae0	-1.2752342
38	0xc040b5a0	-3.0110855
39	0x3fe87b7f	1.8162688
40	0xbe9b848b	-0.3037456
41	0xbf9e34ff	-1.2359923
42	0x3f7ce1df	0.9878215
43	0x3f270880	0.65247345
44	0x404a7000	3.163086
45	0x3f9bd585	1.2174536
46	0xbff56fbb	-1.9174722
47	0x3f794bed	0.9738148
48	0xbfecaeae	-1.8490808
49	0xbf9d50c6	-1.2290275
50	0xc0605558	-3.505209
51	0x3f167cce	0.58784187
52	0x3f4d2909	0.8014074
53	0x4009aff3	2.151364
54	0x3d1f04c8	0.03882292
55	0x3f0e0459	0.55475384
56	0xbf83c079	-1.0293113
57	0xc03a4ca2	-2.9109273
58	0xbfd89d35	-1.6922976
59	0x3eed733e	0.46376985
60	0x3fd7ef9e	1.687
61	0xbf9357b2	-1.1511137
62	0x3e5661de	0.20935771
63	0xbdaf9418	-0.085731685
64	0xbe737ea0	-0.23778772
65	0x40afba4e	5.4914923
66	0x401f5628	2.4896336
67	0x3f8819b8	1.0632849
68	0xbed8946b	-0.42300734
69	0x402cde8e	2.7010837
70	0x3faa436c	1.3301826
71	0x3f93c422	1.154423
72	0xbf98a949	-1.1926662
73	0xbfe1eb1b	-1.7649873
74	0xbecbdf9c	-0.39819038
75	0xbfbe0702	-1.4845889
76	0x3e26f5af	0.16304658
77	0x3fb3c284	1.4043736
78	0xbee5a00c	-0.4484867
79	0xc01fe47a	-2.49832
80	0x3f708553	0.93953437
81	0xbf80bc5c	-1.0057483
82	0xbff4a8b1	-1.911398
83	0xc0018c1e	-2.024177
84	0xbf09f6ee	-0.5389241
85	0x3ff4df09	1.9130565
86	0xc076dd72	-3.857266
87	0xbeee4b14	-0.46541655
88	0x3fbce262	1.4756587
89	0x3f863bc7	1.0486993
90	0x3f916a27	1.136052
91	0xbfc3acbe	-1.5287092
92	0x3fae8a45	1.3635947
93	0x3f1e7fb4	0.6191361
94	0xbf3f04cc	-0.74616694
95	0xc04890d8	-3.1338406
96	0x3f87e6ca	1.0617306
97	0x3effb8b0	0.49945593
98	0xbfeda1f0	-1.8565044
99	0xbf38a7a6	-0.7213081
100	0xbf888ff3	-1.066893
101	0xc0701805	-3.751466
102	0xc0585b75	-3.380582
103	0xbec71cc9	-0.3888915
104	0xc02eeabf	-2.7330778
105	0xbe88c8de	-0.2671575
106	0xbfa95397	-1.3228635
107	0x402d2f4e	2.7060122
108	0x403ac271	2.9181178
109	0xbf5ebfe4	-0.8701155
110	0x3faa390b	1.3298658
111	0xc027826e	-2.6173358
112	0x40013a2b	2.0191753
113	0x3f0ea56e	0.55721176
114	0xc083cdb2	-4.1188593
115	0xbf6a61cc	-0.91555476
116	0x3fcbd649	1.592477
117	0xc033afae	-2.8075976
118	0x3fa75fde	1.3076131
119	0x3fc3bff1	1.5292951
120	0xc007e3ff	-2.1232908
121	0x3f9e8dc9	1.2387019
122	0x3ff9c16b	1.9512151
123	0x3e1b01d8	0.15137422
124	0x3fb744f0	1.4317913
125	0xbe3ebd0a	-0.186268
126	0xbef08a6e	-0.46980613
127	0x3eb4c727	0.3530819
128	0x3f664ff9	0.8996578
129	0xbfa6f796	-1.3044307
130	0x3fb70b15	1.4300257
131	0xc003718b	-2.053805
132	0xbeaf648f	-0.34256408
133	0xbfdbcaa1	-1.7171212
134	0x3b4826f1	0.003054079
135	0x403ffa5a	2.9996552
136	0xc00379b3	-2.054303
137	0x3d944a33	0.07240715
138	0x3fffa509	1.997224
139	0xbf8e1542	-1.1100237
140	0x404f935a	3.2433686
141	0x4010eaf3	2.2643402
142	0x3e997758	0.29973865
143	0xbf195cf8	-0.59907484
144	0x400338c3	2.0503395
145	0xbfd88e62	-1.6918452
146	0xbf3a7087	-0.72827953
147	0xc02f9434	-2.7434206
148	0x3e52a281	0.20569803
149	0x40589320	3.3839798
150	0x40051358	2.0793056
151	0x3ff40b73	1.9065994
152	0xc01158d2	-2.2710462
153	0xbe1b6381	-0.15174676
154	0x40618608	3.5238056
155	0x3fe8a813	1.8176292
156	0xbfa0e94e	-1.2571199
157	0xbf911ca9	-1.1336871
158	0x3f0e3567	0.55550236
159	0x403981c1	2.8985445
160	0x402e2836	2.7212043
161	0xc056f393	-3.3586166
162	0x3f2b1f39	0.66844517
163	0xbd844d98	-0.06460112
164	0xbfb46374	-1.4092851
165	0xbf7ac795	-0.9796079
166	0xc03c0336	-2.937696
167	0xbfca03e3	-1.5782436
168	0x3fd02ca4	1.6263623
169	0x3f269f4f	0.65086836
170	0x4055b379	3.3390791
171	0x3e658e75	0.22417624
172	0x3f9b2897	1.2121762
173	0x40082246	2.127092
174	0x3f095f5d	0.5366114
175	0xc053653f	-3.3030546
176	0x3ff323c3	1.8995289
177	0x3f220f60	0.6330471
178	0xc01950cf	-2.3955572
179	0x3deb6a77	0.11494916
180	0x40150aa8	2.3287754
181	0xbe95978c	-0.29217184
182	0xbf83ef88	-1.0307474
183	0x3ff3dae5	1.9051176
184	0xbea97f2b	-0.33104834
185	0xbf2cd9fe	-0.6752013
186	0xbfd8b8b6	-1.6931369
187	0x3e7695cb	0.24080579
188	0x40430e1b	3.047736
189	0xbfb9d385	-1.4517676
190	0x3fb3e28e	1.4053514
191	0xc0119124	-2.2744837
192	0x3fa03c47	1.2518395
193	0xc07af405	-3.9211438
194	0x3f3378d0	0.7010622
195	0xc06b47de	-3.6762614
196	0x3ff13e43	1.8847126
197	0xc00a6150	-2.1621895
198	0xbfa5b6bc	-1.2946391
199	0xbf4349c1	-0.76284415
200	0x3e8a0d29	0.26963165
201	0xbf28af15	-0.65892154
202	0xc03e67d4	-2.9750872
203	0x3f3e38c5	0.74305373
204	0x3ff4c514	1.9122643
205	0x40b30fbb	5.59567
206	0xc0096d32	-2.1472898
207	0x40820614	4.063242
208	0xbf0121f4	-0.50442433
209	0x3e8d4328	0.275903
210	0xc0aac6de	-5.336776
211	0xc01c36cc	-2.4408445
212	0x3e6ce503	0.23134236
213	0x3ee0fcfe	0.43943018
214	0xc03b2eec	-2.924739
215	0xc03f21a9	-2.9864295
216	0xbfb51a8c	-1.4148726
217	0x4026bbbe	2.6052089
218	0x3e5d1142	0.21588615
219	0x3f13b6aa	0.577006
220	0xc029855d	-2.6487648
221	0xbfa02ce6	-1.2513702
222	0xbe8057d4	-0.25067008
223	0x3ee31caa	0.44357806
224	0x4035b680	2.839264
225	0xbe9a7bac	-0.3017248
226	0xbfceddcf	-1.6161441
227	0xbf6d4bfe	-0.9269408
228	0x3f55af94	0.83471036
229	0xbf8d6f5e	-1.1049612
230	0x3ec8bd8c	0.39207113
231	0xc0129447	-2.2903001
232	0xbfa7e2e8	-1.3116121
233	0xbf905c8d	-1.1278244
234	0x405bb1c9	3.4327261
235	0xbefa327e	-0.48866647
236	0xc0102d8a	-2.2527795
237	0x3f39f1f2	0.72634804
238	0xbef79db9	-0.4836252
239	0x3fb062d9	1.3780166
240	0x3c826980	0.015919447
241	0x408996be	4.299651
242	0x3f93dd42	1.1551898
243	0x3fb53a51	1.4158422
244	0xbff10351	-1.8829137
245	0x3e74d15c	0.2390799
246	0x3edc4bd0	0.4302659
247	0x40acc2fb	5.3988013
248	0x3f7dc299	0.9912506
249	0x3f1847e0	0.5948467
250	0xc082db09	-4.0892377
251	0xbc09fe7f	-0.008422493
252	0x405bb7c0	3.4330902
253	0xbe22f6e8	-0.159145
254	0x3f5e5ff4	0.8686516
255	0xc0421246	-3.0323653

layer2.bias f4 [16]
0	0x00000000	0.0
1	0x00000000	0.0
2	0x00000000	0.0
3	0x00000000	0.0
4	0x00000000	0.0
5	0x00000000	0.0
6	0x00000000	0.0
7	0x00000000	0.0
8	0x00000000	0.0
9	0x00000000	0.0
10	0x00000000	0.0
11	0x00000000	0.0
12	0x00000000	0.0
13	0x00000000	0.0
14	0x00000000	0.0
15	0x00000000	0.0

layer3.weight f4 [16, 16]
0	0xbfe572f6	-1.7925708
1	0xbff851f2	-1.9400008
2	0x404477cc	3.0698118
3	0xbfcc5a76	-1.5965106
4	0x4054e7a3	3.326638
5	0x3ea8116f	0.328258
6	0x40103ca1	2.2537005
7	0x3f9d5728	1.2292223
8	0x3e4d2223	0.20032553
9	0xbe55466e	-0.20827648
10	0xbfaa166d	-1.3288094
11	0x3ecf6996	0.40510243
12	0x3fe43808	1.7829599
13	0xbf70548f	-0.93879026
14	0xbfe2f500	-1.7731018
15	0xbfc8a6c8	-1.5675898
16	0x401d2c75	2.4558384
17	0xbf2cb3c4	-0.674618
18	0x404e08a6	3.2192779
19	0x3f80cd4a	1.0062649
20	0x402b329c	2.674964
21	0x3f93568f	1.151079
22	0x3f81d432	1.0142882
23	0xc00f8214	-2.2423143
24	0x3ffdcd7e	1.9828336
25	0x4005dc39	2.0915663
26	0xbff707ac	-1.9299216
27	0xbe9d7229	-0.3075116
28	0xbfb34366	-1.4004943
29	0xc084fa14	-4.155527
30	0x3f4476f6	0.7674402
31	0xbf8bf7e8	-1.093503
32	0xc003af55	-2.0575764
33	0xbfca38c2	-1.5798571
34	0x3fbbefc5	1.4682547
35	0x3e7c9784	0.24667174
36	0x3fa4921f	1.2857093
37	0xbffb1d14	-1.9618249
38	0xbf260072	-0.6484443
39	0xc00d4748	-2.2074757
40	0xbf0b60cc	-0.54444575
41	0x40c87cc7	6.2652316
42	0xbdda4ddd	-0.106593825
43	0xbfbd2d16	-1.4779384
44	0x400e5d4a	2.224444
45	0xc0bc1090	-5.877022
46	0x3e88af6f	0.26696345
47	0x3f92eb5f	1.147808
48	0x3fa74121	1.3066751
49	0x402d9772	2.7123685
50	0x3f444906	0.76673925
51	0x3fa1a339	1.2627937
52	0x40025548	2.0364552
53	0xc00e6d6e	-2.225429
54	0xbf6cc4d1	-0.9248782
55	0x3f903bfa	1.1268303
56	0x402d4fc7	2.7079942
57	0xbf8c7c3e	-1.0975416
58	0x3f9c2ab7	1.2200536
59	0xc0379d60	-2.8689804
60	0xbfe5684c	-1.7922454
61	0x3e33f986	0.17575654
62	0x400c0418	2.1877499
63	0x3fa34a1b	1.275699
64	0x3f8e8d1a	1.1136811
65	0xbfc3b7dd	-1.5290486
66	0xbea69353	-0.32534274
67	0xbf8bffb0	-1.0937405
68	0xbfd20cbd	-1.6410137
69	0xc00bc66b	-2.1839855
70	0xbfd27c26	-1.6444137
71	0xbfa7427c	-1.3067164
72	0x3ec33002	0.38122565
73	0x401c1a74	2.4391146
74	0xbf861332	-1.0474608
75	0xc01725bc	-2.3616781
76	0x401d5745	2.4584515
77	0x4081b505	4.053347
78	0xbfd71ce9	-1.6805698
79	0xbf4a2e1b	-0.789766
80	0xbe5bcf65	-0.21465833
81	0x3ee86ad1	0.45393994
82	0x3ff341fa	1.900451
83	0x402a367d	2.6595757
84	0xbf9bd538	-1.2174444
85	0xbec085de	-0.37602133
86	0x4091f3d9	4.5610166
87	0xc051f22c	-3.280406
88	0x3fbe4b14	1.4866662
89	0x40600e96	3.5008903
90	0xbd9980af	-0.074952476
91	0x3d7c96b5	0.061667163
92	0xc0093b0b	-2.1442287
93	0xbf87d4de	-1.0611837
94	0xbe8a6adf	-0.2703466
95	0xbf9c03f6	-1.2188709
96	0x3fb3eb0c	1.4056106
97	0x40718cb0	3.774212
98	0xc0031332	-2.0480466
99	0x3de5c33e	0.1121888
100	0x40701624	3.7513514
101	0x3fbeeca6	1.4915969
102	0xc0005290	-2.0050392
103	0xbf7101bf	-0.9414329
104	0x4009cba1	2.1530535
105	0xbfc85e54	-1.5653787
106	0x402876e2	2.632256
107	0xc00170d3	-2.0225112
108	0x400df223	2.2179039
109	0x3ecb3b21	0.3969355
110	0xbfdd9184	-1.7310033
111	0xbf753797	-0.9578795
112	0xc0113e34	-2.2694216
113	0x3e6de08d	0.2323019
114	0xbf7985be	-0.974697
115	0x3f719d9f	0.94381136
116	0x402662cd	2.5997803
117	0xc003b286	-2.0577712
118	0xbef963a2	-0.48708826
119	0x3f8325cd	1.0245911
120	0x408bff09	4.374882
121	0xc027416a	-2.6133676
122	0xbf04344d	-0.51642305
123	0xbfb63bed	-1.4237038
124	0x402e8873	2.7270782
125	0xc0118968	-2.2740116
126	0x3f45bfe4	0.77245927
127	0x3fdb8167	1.7148865
128	0xc087a557	-4.238933
129	0x3f9e69cc	1.2376037
130	0xbf4d0c7f	-0.8009719
131	0xc071ea0f	-3.7799108
132	0x3fd6fb29	1.6795398
133	0x3f4580b3	0.77149504
134	0x4011d88a	2.2788415
135	0xc00f44db	-2.2385776
136	0x4055bcd7	3.3396509
137	0x3f65228f	0.8950586
138	0xc08258bc	-4.073332
139	0x3ffdeec7	1.9838494
140	0xc0042ee6	-2.0653625
141	0xbf1fd966	-0.624411
142	0x3f0e1439	0.5549961
143	0x40b88d1e	5.767226
144	0x3f2d464f	0.6768541
145	0xbf392daf	-0.7233533
146	0xbf2044ce	-0.6260499
147	0xc03928ff	-2.8931272
148	0x3e4578b9	0.19284333
149	0xbf2cbac5	-0.6747249
150	0x3f9f5565	1.2447935
151	0xc0758909	-3.836489
152	0xbfb30da7	-1.3988541
153	0xbf773b89	-0.9657522
154	0xc04cf5f3	-3.2025115
155	0xbf6524c9	-0.89509255
156	0xbe29b876	-0.16574273
157	0xbeeb9827	-0.4601452
158	0xbfccd154	-1.6001382
159	0x3f88878d	1.0666367
160	0x3ffe7d73	1.9882034
161	0x40a2d392	5.0883265
162	0xbf8c0aab	-1.0940756
163	0xbe863d54	-0.26218665
164	0x3e00dd77	0.12584482
165	0xbfc3cd48	-1.5297022
166	0x40501891	3.2514994
167	0x3fb7c53b	1.4357065
168	0xbe27c4a4	-0.16383606
169	0x3f8ab6c8	1.083703
170	0xbffe11f8	-1.9849234
171	0x40657381	3.5851748
172	0x3e572d6b	0.2101342
173	0x3e2d61d0	0.16931844
174	0xc002c6de	-2.043388
175	0x3e3e1a03	0.1856461
176	0xc02839e2	-2.628533
177	0x4004fb96	2.0778556
178	0xbf4eb29d	-0.8074129
179	0xbfffd755	-1.9987589
180	0xbf71b17a	-0.9441143
181	0xbe2ef090	-0.17083955
182	0xbf977492	-1.183245
183	0xbeebf82a	-0.46087772
184	0xbf2f8ad2	-0.685712
185	0xc04248bf	-3.03569
186	0x3e881f35	0.2658631
187	0x40809d57	4.0192065
188	0xbfd65a45	-1.6746298
189	0x3f35962e	0.7093228
190	0x3f5e7fb2	0.869136
191	0x3e1d3f17	0.15356098
192	0xbe6bff5e	-0.23046634
193	0xbf6bb6c7	-0.9207577
194	0xbf3cf84e	-0.7381638
195	0x3f773bbb	0.96575516
196	0xc084cb58	-4.149822
197	0xc00b20de	-2.173881
198	0x3f479d9a	0.77974856
199	0xbf3d9ad4	-0.74064374
200	0x400c1165	2.1885617
201	0x3f611393	0.8792049
202	0x3e0eebe5	0.13957174
203	0x40664e3c	3.598525
204	0xc0261ca2	-2.5954976
205	0x3e421d1b	0.18956415
206	0xbf40da11	-0.7533274
207	0x3ebfb8dc	0.37445724
208	0xbf8ec391	-1.1153432
209	0x3f8d1134	1.1020875
210	0xc0d65b1b	-6.6986213
211	0xc04979f3	-3.1480682
212	0xbf35fade	-0.7108592
213	0xbfb9b097	-1.4507016
214	0x3f878e46	1.0590293
215	0xc0183f5f	-2.3788679
216	0xbef8fe55	-0.4863154
217	0xc034b3e4	-2.8234797
218	0xbf95ee57	-1.171336
219	0xbffea333	-1.9893554
220	0x3e9be0da	0.30444986
221	0x3fd8a4bd	1.6925274
222	0x3f0d022b	0.55081433
223	0xc06f1789	-3.7358115
224	0x408005f8	4.0007286
225	0x4065ac73	3.5886505
226	0xbfb7ab84	-1.4349217
227	0xc0862d07	-4.1929965
228	0x3ecaef19	0.39635542
229	0xbf5ccf4c	-0.8625381
230	0x40771682	3.8607488
231	0xc044c997	-3.074804
232	0xbf684eea	-0.90745413
233	0x3fbb685c	1.4641223
234	0xbfb19b6e	-1.3875558
235	0xbf64bc8c	-0.893502
236	0xbf1cc705	-0.6124118
237	0xbc21aede	-0.009868352
238	0x3ebf1e89	0.37327984
239	0x3e3b02a3	0.18262725
240	0x4040277f	3.0024107
241	0xbffc2549	-1.9698879
242	0x400c2147	2.189531
243	0xc044bdf8	-3.0740948
244	0xc082f12f	-4.0919414
245	0x3e8187a5	0.252988
246	0x3f958381	1.1680757
247	0x4054841c	3.3205633
248	0xbef89c1b	-0.485566
249	0xc02dfe24	-2.7186365
250	0x3fd3ce9e	1.654743
251	0xc084be53	-4.148233
252	0x3e9c22f8	0.3049543
253	0x3f9fb18b	1.2476057
254	0xbe6bc047	-0.23022567
255	0x3e41238d	0.18861218

layer3.bias f4 [16]
0	0x00000000	0.0
1	0x00000000	0.0
2	0x00000000	0.0
3	0x00000000	0.0
4	0x00000000	0.0
5	0x00000000	0.0
6	0x00000000	0.0
7	0x00000000	0.0
8	0x00000000	0.0
9	0x00000000	0.0
10	0x00000000	0.0
11	0x00000000	0.0
12	0x00000000	0.0
13	0x00000000	0.0
14	0x00000000	0.0
15	0x00000000	0.0

out_layer.weight f4 [3, 16]
0	0xc05bed32	-3.4363523
1	0xbf3c61db	-0.73586816
2	0x405e11b6	3.469831
3	0xbf6d012e	-0.92579925
4	0xc0041f94	-2.0644274
5	0xbeed26df	-0.4631872
6	0x40328c2d	2.7898057
7	0xbfff9132	-1.9966185
8	0xbf023ad8	-0.5087104
9	0xbf6655a8	-0.8997445
10	0xbf921139	-1.1411506
11	0xbfdd0d61	-1.7269708
12	0xbf2f87e1	-0.6856671
13	0xbe8dd308	-0.27700067
14	0xbe8e2490	-0.2776227
15	0xbd9facef	-0.07796656
16	0x3ff75cf6	1.9325244
17	0x40c00a42	6.001252
18	0x3fd914af	1.6959437
19	0x40160c5b	2.344504
20	0xbf8cfd74	-1.1014848
21	0x3f1335c0	0.5750389
22	0x3f080e30	0.5314665
23	0x403c868b	2.9457119
24	0x3f373c4f	0.715764
25	0xbb48f924	-0.0030666078
26	0xc02eb37e	-2.7297053
27	0x400b79f5	2.1793187
28	0x3f686745	0.90782577
29	0x3f8743db	1.0567583
30	0xc0bc0781	-5.875916
31	0xbe635764	-0.22201306
32	0xbfb7a472	-1.434706
33	0x401183c0	2.2736664
34	0x3df7ab51	0.12093223
35	0x3ea9ae01	0.33140567
36	0x3f9169bc	1.1360393
37	0x3e0a26c4	0.1349135
38	0xbf188d39	-0.5959049
39	0x3fd46412	1.6593039
40	0xbfe36374	-1.7764726
41	0xc086d08f	-4.212959
42	0xbeda2752	-0.42608124
43	0xbeda3e59	-0.42625692
44	0xbfc789bf	-1.5588912
45	0x4049cd18	3.153143
46	0x3f9bdcf7	1.2176808
47	0x3f3f39fa	0.7469784

out_layer.bias f4 [3]
0	0x00000000	0.0
1	0x00000000	0.0
2	0x00000000	0.0
