src/ckpt/MountainCar-v0/indiv_53.pt (torch_old, 3954 bytes, 8 tensors)

layer1.weight f4 [16, 2]
000000 c4 37 e9 bf 52 38 1d bf 65 39 2f c0 8b 3f 9a c0
       -1.8220143 -0.6141406 -2.737878 -4.8202567
000010 df 0d 4a c0 96 e5 fb 3f 42 22 cd 3e fe 50 b7 40
       -3.1570966 1.9679439 0.400652 5.7286367
000020 70 ce 26 3e 57 aa 0a c0 45 4e cd bf c3 12 38 bf
       0.16289687 -2.1666467 -1.6039511 -0.7190363
000030 69 c6 b9 bf 27 49 c2 3f 82 9b 08 bf be 05 b4 3e
       -1.4513675 1.5178574 -0.53362286 0.3516063
000040 72 f4 b7 3f 71 55 a6 3e df a3 26 3d f9 57 72 c0
       1.4371474 0.32487062 0.040683623 -3.7866194
000050 26 42 36 40 84 c6 97 3f ca 2a 87 bf fa 38 90 bf
       2.8477874 1.1857457 -1.0559933 -1.1267388
000060 2a 7c 40 3e 5f 8c c0 bf 34 ec b2 3f 3f 3b c2 bf
       0.18797365 -1.5042838 1.3978333 -1.517433
000070 32 89 98 bf 03 f7 7b 40 a7 4d ca bf 16 e9 60 3f
       -1.1916869 3.9369514 -1.5804948 0.8785566

layer1.bias f4 [16]
000000 00 00 00 00 00 00 00 00 00 00 00 00 00 00 00 00
       0.0 0.0 0.0 0.0
000010 00 00 00 00 00 00 00 00 e5 19 40 3f 00 00 00 00
       0.0 0.0 0.7503951 0.0
000020 00 00 00 00 00 00 00 00 00 00 00 00 00 00 00 00
       0.0 0.0 0.0 0.0
000030 00 00 00 00 00 00 00 00 00 00 00 00 00 00 00 00
       0.0 0.0 0.0 0.0

layer2.weight f4 [16, 16]
000000 b2 e0 56 bf 25 b7 3a bf d4 20 95 3f 6f 5e 2c 40
       -0.8393661 -0.72935706 1.1650643 2.6932638
000010 46 de c5 3f 78 5b d3 bf 72 68 8b bf 3a 0d 6a 40
       1.5458457 -1.6512289 -1.0891249 3.6570573
000020 d6 77 d1 3f c3 b7 6f bf a4 3a 13 40 ee 73 1b bf
       1.6364696 -0.93639773 2.3004541 -0.6072377
000030 e0 9b 0f 3f 99 dc 66 bd 72 53 af 3e 39 54 cc 3f
       0.5609722 -0.056362722 0.3424335 1.5963203
000040 4c 32 dd 3f 6e 0c 8b bf 02 f0 72 3f 4f 79 72 40
       1.7280974 -1.0863168 0.9489747 3.788654
000050 63 0d 8d c0 f2 36 f9 3e 93 a9 50 c0 1d 35 90 bf
       -4.407884 0.48674732 -3.26035 -1.1266209
000060 57 bf 31 c0 e9 c2 11 40 e7 3f 0d 3f 7e 18 cf bf
       -2.7773035 2.2775214 0.5517563 -1.617935
000070 22 35 e4 3f 47 de e3 3e 73 6c c2 bd 40 c3 69 be
       1.7828715 0.44505522 -0.09493341 -0.22828388
000080 81 a3 44 40 7e 62 06 c0 f7 26 fb bf f9 df 00 bf
       3.0724795 -2.0997615 -1.9621266 -0.50341755
000090 d1 d8 d7 be e0 3a a3 bf ca 76 1e 40 7f 7b e8 3f
       -0.42157605 -1.2752342 2.4760003 1.8162688
0000a0 94 d5 00 bf ff 34 9e bf df e1 7c 3f 0a 41 d7 be
       -0.50325894 -1.2359923 0.9878215 -0.42041808
0000b0 00 70 4a 40 85 d5 9b 3f bb 6f f5 bf ed 4b 79 3f
       3.163086 1.2174536 -1.9174722 0.9738148
0000c0 5e df 63 3f c6 50 9d bf c0 a2 0d c0 ce 7c 16 3f
       0.89012706 -1.2290275 -2.2130585 0.58784187
0000d0 09 29 4d 3f f3 af 09 40 e7 73 2d bf 59 04 0e 3f
       0.8014074 2.151364 -0.6775498 0.55475384
0000e0 2a 5a 8e 3e a2 4c 3a c0 35 9d d8 bf b8 b1 b4 be
       0.27803165 -2.9109273 -1.6922976 -0.3529184
0000f0 9e ef d7 3f b2 57 93 bf de 61 56 3e 18 94 af bd
       1.687 -1.1511137 0.20935771 -0.085731685
000100 97 bb b2 3e 4e ba af 40 18 d9 a0 be b8 19 88 3f
       0.34908745 5.4914923 -0.3141563 1.0632849
000110 6b 94 d8 be 8e de 2c 40 d5 79 da be 22 c4 93 3f
       -0.42300734 2.7010837 -0.42671075 1.154423
000120 b5 3a fb 3e 1b eb e1 bf 9c df cb be 5f 8e 9b bd
       0.49068227 -1.7649873 -0.39819038 -0.075955145
000130 af f5 26 3e 84 c2 b3 3f 0c a0 e5 be 7a e4 1f c0
       0.16304658 1.4043736 -0.4484867 -2.49832
000140 4c 8c 60 bf 5c bc 80 bf 2c 1b 27 bf 1e 8c 01 c0
       -0.87714076 -1.0057483 -0.65275836 -2.024177
000150 ee f6 09 bf 09 df f4 3f 82 1e fc 3d 14 4b ee be
       -0.5389241 1.9130565 0.123105064 -0.46541655
000160 02 b9 b9 3e c7 3b 86 3f 27 6a 91 3f 12 aa 75 3f
       0.36273962 1.0486993 1.136052 0.9596263
000170 45 8a ae 3f b4 7f 1e 3f cc 04 3f bf d8 90 48 c0
       1.3635947 0.6191361 -0.74616694 -3.1338406
000180 6d e6 80 3f b0 b8 ff 3e 47 cb 83 3f a6 a7 38 bf
       1.007032 0.49945593 1.029641 -0.7213081
000190 f3 8f 88 bf 05 18 70 c0 c2 7b 08 c0 c9 1c c7 be
       -1.066893 -3.751466 -2.1325536 -0.3888915
0001a0 e2 28 42 3e 04 00 b6 3f 97 53 a9 bf 2b 9d da 3f
       0.18960908 1.4218755 -1.3228635 1.7079214
0001b0 71 c2 3a 40 e4 bf 5e bf 0b 39 aa 3f 6e 82 27 c0
       2.9181178 -0.8701155 1.3298658 -2.6173358
0001c0 cb 51 87 3e 6e a5 0e 3f c9 d3 21 40 cc 61 6a bf
       0.2642959 0.55721176 2.5285513 -0.91555476
0001d0 49 d6 cb 3f ae af 33 c0 f8 07 92 3c f1 bf c3 3f
       1.592477 -2.8075976 0.017826065 1.5292951
0001e0 7f c2 6c 3e c9 8d 9e 3f 6b c1 f9 3f c2 9e 94 be
       0.2312107 1.2387019 1.9512151 -0.29027373
0001f0 f0 44 b7 3f 0a bd 3e be 6e 8a f0 be 27 c7 b4 3e
       1.4317913 -0.186268 -0.46980613 0.3530819
000200 80 64 00 40 96 f7 a6 bf bf 93 85 3f 8b 71 03 c0
       2.006134 -1.3044307 1.0435714 -2.053805
000210 8f 64 af be a1 ca db bf 57 25 55 40 5a fa 3f 40
       -0.34256408 -1.7171212 3.330404 2.9996552
000220 2e 0a 07 bf 33 4a 94 3d 09 a5 ff 3f 62 2a 8b 3f
       -0.5274991 0.07240715 1.997224 1.0872309
000230 5a 93 4f 40 f3 ea 10 40 58 77 99 3e 6b 66 10 c0
       3.2433686 2.2643402 0.29973865 -2.256251
000240 48 8e e4 bf 62 8e d8 bf 76 b6 70 be 34 94 2f c0
       -1.7855921 -1.6918452 -0.23507103 -2.7434206
000250 81 a2 52 3e 20 93 58 40 7f c0 1a 40 73 0b f4 3f
       0.20569803 3.3839798 2.417999 1.9065994
000260 dd ae ef bf 81 63 1b be 08 86 61 40 e7 d6 46 c0
       -1.8725239 -0.15174676 3.5238056 -3.1068666
000270 4e e9 a0 bf a9 1c 91 bf 67 35 0e 3f c1 81 39 40
       -1.2571199 -1.1336871 0.55550236 2.8985445
000280 04 5c 7a 3f 93 f3 56 c0 92 b8 ce bf 98 4d 84 bd
       0.97796655 -3.3586166 -1.6150076 -0.06460112
000290 74 63 b4 bf 95 c7 7a bf 32 44 5b bf e3 03 ca bf
       -1.4092851 -0.9796079 -0.8565093 -1.5782436
0002a0 0e 83 b0 3e 4f 9f 26 3f 79 b3 55 40 d1 42 ef bf
       0.34474987 0.65086836 3.3390791 -1.8692266
0002b0 97 28 9b 3f 46 22 08 40 5d 5f 09 3f 3f 65 53 c0
       1.2121762 2.127092 0.5366114 -3.3030546
0002c0 92 42 7e be 60 0f 22 3f af cd 9c bf 77 6a eb 3d
       -0.24830082 0.6330471 -1.225027 0.11494916
0002d0 a8 0a 15 40 8c 97 95 be 59 7c c3 3f e5 da f3 3f
       2.3287754 -0.29217184 1.5272323 1.9051176
0002e0 ce 69 c9 3f fe d9 2c bf b6 b8 d8 bf d0 cd 62 c0
       1.5735414 -0.6752013 -1.6931369 -3.5438118
0002f0 1b 0e 43 40 85 d3 b9 bf 8e e2 b3 3f 24 91 11 c0
       3.047736 -1.4517676 1.4053514 -2.2744837
000300 50 01 97 bf 05 f4 7a c0 bf d3 c1 bf de 47 6b c0
       -1.1797276 -3.9211438 -1.5142745 -3.6762614
000310 43 3e f1 3f 50 61 0a c0 63 00 e6 bf c1 49 43 bf
       1.8847126 -2.1621895 -1.7968868 -0.76284415
000320 3b 98 0d c0 15 af 28 bf 81 82 99 c0 c7 72 51 40
       -2.2124164 -0.65892154 -4.7971807 3.2726305
000330 14 c5 f4 3f bb 0f b3 40 32 6d 09 c0 14 06 82 40
       1.9122643 5.59567 -2.1472898 4.063242
000340 7d db fb bf 28 43 8d 3e e9 35 09 3e cc 36 1c c0
       -1.9676358 0.275903 0.13399471 -2.4408445
000350 03 e5 6c 3e fe fc e0 3e f7 02 6d be a9 21 3f c0
       0.23134236 0.43943018 -0.23145662 -2.9864295
000360 54 fc 9a 3f be bb 26 40 f1 4c c7 bf 1f 50 49 3f
       1.2108254 2.6052089 -1.5570356 0.7863788
000370 5d 85 29 c0 e6 2c a0 bf d4 57 80 be aa 1c e3 3e
       -2.6487648 -1.2513702 -0.25067008 0.44357806
000380 8b 69 4a bf ac 7b 9a be 7e 1f f0 bf fe 4b 6d bf
       -0.79067296 -0.3017248 -1.8759611 -0.9269408
000390 94 af 55 3f 5e 6f 8d bf 28 d8 69 c0 47 94 12 c0
       0.83471036 -1.1049612 -3.6538181 -2.2903001
0003a0 df 70 23 c0 8d 5c 90 bf c9 b1 5b 40 ec bc 61 3f
       -2.553764 -1.1278244 3.4327261 0.88178897
0003b0 8a 2d 10 c0 f2 f1 39 3f b9 9d f7 be d9 62 b0 3f
       -2.2527795 0.72634804 -0.4836252 1.3780166
0003c0 04 f8 ba be be 96 89 40 e9 9f 78 3f 51 3a b5 3f
       -0.36517346 4.299651 0.97119004 1.4158422
0003d0 51 03 f1 bf 5c d1 74 3e 3e e7 99 3f fb c2 ac 40
       -1.8829137 0.2390799 1.2023695 5.3988013
0003e0 d7 a9 34 40 e0 47 18 3f 09 db 82 c0 c5 81 a5 3f
       2.8228662 0.5948467 -4.0892377 1.2930228
0003f0 c0 b7 5b 40 e8 f6 22 be f4 5f 5e 3f 46 12 42 c0
       3.4330902 -0.159145 0.8686516 -3.0323653

layer2.bias f4 [16]
000000 00 00 00 00 00 00 00 00 00 00 00 00 00 00 00 00
       0.0 0.0 0.0 0.0
000010 00 00 00 00 00 00 00 00 00 00 00 00 00 00 00 00
       0.0 0.0 0.0 0.0
000020 00 00 00 00 00 00 00 00 00 00 00 00 00 00 00 00
       0.0 0.0 0.0 0.0
000030 00 00 00 00 00 00 00 00 00 00 00 00 00 00 00 00
       0.0 0.0 0.0 0.0

layer3.weight f4 [16, 16]
000000 f6 72 e5 bf bc 87 97 bf cc 77 44 40 08 51 43 3d
       -1.7925708 -1.1838298 3.0698118 0.0476847
000010 32 45 c8 3e e6 53 6f 3e 5f d5 09 c0 0e 19 d1 3f
       0.39115292 0.23371848 -2.1536481 1.6335771
000020 f9 45 3d 3e 4c a5 bc bf 3f 6a d3 3d 96 69 cf 3e
       0.18483724 -1.4737945 0.10322999 0.40510243
000030 ce 99 4d be ab 1c 0e 40 00 f5 e2 bf 0c a6 d2 3f
       -0.20078203 2.2204998 -1.7731018 1.6456923
000040 75 2c 1d 40 a5 8a 6f 40 a6 08 4e 40 a1 26 01 bf
       2.4558384 3.7428372 3.2192779 -0.5044957
000050 d6 e6 ed 3e 04 b0 77 be 49 13 92 c0 1f 8b e9 3e
       0.46465176 -0.24188238 -4.564854 0.45613953
000060 90 d8 91 bf c5 a7 93 3d d5 da 2f c0 29 72 9d be
       -1.1394215 0.07209734 -2.7477314 -0.3075116
000070 ec c1 17 c0 e5 86 1d 40 f6 76 44 3f 1a 1a 80 40
       -2.371211 2.4613583 0.7674402 4.003186
000080 55 af 03 c0 c0 cc 93 bf c5 ef bb 3f 12 e4 d5 3f
       -2.0575764 -1.154686 1.4682547 1.6710227
000090 c3 21 e9 3f 79 fb 8c 3f de 1d 4d bf ed cc 75 c0
       1.8213428 1.1014243 -0.801237 -3.8406327
0000a0 c4 40 3a 40 0e 3c 8c 40 b3 69 cc 3f 16 2d bd bf
       2.910203 4.382331 1.5969757 -1.4779384
0000b0 09 a4 c7 3f 36 1f db bf 6f af 88 3e 42 d0 bb 3f
       1.5596935 -1.71189 0.26696345 1.467293
0000c0 21 41 a7 3f 01 0f 0e 40 06 49 44 3f c4 6c e5 bf
       1.3066751 2.2196658 0.76673925 -1.7923818
0000d0 ca 6d b8 bf bb 17 6d bf e8 02 55 40 34 05 c5 bf
       -1.4408505 -0.92614335 3.3283024 -1.5392213
0000e0 71 b8 1b 40 98 e5 04 3d aa 4d f8 be 60 9d 37 c0
       2.4331324 0.03244552 -0.48496753 -2.8689804
0000f0 bc 1e c0 bf 59 9e 81 3f 18 04 0c 40 02 a8 31 bf
       -1.5009379 1.0126449 2.1877499 -0.69396985
000100 1a 8d 8e 3f 84 83 59 40 53 93 a6 be ae 94 1a bf
       1.1136811 3.398652 -0.32534274 -0.6038312
000110 47 21 3d bd 9c cf 59 c0 40 57 95 3f 87 10 18 3f
       -0.046174314 -3.4032965 1.1667252 0.5940022
000120 95 68 1d c0 14 56 33 c0 66 c8 58 3f bc 25 17 c0
       -2.4595082 -2.8021288 0.84680784 -2.3616781
000130 64 b6 91 bf 62 f2 10 40 e9 1c d7 bf 5f 06 a4 bf
       -1.1383786 2.2647939 -1.6805698 -1.2814444
000140 65 cf 5b be ae cd 1c 40 fa 41 f3 3f c0 d9 bb bf
       -0.21465833 2.4500537 1.900451 -1.4675827
000150 ac 8a 55 40 61 a1 f2 be 5a d8 6f 3f 7e c5 2e 40
       3.3365889 -0.47388747 0.936895 2.730804
000160 89 75 27 c0 48 46 bc bf b7 d3 18 c0 b5 96 7c 3d
       -2.6165488 -1.4708948 -2.387922 0.061667163
000170 1a fa 10 40 c4 c8 40 c0 df 6a 8a be d5 76 15 c0
       2.265265 -3.0122538 -0.2703466 -2.335378
000180 0c eb b3 3f 07 68 a1 3b 32 13 03 c0 eb 08 24 40
       1.4056106 0.004925731 -2.0480466 2.5630443
000190 88 92 be bf 19 3a 36 40 d0 ed 48 c0 19 7d 57 c0
       -1.4888468 2.847296 -3.139515 -3.3670104
0001a0 d3 e8 7a bf c8 68 fb bd 47 68 2c c0 d3 70 01 c0
       -0.9801151 -0.12275845 -2.6938646 -2.0225112
0001b0 16 55 81 bf 33 d3 29 40 84 91 dd bf ad 82 da bf
       -1.0104091 2.6535156 -1.7310033 -1.7071129
0001c0 34 3e 11 c0 0f c9 5e 3e be 85 79 bf e9 fd 07 40
       -2.2694216 0.21756385 -0.974697 2.1248724
0001d0 87 45 3d c0 57 40 80 40 d1 b6 ca 3f 4b 14 ef 3f
       -2.9573686 4.007854 1.5837041 1.8678068
0001e0 2e 87 13 40 91 c8 17 bf 57 47 e5 3e ed 3b b6 bf
       2.3051257 -0.59290415 0.4478099 -1.4237038
0001f0 fd 3d 8c bf 8c 12 56 c0 e4 bf 45 3f 46 a5 71 3f
       -1.0956417 -3.344882 0.77245927 0.9439281
000200 57 a5 87 c0 48 da b2 40 7f 0c 4d bf 19 f5 dc 3f
       -4.238933 5.5891457 -0.8009719 1.7262298
000210 5f b7 b2 bf 30 50 b5 bf 50 f3 09 c0 48 3f 82 40
       -1.396221 -1.4165096 -2.1554756 4.070225
000220 df d1 8d 40 e5 b1 84 3f 60 02 26 c0 c7 ee fd 3f
       4.431869 1.0366789 -2.593895 1.9838494
000230 59 3d 82 3e 1d 41 d5 be 39 14 0e 3f 63 44 20 c0
       0.2543743 -0.4165124 0.5549961 -2.504174
000240 4f 46 2d 3f 75 13 6a 3f ce 44 20 bf 01 85 9a c0
       0.6768541 0.9143594 -0.6260499 -4.828736
000250 cc 97 1d 40 d5 d2 8d 40 67 69 9d be 87 59 8c c0
       2.46239 4.4319863 -0.30744478 -4.3859286
000260 fa 1e 10 c0 1a 8d a8 3f a4 f5 dd 3f c9 24 65 bf
       -2.2518907 1.3168061 1.7340589 -0.89509255
000270 eb 47 ee bd e3 10 2a c0 54 d1 cc bf 04 1e 23 40
       -0.11634811 -2.6572807 -1.6001382 2.548707
000280 73 7d fe 3f cb 4e 0c 40 ab 0a 8c bf 27 eb 0c 40
       1.9882034 2.1923091 -1.0940756 2.2018526
000290 a6 e8 89 bf b0 a7 72 40 4b 10 b5 bf 40 ba 90 40
       -1.0774124 3.7914848 -1.4145597 4.5227356
0002a0 5c d8 5a c0 ce b1 b1 bf bc e3 bb bf 81 73 65 40
       -3.4194555 -1.3882387 -1.4678874 3.5851748
0002b0 fd b2 05 c0 fb 05 c9 bf de c6 02 c0 5d 98 be 3f
       -2.0890496 -1.570495 -2.043388 1.4890248
0002c0 0b d1 18 c0 c3 5f 8f 40 9d b2 4e bf ce 3d 00 40
       -2.387759 4.4804397 -0.8074129 2.0037723
0002d0 d3 d1 22 bf b5 39 0d 3f 5d b1 9c bf 27 2b b5 bf
       -0.63601416 0.5516618 -1.2241627 -1.4153794
0002e0 62 25 c8 bf bc 88 e2 3e 8d 0c f8 3f 57 9d 80 40
       -1.5636408 0.44244945 1.937883 4.0192065
0002f0 1c ba 45 c0 4d 47 ba bf b2 7f 5e 3f fc 89 b1 3e
       -3.0894842 -1.4553009 0.869136 0.34675586
000300 5e ff 6b be d4 05 83 be 4e f8 3c bf ba 36 80 bf
       -0.23046634 -0.25590384 -0.7381638 -1.0016701
000310 08 0c 5c bf 44 82 b5 3f bd 10 5f bf 26 71 69 3f
       -0.8595586 1.4180379 -0.87134916 0.91188276
000320 9a 7d b8 3e 5d 33 70 c0 b5 9f 2c 40 3c 4e 66 40
       0.36033326 -3.753135 2.6972477 3.598525
000330 2c db 5b c0 ce c3 64 bf 11 da 40 bf 58 64 0d bf
       -3.4352522 -0.89361274 -0.7533274 -0.5523124
000340 91 c3 8e bf 9a d7 b4 3f 1b 5b d6 c0 0b 0f 2d c0
       -1.1153432 1.4128296 -6.6986213 -2.7040431
000350 11 0e 81 3f 85 a1 e4 bf 0b 62 f9 be 1a b2 74 bf
       1.0082418 -1.7861792 -0.48707613 -0.9558426
000360 6e db 95 3d 4d cf 0f 3e 39 8c 0b 40 33 a3 fe bf
       0.073172435 0.14043923 2.1804335 -1.9893554
000370 c5 ac 73 40 72 97 58 3f 2b 02 0d 3f 07 f1 59 40
       3.80742 0.8460609 0.55081433 3.4053361
000380 f8 05 80 40 3f 7c d5 3f 84 ab b7 bf e0 e3 97 bf
       4.0007286 1.6678542 -1.4349217 -1.1866417
000390 85 73 82 bc ee ae c2 bf b9 52 8a bf 14 91 5e 40
       -0.015924225 -1.5209634 -1.0806495 3.4776049
0003a0 7a 91 3a 3f 98 3c 63 c0 e1 8f a0 bf 8c bc 64 bf
       0.7287823 -3.5505733 -1.2543908 -0.893502
0003b0 81 c9 02 c0 cc 69 76 3f 89 1e bf 3e 38 27 68 40
       -2.0435488 0.96255183 0.37327984 3.6273937
0003c0 7f 27 40 40 b5 72 29 3f 47 21 0c 40 f7 75 3d 3e
       3.0024107 0.66190654 2.189531 0.18502031
0003d0 04 b0 b1 be b8 14 13 bf 85 6e 15 c0 fe 7b 9a 3f
       -0.34704602 -0.5745349 -2.3348706 1.206909
0003e0 ea c2 2b 3f fe 14 46 c0 7f a1 5a 3d 53 be 84 c0
       0.6709429 -3.0950313 0.05337667 -4.148233
0003f0 cc 8b 47 40 fb b6 e7 be 47 c0 6b be ee c0 16 c0
       3.1179075 -0.4525679 -0.23022567 -2.3555255

layer3.bias f4 [16]
000000 00 00 00 00 00 00 00 00 00 00 00 00 00 00 00 00
       0.0 0.0 0.0 0.0
000010 00 00 00 00 00 00 00 00 00 00 00 00 00 00 00 00
       0.0 0.0 0.0 0.0
000020 00 00 00 00 00 00 00 00 00 00 00 00 00 00 00 00
       0.0 0.0 0.0 0.0
000030 00 00 00 00 00 00 00 00 00 00 00 00 00 00 00 00
       0.0 0.0 0.0 0.0

out_layer.weight f4 [3, 16]
000000 32 ed 5b c0 fd 35 89 bf fd 41 1f 3f 2e 01 6d bf
       -3.4363523 -1.0719601 0.62210065 -0.92579925
000010 cf 38 93 3d df 26 ed be 2d 8c 32 40 5c c5 c5 3f
       0.0718857 -0.4631872 2.7898057 1.5450854
000020 07 39 95 ba a8 55 66 bf c6 b1 d5 3f ae 97 a0 bf
       -0.0011384793 -0.8997445 1.6694877 -1.2546289
000030 e1 87 2f bf 25 92 54 3f 2c 8c 13 40 ff 75 12 c0
       -0.6856671 0.830355 2.3054304 -2.288452
000040 f6 5c f7 3f c3 e5 95 3f 84 05 60 c0 5b 0c 16 40
       1.9325244 1.1710743 -3.5003366 2.344504
000050 bb 8e 92 3f c0 35 13 3f 30 0e 08 3f d3 c6 49 bf
       1.1449808 0.5750389 0.5314665 -0.78819007
000060 d7 3b 63 40 24 f9 48 bb 1d d9 32 3f 13 09 b3 bf
       3.5505273 -0.0030666078 0.6986254 -1.3987144
000070 45 67 68 3f d3 cd 8c 40 cc ec 39 c0 f3 da 57 be
       0.90782577 4.400125 -2.905078 -0.21079616
000080 72 a4 b7 bf f4 ef de 3f 7f c6 e0 3e 01 ae a9 3e
       -1.434706 1.7416978 0.4390144 0.33140567
000090 71 50 11 40 c4 26 0a 3e 39 8d 18 bf c0 4e c2 bf
       2.2705348 0.1349135 -0.5959049 -1.5180283
0000a0 5f 17 20 3f 8f d0 86 c0 d5 58 18 c0 6b db 04 bf
       0.6253566 -4.212959 -2.3804219 -0.51897305
0000b0 bf 89 c7 bf ea 94 7d 40 bc f1 12 3e c7 4b 01 40
       -1.5588912 3.962214 0.14350027 2.02025

out_layer.bias f4 [3]
000000 00 00 00 00 00 00 00 00 00 00 00 00
       0.0 0.0 0.0
