src/ckpt/MountainCar-v0/indiv_75.pt (torch_old, 3954 bytes, 8 tensors)

layer1.weight f4 [16, 2]
00000000: 6c1f f53f 6d5b 58bf ef34 1840 8fc5 88c0
00000010: 8092 9940 d0b3 803f 875f b73d 6a10 e73f
00000020: 32a5 983f db95 2340 47e4 a53f 8a4d 3b3d
00000030: 7213 1c40 9540 0bbe 6cfc 453f fd7a 4a3f
00000040: 9546 f03f 4e1d fdbf d30b 213f 036e f73f
00000050: dc17 dd3f 9a0f 6c40 2ab1 903f efd3 80bd
00000060: 2806 46c0 3428 55c0 4655 1abe 2d8c 0b40
00000070: 84c2 d140 3363 8840 89ae 053f 7aed aa3e
1.9150214 -0.84514505 2.3782308 -4.274116 4.7991333 1.0054874 0.08953767 1.8051884
1.1925414 2.5560215 1.296029 0.045728244 2.4386868 -0.13598855 0.7733829 0.79093915
1.877154 -1.9774568 0.6290867 1.9330448 1.7272906 3.6884522 1.1304066 -0.06290423
-3.0941257 -3.3305788 -0.15071592 2.1804307 6.5549946 4.2621093 0.52219445 0.33384305

layer1.bias f4 [16]
00000000: 0000 0000 0000 0000 0000 0000 0000 0000
00000010: 0000 0000 0000 0000 e519 403f 0000 0000
00000020: 0000 0000 0000 0000 0000 0000 0000 0000
00000030: 0000 0000 0000 0000 0000 0000 0000 0000
0.0 0.0 0.0 0.0 0.0 0.0 0.7503951 0.0
0.0 0.0 0.0 0.0 0.0 0.0 0.0 0.0

layer2.weight f4 [16, 16]
00000000: f228 2abf 6e49 9f3f 79a7 19c0 6f5e 2c40
00000010: 46de c53f 505f 8b3f 7268 8bbf 3a0d 6a40
00000020: aaa1 303f c3b7 6fbf a43a 1340 2d7e 3c3f
00000030: e09b 0f3f 99dc 66bd 7253 af3e 3954 cc3f
00000040: 7c5f 06c0 e6f5 973f c0a9 36c0 4f79 7240
00000050: 630d 8dc0 f7fa 3240 93a9 50c0 1d35 90bf
00000060: 949c 15bf e9c2 1140 e73f 0d3f b30f a83f
00000070: 2235 e43f 47de e33e 736c c2bd 40c3 69be
00000080: e945 03bf e95d c7bf 9cfc 2340 f9df 00bf
00000090: d1d8 d7be 4b29 adbe ca76 1e40 7f7b e83f
000000a0: c92b 98bf ff34 9ebf dfe1 7c3f fd24 26bf
000000b0: 0070 4a40 85d5 9b3f bb6f f5bf ed4b 793f
000000c0: aeae ecbf 26a5 cfbf 5855 60c0 ce7c 163f
000000d0: 0929 4d3f dfd4 ad3f e773 2dbf 5904 0e3f
000000e0: 7cca 89bf a24c 3ac0 359d d8bf 9452 2dc0
000000f0: 9eef d73f b257 93bf de61 563e 1894 afbd
00000100: a07e 73be 065e 263f 2856 1f40 b819 883f
00000110: 6b94 d8be 6895 0240 d579 dabe 22c4 933f
00000120: 9598 5c40 1beb e1bf 9cdf cbbe c439 3e3f
00000130: aff5 263e 84c2 b33f 0ca0 e5be 7ae4 1fc0
00000140: 5385 703f e088 2140 b1a8 f4bf 1e8c 01c0
00000150: eef6 09bf 5d06 3cc0 821e fc3d 144b eebe
00000160: 2b65 7240 c73b 863f 6ff5 d13f ad46 0ec0
00000170: 458a ae3f b47f 1e3f cc04 3fbf d890 48c0
00000180: cae6 873f 6ce5 c73e f0a1 edbf a6a7 38bf
00000190: f38f 88bf 3315 abbf c27b 08c0 c91c c7be
000001a0: d597 93be dec8 88be 9753 a9bf b96d 97c0
000001b0: 71c2 3a40 e4bf 5ebf 0b39 aa3f 6e82 27c0
000001c0: 2b3a 0140 fd7a 8740 b2cd 83c0 cc61 6abf
000001d0: 49d6 cb3f 53bb 99bf f807 923c f1bf c33f
000001e0: ea41 9140 c98d 9e3f 6bc1 f93f ce17 a93f
000001f0: f044 b73f 0abd 3ebe 6e8a f0be 27c7 b43e
00000200: f94f 663f cbc3 0c40 150b b73f 8b71 03c0
00000210: 8f64 afbe 2f77 f2bf 5725 5540 5afa 3f40
00000220: ef01 7a40 334a 943d 09a5 ff3f 5541 c03f
00000230: 5a93 4f40 f3ea 1040 5877 993e f85c 19bf
00000240: c338 0340 f864 7bc0 8770 3abf 3494 2fc0
00000250: 81a2 523e d802 92bf 7fc0 1a40 730b f43f
00000260: 64e4 693f 8163 1bbe 0886 6140 2103 03be
00000270: 4ee9 a0bf a91c 91bf 6735 0e3f c181 3940
00000280: 3628 2e40 de1c 18c0 391f 2b3f 984d 84bd
00000290: 7463 b4bf d98f a0bf 3244 5bbf e303 cabf
000002a0: 7f73 e0be 4f9f 263f 79b3 5540 debd 17bf
000002b0: 9728 9b3f 4622 0840 5d5f 093f 3f65 53c0
000002c0: c323 f33f 3551 6140 cf50 19c0 776a eb3d
000002d0: a80a 1540 2eb4 c9be 597c c33f e5da f33f
000002e0: f6b5 8cbf fed9 2cbf b6b8 d8bf 0c02 a840
000002f0: 1b0e 4340 85d3 b9bf 761e 653f 2491 11c0
00000300: 473c a03f ad1b cdbe a369 273f de47 6bc0
00000310: 433e f13f 1b79 7b3f 6300 e6bf c149 43bf
00000320: aff1 c03f 15af 28bf d467 3ec0 475b 613f
00000330: 14c5 f43f bb0f b340 326d 09c0 1406 8240
00000340: f421 01bf bc6f 663f dec6 aac0 cc36 1cc0
00000350: 03e5 6c3e 3a9f acbe f702 6dbe a921 3fc0
00000360: 9326 fa3f bebb 2640 f14c c7bf 321a 6bbf
00000370: 5d85 29c0 e62c a0bf d457 80be aa1c e33e
00000380: 80b6 3540 cd6b b03f cfdd cebf fe4b 6dbf
00000390: 94af 553f b966 593f 28d8 69c0 4794 12c0
000003a0: 070c d5bf 8d5c 90bf c9b1 5b40 cae9 bebf
000003b0: 8a2d 10c0 f2f1 393f b99d f7be d962 b03f
000003c0: 8069 823c ab37 043f 42dd 933f 513a b53f
000003d0: 42bc b0bf c5bf f23f 3ee7 993f fbc2 ac40
000003e0: 65f2 0fbd e047 183f 09db 82c0 64e9 5fc0
000003f0: c0b7 5b40 e8f6 22be f45f 5e3f 4612 42c0
-0.6646873 1.2444284 -2.4008467 2.6932638 1.5458457 1.0888462 -1.0891249 3.6570573
0.6899668 -0.93639773 2.3004541 0.7363003 0.5609722 -0.056362722 0.3424335 1.5963203
-2.099578 1.1871917 -2.8541107 3.788654 -4.407884 2.7965677 -3.26035 -1.1266209
-0.58442044 2.2775214 0.5517563 1.3129791 1.7828715 0.44505522 -0.09493341 -0.22828388
-0.5127855 -1.5575534 2.562293 -0.50341755 -0.42157605 -0.33820567 2.4760003 1.8162688
-1.1888362 -1.2359923 0.9878215 -0.6490019 3.163086 1.2174536 -1.9174722 0.9738148
-1.8490808 -1.6222274 -3.505209 0.58784187 0.8014074 1.3580588 -0.6775498 0.55475384
-1.0764918 -2.9109273 -1.6922976 -2.7081652 1.687 -1.1511137 0.20935771 -0.085731685
-0.23778772 0.6498722 2.4896336 1.0632849 -0.42300734 2.040369 -0.42671075 1.154423
3.4468129 -1.7649873 -0.39819038 0.74306893 0.16304658 1.4043736 -0.4484867 -2.49832
0.93953437 2.5239792 -1.911398 -2.024177 -0.5389241 -2.9378884 0.123105064 -0.46541655
3.7874248 1.0486993 1.6403025 -2.2230637 1.3635947 0.6191361 -0.74616694 -3.1338406
1.0617306 0.39042222 -1.8565044 -0.7213081 -1.066893 -1.3365844 -2.1325536 -0.3888915
-0.28826776 -0.2671575 -1.3228635 -4.732144 2.9181178 -0.8701155 1.3298658 -2.6173358
2.0191753 4.233763 -4.1188593 -0.91555476 1.592477 -1.2010292 0.017826065 1.5292951
4.539296 1.2387019 1.9512151 1.321039 1.4317913 -0.186268 -0.46980613 0.3530819
0.8996578 2.1994503 1.4300257 -2.053805 -0.34256408 -1.8942622 3.330404 2.9996552
3.906368 0.07240715 1.997224 1.5019938 3.2433686 2.2643402 0.29973865 -0.59907484
2.0503395 -3.9280376 -0.72827953 -2.7434206 0.20569803 -1.1407118 2.417999 1.9065994
0.9136412 -0.15174676 3.5238056 -0.12794162 -1.2571199 -1.1336871 0.55550236 2.8985445
2.7212043 -2.376762 0.66844517 -0.06460112 -1.4092851 -1.2543899 -0.8565093 -1.5782436
-0.43838117 0.65086836 3.3390791 -0.5927409 1.2121762 2.127092 0.5366114 -3.3030546
1.8995289 3.5205815 -2.3955572 0.11494916 2.3287754 -0.3939528 1.5272323 1.9051176
-1.099303 -0.6752013 -1.6931369 5.25025 3.047736 -1.4517676 0.89499605 -2.2744837
1.2518395 -0.40060177 0.65395564 -3.6762614 1.8847126 0.9823167 -1.7968868 -0.76284415
1.5073756 -0.65892154 -2.9750872 0.88029903 1.9122643 5.59567 -2.1472898 4.063242
-0.50442433 0.90014243 -5.336776 -2.4408445 0.23134236 -0.3371523 -0.23145662 -2.9864295
1.9543022 2.6052089 -1.5570356 -0.91836846 -2.6487648 -1.2513702 -0.25067008 0.44357806
2.839264 1.3782898 -1.6161441 -0.9269408 0.83471036 0.8492237 -3.6538181 -2.2903001
-1.6644295 -1.1278244 3.4327261 -1.4915097 -2.2527795 0.72634804 -0.4836252 1.3780166
0.015919447 0.5164744 1.1551898 1.4158422 -1.3807452 1.8964773 1.2023695 5.3988013
-0.035143275 0.5948467 -4.0892377 -3.49862 3.4330902 -0.159145 0.8686516 -3.0323653

layer2.bias f4 [16]
00000000: 0000 0000 0000 0000 0000 0000 0000 0000
00000010: 0000 0000 0000 0000 0000 0000 0000 0000
00000020: 0000 0000 0000 0000 0000 0000 0000 0000
00000030: 0000 0000 0000 0000 0000 0000 0000 0000
0.0 0.0 0.0 0.0 0.0 0.0 0.0 0.0
0.0 0.0 0.0 0.0 0.0 0.0 0.0 0.0

layer3.weight f4 [16, 16]
00000000: f672 e5bf f251 f8bf cc77 4440 a79d 3240
00000010: 1fb3 553f e653 6f3e 5631 7c40 2857 9d3f
00000020: f945 3d3e 4ca5 bcbf 3f6a d33d 9669 cf3e
00000030: ce99 4dbe 8f54 70bf 00f5 e2bf 938d 2f40
00000040: 752c 1d40 c4b3 2cbf a608 4e40 cc83 74bf
00000050: f4b1 0dc0 04b0 77be 9ac7 30bf 1482 0fc0
00000060: 90d8 91bf c5a7 933d d5da 2fc0 2972 9dbe
00000070: ecc1 17c0 14fa 84c0 f676 443f d48c 9bc0
00000080: 55af 03c0 c238 cabf c5ef bb3f 8cf8 e73f
00000090: a6fb 23c0 79fb 8c3f e514 5740 4847 0dc0
000000a0: c440 3a40 0e3c 8c40 b369 cc3f 162d bdbf
000000b0: 09a4 c73f 9010 bcc0 3014 2d3f 20cc 9b3f
000000c0: 2141 a73f 7297 2d40 0649 443f 93c7 ef3f
000000d0: 7f2c e23f bb17 6dbf 4965 0ec0 fa3b 903f
000000e0: 71b8 1b40 98e5 043d aa4d f8be 609d 37c0
000000f0: bc1e c0bf 86f9 333e 1804 0c40 f433 3ebf
00000100: 1a8d 8e3f ddb7 c3bf 5393 a6be cece 5c40
00000110: 51a6 a8bf 9ccf 59c0 72ef 4e3d 7c42 a7bf
00000120: 9568 1dc0 1456 33c0 66c8 583f bc25 17c0
00000130: 64b6 91bf 05b5 8140 e91c d7bf 4edb 633f
00000140: 65cf 5bbe d16a e83e fa41 f33f 21ec 1dc0
00000150: bebd 43c0 61a1 f2be 2892 25c0 2cf2 51c0
00000160: 8975 27c0 4846 bcbf b7d3 18c0 b596 7c3d
00000170: 1afa 1040 ded4 87bf df6a 8abe 5de9 183d
00000180: 0ceb b33f b08c 7140 3213 03c0 f243 773f
00000190: 1f45 3ac0 193a 3640 6864 8f3e bf01 71bf
000001a0: d3e8 7abf c868 fbbd 4768 2cc0 d370 01c0
000001b0: 1655 81bf 213b cb3e 8491 ddbf 5a3b 9040
000001c0: 343e 11c0 8de0 6d3e be85 79bf 9a5a f2bf
000001d0: 92db 0940 5740 8040 59ea ba3f cd25 833f
000001e0: 2e87 1340 91c8 17bf 5893 4e3d ed3b b6bf
000001f0: fd3d 8cbf 6889 11c0 e4bf 453f 4b82 32bf
00000200: 57a5 87c0 cc69 9e3f 7f0c 4dbf c757 34bf
00000210: 204c 2d3f 3050 b5bf 4f9a 0040 db44 0fc0
00000220: dfd1 8d40 e5b1 843f 6002 26c0 c7ee fd3f
00000230: 593d 823e b161 01c0 3914 0e3f ae09 f1be
00000240: 4f46 2d3f af2d 39bf ce44 20bf 1752 52bf
00000250: 6014 0340 d5d2 8d40 0813 8dbf 0989 75c0
00000260: fa1e 10c0 1a8d a83f a4f5 dd3f c924 65bf
00000270: eb47 eebd 2798 ebbe 54d1 ccbf 4ebe 8dbf
00000280: 737d fe3f 92d3 a240 ab0a 8cbf cb1a 993f
00000290: eaf7 07c0 b0a7 7240 2473 55bf 3bc5 b73f
000002a0: 5cd8 5ac0 ceb1 b1bf bce3 bbbf 8173 6540
000002b0: fdb2 05c0 d061 2d3e dec6 02c0 db00 80c0
000002c0: 0bd1 18c0 96fb 0440 9db2 4ebf 544c 0a3d
000002d0: fdc3 3bc0 b539 0d3f 3721 e83e 2af8 ebbe
000002e0: 6225 c8bf bc88 e23e 8d0c f83f 579d 8040
000002f0: 1cba 45c0 2e96 353f b27f 5e3f 3798 3ac0
00000300: 5eff 6bbe c7b6 6bbf 4ef8 3cbf d3aa 3ec0
00000310: ee8d 5bbf 4482 b53f 9538 eebf d49a 3dbf
00000320: 9a7d b83e 5d33 70c0 b59f 2c40 3c4e 6640
00000330: 2cdb 5bc0 1b1d 423e 11da 40bf ea7e 823f
00000340: 91c3 8ebf 3411 8d3f 1b5b d6c0 7bf6 7440
00000350: 3599 48c0 85a1 e4bf ee79 ca3f 5f3f 18c0
00000360: 6edb 953d 4dcf 0f3e 398c 0b40 33a3 febf
00000370: c5ac 7340 bda4 d83f 2b02 0d3f 7781 4bc0
00000380: f805 8040 73ac 6540 84ab b7bf 2884 4940
00000390: 9670 923f eeae c2bf 0889 c83f 97c9 44c0
000003a0: 7a91 3a3f 983c 63c0 e18f a0bf 8cbc 64bf
000003b0: 81c9 02c0 deae 21bc 891e bf3e cd38 1bc0
000003c0: 7f27 4040 4925 fcbf 4721 0c40 57af 43c0
000003d0: 9f96 383f b814 13bf bfdb f53f 1c84 5440
000003e0: eac2 2b3f fe14 46c0 7fa1 5a3d 53be 84c0
000003f0: cc8b 4740 8bb1 9f3f 47c0 6bbe e9f1 c7bf
-1.7925708 -1.9400008 3.0698118 2.7908723 0.8347644 0.23371848 3.9405112 1.2292223
0.18483724 -1.4737945 0.10322999 0.40510243 -0.20078203 -0.93879026 -1.7731018 2.743016
2.4558384 -0.674618 3.2192779 -0.95513606 -2.2139864 -0.24188238 -0.6905457 -2.2423143
-1.1394215 0.07209734 -2.7477314 -0.3075116 -2.371211 -4.155527 0.7674402 -4.860941
-2.0575764 -1.5798571 1.4682547 1.8122725 -2.5622344 1.1014243 3.3606503 -2.2074757
2.910203 4.382331 1.5969757 -1.4779384 1.5596935 -5.877022 0.6760893 1.2171669
1.3066751 2.7123685 0.76673925 1.873278 1.7669829 -0.92614335 -2.224932 1.1268303
2.4331324 0.03244552 -0.48496753 -2.8689804 -1.5009379 0.17575654 2.1877499 -0.74298024
1.1136811 -1.5290486 -0.32534274 3.4501224 -1.3175756 -3.4032965 0.05052132 -1.3067164
-2.4595082 -2.8021288 0.84680784 -2.3616781 -1.1383786 4.053347 -1.6805698 0.8900651
-0.21465833 0.45393994 1.900451 -2.4675372 -3.058456 -0.47388747 -2.5870457 -3.280406
-2.6165488 -1.4708948 -2.387922 0.061667163 2.265265 -1.0611837 -0.2703466 0.037331928
1.4056106 3.774212 -2.0480466 0.9658805 -2.9104688 2.847296 0.2800629 -0.9414329
-0.9801151 -0.12275845 -2.6938646 -2.0225112 -1.0104091 0.3969355 -1.7310033 4.507245
-2.2694216 0.2323019 -0.974697 -1.8933899 2.1540265 4.007854 1.4602767 1.0245911
2.3051257 -0.59290415 0.050433487 -1.4237038 -1.0956417 -2.2740116 0.77245927 -0.6973006
-4.238933 1.2376037 -0.8009719 -0.7044644 0.6769428 -1.4165096 2.0094182 -2.2385776
4.431869 1.0366789 -2.593895 1.9838494 0.2543743 -2.0215876 0.5549961 -0.47077698
0.6768541 -0.7233533 -0.6260499 -0.8215651 2.0481186 4.4319863 -1.1021433 -3.836489
-2.2518907 1.3168061 1.7340589 -0.89509255 -0.11634811 -0.4601452 -1.6001382 -1.1073701
1.9882034 5.0883265 -1.0940756 1.1961302 -2.1245065 3.7914848 -0.83378816 1.4357065
-3.4194555 -1.3882387 -1.4678874 3.5851748 -2.0890496 0.16931844 -2.043388 -4.0001044
-2.387759 2.0778556 -0.8074129 0.0337642 -2.9338372 0.5516618 0.4533784 -0.46087772
-1.5636408 0.44244945 1.937883 4.0192065 -3.0894842 0.7093228 0.869136 -2.9155405
-0.23046634 -0.9207577 -0.7381638 -2.9791763 -0.8576344 1.4180379 -1.8611017 -0.74064374
0.36033326 -3.753135 2.6972477 3.598525 -3.4352522 0.18956415 -0.7533274 1.0194981
-1.1153432 1.1020875 -6.6986213 3.827544 -3.134351 -1.7861792 1.581846 -2.3788679
0.073172435 0.14043923 2.1804335 -1.9893554 3.80742 1.6925274 0.55081433 -3.179777
4.0007286 3.5886505 -1.4349217 3.1486912 1.1440609 -1.5209634 1.5666819 -3.074804
0.7287823 -3.5505733 -1.2543908 -0.893502 -2.0435488 -0.009868352 0.37327984 -2.4253418
3.0024107 -1.9698879 2.189531 -3.057577 0.7210483 -0.5745349 1.9207686 3.3205633
0.6709429 -3.0950313 0.05337667 -4.148233 3.1179075 1.2476057 -0.23022567 -1.56207

layer3.bias f4 [16]
00000000: 0000 0000 d8c1 1fbe 0000 0000 0000 0000
00000010: 0000 0000 0000 0000 0000 0000 0000 0000
00000020: 0000 0000 0000 0000 0000 0000 0000 0000
00000030: 0000 0000 0000 0000 0000 0000 0000 0000
0.0 -0.1560129 0.0 0.0 0.0 0.0 0.0 0.0
0.0 0.0 0.0 0.0 0.0 0.0 0.0 0.0

out_layer.weight f4 [3, 16]
00000000: 32ed 5bc0 db61 3cbf b611 5e40 8ae6 0fc0
00000010: cf38 933d df26 edbe a399 3f40 2b62 1ebf
00000020: bce7 e9bf a855 66bf c6b1 d53f ae97 a0bf
00000030: 926f ecbe 4cbb 95bf 9024 8ebe 6541 92bf
00000040: f65c f73f 420a c040 af14 d93f b4cf 2240
00000050: bb8e 923f c035 133f f98f 2b3f 4f17 49bf
00000060: 4f3c 373f 24f9 48bb 1dd9 323f 1309 b3bf
00000070: 3c9d 683f b7fb 5c40 8107 bcc0 5da9 9ebf
00000080: 72a4 b7bf 6cf0 d63f 51ab f73d 4fb1 6b40
00000090: 7150 1140 c426 0a3e 7db2 1340 8f30 babf
000000a0: 7463 e3bf 8fd0 86c0 d558 18c0 6bdb 04bf
000000b0: 5166 3c3f 7f88 1e3f f7dc 9b3f 7f10 fb3e
-3.4363523 -0.73586816 3.469831 -2.248446 0.0718857 -0.4631872 2.9937522 -0.6186854
-1.8273845 -0.8997445 1.6694877 -1.2546289 -0.4617887 -1.1697783 -0.2776227 -1.1426207
1.9325244 6.001252 1.6959437 2.5439272 1.1449808 0.5750389 0.6701656 -0.7855119
0.715764 -0.0030666078 0.6986254 -1.3987144 0.9086492 3.4528635 -5.875916 -1.2395436
-1.434706 1.6792121 0.12093223 3.682697 2.2705348 0.1349135 2.307769 -1.4546069
-1.7764726 -4.212959 -2.3804219 -0.51897305 0.7359362 0.61927027 1.2176808 0.49036023

out_layer.bias f4 [3]
00000000: 0000 0000 0000 0000 0000 0000
0.0 0.0 0.0
