src/ckpt/MountainCar-v0/indiv_90.pt (torch_old, 3954 bytes, 8 tensors)

layer1.weight f4 [16, 2]
000000 19 7b 26 c0 6d 5b 58 bf e3 a4 08 40 8f c5 88 c0
       -2.6012633 -0.84514505 2.135064 -4.274116
000010 a9 04 fd 3f d0 b3 80 3f f1 f2 1d 3f 6a 10 e7 3f
       1.9767047 1.0054874 0.61698824 1.8051884
000020 7a 4e 07 be db 95 23 40 78 f1 22 40 8a 4d 3b 3d
       -0.1321353 2.5560215 2.545988 0.045728244
000030 45 70 99 bf 95 40 0b be 63 77 03 bf fd 7a 4a 3f
       -1.1987387 -0.13598855 -0.51354045 0.79093915
000040 29 eb 4e bf 4e 1d fd bf f6 69 42 c0 03 6e f7 3f
       -0.80827576 -1.9774568 -3.0377173 1.9330448
000050 f5 a9 cf be 9a 0f 6c 40 1d 11 c2 3f ef d3 80 bd
       -0.40559354 3.6884522 1.5161473 -0.06290423
000060 b9 83 51 40 34 28 55 c0 3e f7 d3 3f 2d 8c 0b 40
       3.2736647 -3.3305788 1.6559827 2.1804307
000070 90 4d e2 40 33 63 88 40 9c 72 1e 40 7a ed aa 3e
       7.071968 4.2621093 2.4757452 0.33384305

layer1.bias f4 [16]
000000 00 00 00 00 00 00 00 00 00 00 00 00 00 00 00 00
       0.0 0.0 0.0 0.0
000010 00 00 00 00 00 00 00 00 00 00 00 00 00 00 00 00
       0.0 0.0 0.0 0.0
000020 00 00 00 00 00 00 00 00 00 00 00 00 00 00 00 00
       0.0 0.0 0.0 0.0
000030 00 00 00 00 00 00 00 00 00 00 00 00 00 00 00 00
       0.0 0.0 0.0 0.0

layer2.weight f4 [16, 16]
000000 b2 e0 56 bf 6e 49 9f 3f 79 a7 19 c0 6f 5e 2c 40
       -0.8393661 1.2444284 -2.4008467 2.6932638
000010 46 de c5 3f 50 5f 8b 3f 72 68 8b bf 3a 0d 6a 40
       1.5458457 1.0888462 -1.0891249 3.6570573
000020 52 02 20 40 c3 b7 6f bf a4 3a 13 40 fe ee 2c c0
       2.5001416 -0.93639773 2.3004541 -2.702087
000030 e0 9b 0f 3f e1 e1 21 c0 72 53 af 3e 39 54 cc 3f
       0.5609722 -2.5294116 0.3424335 1.5963203
000040 4c 32 dd 3f e6 f5 97 3f c0 a9 36 c0 4f 79 72 40
       1.7280974 1.1871917 -2.8541107 3.788654
000050 63 0d 8d c0 f7 fa 32 40 93 a9 50 c0 1d 35 90 bf
       -4.407884 2.7965677 -3.26035 -1.1266209
000060 f4 b2 d7 3f e9 c2 11 40 e7 3f 0d 3f 59 34 4b bf
       1.6851487 2.2775214 0.5517563 -0.7937675
000070 22 35 e4 3f f1 d1 8b bf 73 6c c2 bd 40 c3 69 be
       1.7828715 -1.0923444 -0.09493341 -0.22828388
000080 81 a3 44 40 e9 5d c7 bf 9c fc 23 40 f9 df 00 bf
       3.0724795 -1.5575534 2.562293 -0.50341755
000090 d1 d8 d7 be 4b 29 ad be ca 76 1e 40 7f 7b e8 3f
       -0.42157605 -0.33820567 2.4760003 1.8162688
0000a0 f0 50 1b c0 ff 34 9e bf df e1 7c 3f 80 08 27 3f
       -2.426815 -1.2359923 0.9878215 0.65247345
0000b0 00 70 4a 40 d9 ec 85 3d bb 6f f5 bf ed 4b 79 3f
       3.163086 0.06539316 -1.9174722 0.9738148
0000c0 5e df 63 3f 26 a5 cf bf 58 55 60 c0 ce 7c 16 3f
       0.89012706 -1.6222274 -3.505209 0.58784187
0000d0 09 29 4d 3f df d4 ad 3f e7 73 2d bf 59 04 0e 3f
       0.8014074 1.3580588 -0.6775498 0.55475384
0000e0 fb f3 9b bd a2 4c 3a c0 35 9d d8 bf 3e 73 ed 3e
       -0.07614895 -2.9109273 -1.6922976 0.46376985
0000f0 9e ef d7 3f bf 48 94 bf de 61 56 3e 18 94 af bd
       1.687 -1.15847 0.20935771 -0.085731685
000100 97 bb b2 3e 06 5e 26 3f 28 56 1f 40 b8 19 88 3f
       0.34908745 0.6498722 2.4896336 1.0632849
000110 6b 94 d8 be 68 95 02 40 d5 79 da be 22 c4 93 3f
       -0.42300734 2.040369 -0.42671075 1.154423
000120 67 bc 62 3f 1b eb e1 bf 9c df cb be 02 07 be bf
       0.8856873 -1.7649873 -0.39819038 -1.4845889
000130 af f5 26 3e 1b 72 1b 40 0c a0 e5 be 7a e4 1f c0
       0.16304658 2.4288394 -0.4484867 -2.49832
000140 4c 8c 60 bf e0 88 21 40 b1 a8 f4 bf 1e 8c 01 c0
       -0.87714076 2.5239792 -1.911398 -2.024177
000150 ee f6 09 bf 5d 06 3c c0 82 1e fc 3d 14 4b ee be
       -0.5389241 -2.9378884 0.123105064 -0.46541655
000160 28 21 03 bf c7 3b 86 3f 27 6a 91 3f be ac c3 bf
       -0.5122247 1.0486993 1.136052 -1.5287092
000170 45 8a ae 3f 60 5c 61 40 cc 04 3f bf d8 90 48 c0
       1.3635947 3.5212631 -0.74616694 -3.1338406
000180 6d e6 80 3f 6c e5 c7 3e f0 a1 ed bf a6 a7 38 bf
       1.007032 0.39042222 -1.8565044 -0.7213081
000190 f3 8f 88 bf 33 15 ab bf c2 7b 08 c0 c9 1c c7 be
       -1.066893 -1.3365844 -2.1325536 -0.3888915
0001a0 4b 6d 02 c0 de c8 88 be 97 53 a9 bf 4e 2f 2d 40
       -2.0379207 -0.2671575 -1.3228635 2.7060122
0001b0 71 c2 3a 40 6b b7 29 c0 0b 39 aa 3f 6e 82 27 c0
       2.9181178 -2.65182 1.3298658 -2.6173358
0001c0 cb 51 87 3e fd 7a 87 40 b2 cd 83 c0 cc 61 6a bf
       0.2642959 4.233763 -4.1188593 -0.91555476
0001d0 49 d6 cb 3f 53 bb 99 bf f8 07 92 3c f1 bf c3 3f
       1.592477 -1.2010292 0.017826065 1.5292951
0001e0 54 d0 7f 3f c9 8d 9e 3f 6b c1 f9 3f d8 01 1b 3e
       0.9992726 1.2387019 1.9512151 0.15137422
0001f0 f0 44 b7 3f 73 3e 1f 40 6e 8a f0 be 27 c7 b4 3e
       1.4317913 2.4881866 -0.46980613 0.3530819
000200 80 64 00 40 cb c3 0c 40 15 0b b7 3f 8b 71 03 c0
       2.006134 2.1994503 1.4300257 -2.053805
000210 8f 64 af be 2f 77 f2 bf 57 25 55 40 5a fa 3f 40
       -0.34256408 -1.8942622 3.330404 2.9996552
000220 ab 38 c0 bf 33 4a 94 3d 09 a5 ff 3f 42 15 8e bf
       -1.5017294 0.07240715 1.997224 -1.1100237
000230 5a 93 4f 40 2b a6 28 bf 58 77 99 3e f8 5c 19 bf
       3.2433686 -0.6587855 0.29973865 -0.59907484
000240 48 8e e4 bf f8 64 7b c0 87 70 3a bf 34 94 2f c0
       -1.7855921 -3.9280376 -0.72827953 -2.7434206
000250 81 a2 52 3e d8 02 92 bf 7f c0 1a 40 73 0b f4 3f
       0.20569803 -1.1407118 2.417999 1.9065994
000260 9f 75 36 40 81 63 1b be 08 86 61 40 cb cf 13 40
       2.850929 -0.15174676 3.5238056 2.3095577
000270 4e e9 a0 bf ff fe 0a bf 67 35 0e 3f c1 81 39 40
       -1.2571199 -0.54295343 0.55550236 2.8985445
000280 04 5c 7a 3f de 1c 18 c0 39 1f 2b 3f 98 4d 84 bd
       0.97796655 -2.376762 0.66844517 -0.06460112
000290 74 63 b4 bf d9 8f a0 bf 32 44 5b bf e3 03 ca bf
       -1.4092851 -1.2543899 -0.8565093 -1.5782436
0002a0 89 bb a4 bf 4f 9f 26 3f 79 b3 55 40 75 8e 65 3e
       -1.2869731 0.65086836 3.3390791 0.22417624
0002b0 97 28 9b 3f d4 cd 10 bf 5d 5f 09 3f 3f 65 53 c0
       1.2121762 -0.5656407 0.5366114 -3.3030546
0002c0 92 42 7e be 35 51 61 40 cf 50 19 c0 77 6a eb 3d
       -0.24830082 3.5205815 -2.3955572 0.11494916
0002d0 a8 0a 15 40 2e b4 c9 be 59 7c c3 3f e5 da f3 3f
       2.3287754 -0.3939528 1.5272323 1.9051176
0002e0 3c 55 af 3e fe d9 2c bf b6 b8 d8 bf cb 95 76 3e
       0.34244716 -0.6752013 -1.6931369 0.24080579
0002f0 1b 0e 43 40 eb 8d a4 3f 76 1e 65 3f 24 91 11 c0
       3.047736 1.285581 0.89499605 -2.2744837
000300 50 01 97 bf ad 1b cd be a3 69 27 3f de 47 6b c0
       -1.1797276 -0.40060177 0.65395564 -3.6762614
000310 43 3e f1 3f 1b 79 7b 3f 63 00 e6 bf c1 49 43 bf
       1.8847126 0.9823167 -1.7968868 -0.76284415
000320 2a 8d b3 bf 15 af 28 bf d4 67 3e c0 c5 38 3e 3f
       -1.4027455 -0.65892154 -2.9750872 0.74305373
000330 14 c5 f4 3f 31 c4 88 be 32 6d 09 c0 14 06 82 40
       1.9122643 -0.26712182 -2.1472898 4.063242
000340 7d db fb bf bc 6f 66 3f de c6 aa c0 cc 36 1c c0
       -1.9676358 0.90014243 -5.336776 -2.4408445
000350 03 e5 6c 3e 3a 9f ac be f7 02 6d be a9 21 3f c0
       0.23134236 -0.3371523 -0.23145662 -2.9864295
000360 96 0d 36 3f be bb 26 40 f1 4c c7 bf aa b6 13 3f
       0.7111448 2.6052089 -1.5570356 0.577006
000370 5d 85 29 c0 09 67 68 be d4 57 80 be aa 1c e3 3e
       -2.6487648 -0.22695555 -0.25067008 0.44357806
000380 8b 69 4a bf cd 6b b0 3f cf dd ce bf fe 4b 6d bf
       -0.79067296 1.3782898 -1.6161441 -0.9269408
000390 94 af 55 3f b9 66 59 3f 28 d8 69 c0 47 94 12 c0
       0.83471036 0.8492237 -3.6538181 -2.2903001
0003a0 62 96 13 40 8d 5c 90 bf c9 b1 5b 40 7e 32 fa be
       2.3060536 -1.1278244 3.4327261 -0.48866647
0003b0 8a 2d 10 c0 fb 48 2c c0 b9 9d f7 be d9 62 b0 3f
       -2.2527795 -2.6919544 -0.4836252 1.3780166
0003c0 04 f8 ba be ab 37 04 3f 42 dd 93 3f 51 3a b5 3f
       -0.36517346 0.5164744 1.1551898 1.4158422
0003d0 51 03 f1 bf c5 bf f2 3f 3e e7 99 3f fb c2 ac 40
       -1.8829137 1.8964773 1.2023695 5.3988013
0003e0 01 68 4b c0 e0 47 18 3f 09 db 82 c0 7f fe 09 bc
       -3.178223 0.5948467 -4.0892377 -0.008422493
0003f0 c0 b7 5b 40 86 32 90 bf f4 5f 5e 3f 46 12 42 c0
       3.4330902 -1.1265419 0.8686516 -3.0323653

layer2.bias f4 [16]
000000 00 00 00 00 00 00 00 00 00 00 00 00 00 00 00 00
       0.0 0.0 0.0 0.0
000010 00 00 00 00 00 00 00 00 00 00 00 00 00 00 00 00
       0.0 0.0 0.0 0.0
000020 00 00 00 00 00 00 00 00 00 00 00 00 00 00 00 00
       0.0 0.0 0.0 0.0
000030 00 00 00 00 00 00 00 00 00 00 00 00 00 00 00 00
       0.0 0.0 0.0 0.0

layer3.weight f4 [16, 16]
000000 f6 72 e5 bf f2 51 f8 bf 66 af e9 bf a7 9d 32 40
       -1.7925708 -1.9400008 -1.8256652 2.7908723
000010 a3 e7 54 40 e6 53 6f 3e a1 3c 10 40 cb be 6f bf
       3.326638 0.23371848 2.2537005 -0.936505
000020 f9 45 3d 3e 4c a5 bc bf 3f 6a d3 3d 96 69 cf 3e
       0.18483724 -1.4737945 0.10322999 0.40510243
000030 ce 99 4d be 8f 54 70 bf 00 f5 e2 bf 93 8d 2f 40
       -0.20078203 -0.93879026 -1.7731018 2.743016
000040 75 2c 1d 40 c4 b3 2c bf 9f 30 4b 3f cc 83 74 bf
       2.4558384 -0.674618 0.79371065 -0.95513606
000050 9c 32 2b 40 04 b0 77 be 32 d4 81 3f 56 be 74 c0
       2.674964 -0.24188238 1.0142882 -3.8241172
000060 90 d8 91 bf c5 a7 93 3d d5 da 2f c0 29 72 9d be
       -1.1394215 0.07209734 -2.7477314 -0.3075116
000070 ec c1 17 c0 14 fa 84 c0 f6 76 44 3f d4 8c 9b c0
       -2.371211 -4.155527 0.7674402 -4.860941
000080 55 af 03 c0 c2 38 ca bf f5 63 ae 3f 8c f8 e7 3f
       -2.0575764 -1.5798571 1.3624254 1.8122725
000090 1f 92 a4 3f 79 fb 8c 3f 72 00 26 bf cd 51 83 bf
       1.2857093 1.1014243 -0.6484443 -1.0259339
0000a0 c4 40 3a 40 0e 3c 8c 40 b3 69 cc 3f 16 2d bd bf
       2.910203 4.382331 1.5969757 -1.4779384
0000b0 09 a4 c7 3f 90 10 bc c0 30 14 2d 3f 20 cc 9b 3f
       1.5596935 -5.877022 0.6760893 1.2171669
0000c0 21 41 a7 3f 72 97 2d 40 b4 a9 1a c0 93 c7 ef 3f
       1.3066751 2.7123685 -2.4166079 1.873278
0000d0 48 55 02 40 bb 17 6d bf d1 c4 6c bf 93 d1 fc 3e
       2.0364552 -0.92614335 -0.9248782 0.49378642
0000e0 71 b8 1b 40 98 e5 04 3d aa 4d f8 be 60 9d 37 c0
       2.4331324 0.03244552 -0.48496753 -2.8689804
0000f0 bc 1e c0 bf 86 f9 33 3e 18 04 0c 40 f4 33 3e bf
       -1.5009379 0.17575654 2.1877499 -0.74298024
000100 1a 8d 8e 3f dd b7 c3 bf 9f 09 a7 3f ce ce 5c 40
       1.1136811 -1.5290486 1.3049811 3.4501224
000110 bd 0c d2 bf 9c cf 59 c0 26 7c d2 bf b6 0e 08 bf
       -1.6410137 -3.4032965 -1.6444137 -0.5314745
000120 95 68 1d c0 14 56 33 c0 66 c8 58 3f bc 25 17 c0
       -2.4595082 -2.8021288 0.84680784 -2.3616781
000130 64 b6 91 bf 05 b5 81 40 e9 1c d7 bf 4e db 63 3f
       -1.1383786 4.053347 -1.6805698 0.8900651
000140 65 cf 5b be d1 6a e8 3e 5c 8b 03 c0 21 ec 1d c0
       -0.21465833 0.45393994 -2.0553808 -2.4675372
000150 38 d5 9b bf 61 a1 f2 be d9 f3 91 40 eb f9 8d 3e
       -1.2174444 -0.47388747 4.5610166 0.27729735
000160 89 75 27 c0 48 46 bc bf b7 d3 18 c0 b5 96 7c 3d
       -2.6165488 -1.4708948 -2.387922 0.061667163
000170 1a fa 10 40 de d4 87 bf df 6a 8a be 5d e9 18 3d
       2.265265 -1.0611837 -0.2703466 0.037331928
000180 0c eb b3 3f b0 8c 71 40 2f 1f 38 c0 f2 43 77 3f
       1.4056106 3.774212 -2.8769033 0.9658805
000190 24 16 70 40 19 3a 36 40 90 52 00 c0 57 4f 53 c0
       3.7513514 2.847296 -2.0050392 -3.3017175
0001a0 d3 e8 7a bf c8 68 fb bd 47 68 2c c0 d3 70 01 c0
       -0.9801151 -0.12275845 -2.6938646 -2.0225112
0001b0 16 55 81 bf 21 3b cb 3e 84 91 dd bf 5a 3b 90 40
       -1.0104091 0.3969355 -1.7310033 4.507245
0001c0 34 3e 11 c0 8d e0 6d 3e 20 d6 04 c0 9a 5a f2 bf
       -2.2694216 0.2323019 -2.0755692 -1.8933899
0001d0 cd 62 26 40 57 40 80 40 98 61 fc be 50 ca 96 40
       2.5997803 4.007854 -0.49293208 4.7121964
0001e0 2e 87 13 40 91 c8 17 bf 58 93 4e 3d ed 3b b6 bf
       2.3051257 -0.59290415 0.050433487 -1.4237038
0001f0 fd 3d 8c bf 68 89 11 c0 e4 bf 45 3f 4b 82 32 bf
       -1.0956417 -2.2740116 0.77245927 -0.6973006
000200 57 a5 87 c0 cc 69 9e 3f 7d c4 b4 be c7 57 34 bf
       -4.238933 1.2376037 -0.3530616 -0.7044644
000210 29 fb d6 3f 30 50 b5 bf 8a d8 11 40 11 6d b9 be
       1.6795398 -1.4165096 2.2788415 -0.36216024
000220 df d1 8d 40 e5 b1 84 3f 60 02 26 c0 c7 ee fd 3f
       4.431869 1.0366789 -2.593895 1.9838494
000230 59 3d 82 3e 66 d9 1f bf 39 14 0e 3f ae 09 f1 be
       0.2543743 -0.624411 0.5549961 -0.47077698
000240 4f 46 2d 3f af 2d 39 bf a1 d0 87 3f 17 52 52 bf
       0.6768541 -0.7233533 1.0610543 -0.8215651
000250 b9 78 45 3e d5 d2 8d 40 65 55 9f 3f 22 47 45 3f
       0.19284333 4.4319863 1.2447935 0.77061665
000260 fa 1e 10 c0 1a 8d a8 3f a4 f5 dd 3f c9 24 65 bf
       -2.2518907 1.3168061 1.7340589 -0.89509255
000270 eb 47 ee bd 27 98 eb be 54 d1 cc bf 4e be 8d bf
       -0.11634811 -0.4601452 -1.6001382 -1.1073701
000280 73 7d fe 3f 92 d3 a2 40 e3 ff c6 3e cb 1a 99 3f
       1.9882034 5.0883265 0.388671 1.1961302
000290 77 dd 00 3e b0 a7 72 40 91 18 50 40 c7 b8 4f 40
       0.12584482 3.7914848 3.2514994 3.245653
0002a0 5c d8 5a c0 ce b1 b1 bf bc e3 bb bf 81 73 65 40
       -3.4194555 -1.3882387 -1.4678874 3.5851748
0002b0 fd b2 05 c0 d0 61 2d 3e de c6 02 c0 db 00 80 c0
       -2.0890496 0.16931844 -2.043388 -4.0001044
0002c0 0b d1 18 c0 96 fb 04 40 8c 7f 96 be 54 4c 0a 3d
       -2.387759 2.0778556 -0.29394186 0.0337642
0002d0 7a b1 71 bf b5 39 0d 3f 92 74 97 bf 77 19 4a be
       -0.9441143 0.5516618 -1.183245 -0.19736277
0002e0 62 25 c8 bf bc 88 e2 3e 8d 0c f8 3f 57 9d 80 40
       -1.5636408 0.44244945 1.937883 4.0192065
0002f0 1c ba 45 c0 2e 96 35 3f b2 7f 5e 3f 37 98 3a c0
       -3.0894842 0.7093228 0.869136 -2.9155405
000300 5e ff 6b be c7 b6 6b bf 14 09 7a 3e d3 aa 3e c0
       -0.23046634 -0.9207577 0.24417526 -2.9791763
000310 d6 3c 18 c0 44 82 b5 3f 9a 9d 47 3f 14 fa 5a bf
       -2.3787131 1.4180379 0.77974856 -0.8553784
000320 9a 7d b8 3e 5d 33 70 c0 b5 9f 2c 40 3c 4e 66 40
       0.36033326 -3.753135 2.6972477 3.598525
000330 2c db 5b c0 1b 1d 42 3e 11 da 40 bf ea 7e 82 3f
       -3.4352522 0.18956415 -0.7533274 1.0194981
000340 91 c3 8e bf 34 11 8d 3f 8d 20 bf bf 7b f6 74 40
       -1.1153432 1.1020875 -1.4931809 3.827544
000350 de fa 35 bf 85 a1 e4 bf 46 8e 87 3f 0e 1c 55 bf
       -0.7108592 -1.7861792 1.0590293 -0.83245933
000360 6e db 95 3d 4d cf 0f 3e 39 8c 0b 40 33 a3 fe bf
       0.073172435 0.14043923 2.1804335 -1.9893554
000370 c5 ac 73 40 bd a4 d8 3f 2b 02 0d 3f 77 81 4b c0
       3.80742 1.6925274 0.55081433 -3.179777
000380 f8 05 80 40 73 ac 65 40 ec 02 8b bd 7d cf 61 40
       4.0007286 3.5886505 -0.06787667 3.528289
000390 19 ef ca 3e ee ae c2 bf 82 16 77 40 ab e7 0e bf
       0.39635542 -1.5209634 3.8607488 -0.5582225
0003a0 7a 91 3a 3f 98 3c 63 c0 e1 8f a0 bf 8c bc 64 bf
       0.7287823 -3.5505733 -1.2543908 -0.893502
0003b0 81 c9 02 c0 de ae 21 bc 89 1e bf 3e cd 38 1b c0
       -2.0435488 -0.009868352 0.37327984 -2.4253418
0003c0 7f 27 40 40 49 25 fc bf 42 c5 cb bf 57 af 43 c0
       3.0024107 -1.9698879 -1.5919573 -3.057577
0003d0 2f f1 82 c0 b8 14 13 bf 81 83 95 3f 2f e5 6d bf
       -4.0919414 -0.5745349 1.1680757 -0.9292783
0003e0 ea c2 2b 3f fe 14 46 c0 7f a1 5a 3d 53 be 84 c0
       0.6709429 -3.0950313 0.05337667 -4.148233
0003f0 cc 8b 47 40 8b b1 9f 3f 47 c0 6b be e9 f1 c7 bf
       3.1179075 1.2476057 -0.23022567 -1.56207

layer3.bias f4 [16]
000000 00 00 00 00 00 00 00 00 00 00 00 00 00 00 00 00
       0.0 0.0 0.0 0.0
000010 00 00 00 00 00 00 00 00 00 00 00 00 00 00 00 00
       0.0 0.0 0.0 0.0
000020 00 00 00 00 00 00 00 00 00 00 00 00 00 00 00 00
       0.0 0.0 0.0 0.0
000030 00 00 00 00 00 00 00 00 00 00 00 00 00 00 00 00
       0.0 0.0 0.0 0.0

out_layer.weight f4 [3, 16]
000000 32 ed 5b c0 db 61 3c bf fd 41 1f 3f 8a 95 16 c0
       -3.4363523 -0.73586816 0.62210065 -2.3528771
000010 cf 38 93 3d df 26 ed be 14 f6 77 3d 2b 62 1e bf
       0.0718857 -0.4631872 0.060537413 -0.6186854
000020 07 39 95 ba a8 55 66 bf c6 b1 d5 3f ae 97 a0 bf
       -0.0011384793 -0.8997445 1.6694877 -1.2546289
000030 e1 87 2f bf f6 45 3d 40 72 92 9e 3f ef ac 9f bd
       -0.6856671 2.957395 1.2388442 -0.07796656
000040 f6 5c f7 3f 42 0a c0 40 84 05 60 c0 b4 06 08 40
       1.9325244 6.001252 -3.5003366 2.1254091
000050 bb 8e 92 3f c0 35 13 3f 52 00 74 be 4f 17 49 bf
       1.1449808 0.5750389 -0.23828247 -0.7855119
000060 d7 3b 63 40 24 f9 48 bb 1d d9 32 3f 13 09 b3 bf
       3.5505273 -0.0030666078 0.6986254 -1.3987144
000070 45 67 68 3f 3e c8 e2 bf ee 58 32 be 64 57 63 be
       0.90782577 -1.7717359 -0.17416736 -0.22201306
000080 72 a4 b7 bf 6c f0 d6 3f 7f c6 e0 3e 62 a6 9b 3e
       -1.434706 1.6792121 0.4390144 0.30400378
000090 71 50 11 40 c4 26 0a 3e bb 58 59 bf 8f 30 ba bf
       2.2705348 0.1349135 -0.84901017 -1.4546069
0000a0 5f 17 20 3f 8f d0 86 c0 d5 58 18 c0 6b db 04 bf
       0.6253566 -4.212959 -2.3804219 -0.51897305
0000b0 bf 89 c7 bf 15 9d b2 bf 65 e0 3e 3f fa 39 3f 3f
       -1.5588912 -1.3954188 0.7456115 0.7469784

out_layer.bias f4 [3]
000000 00 00 00 00 00 00 00 00 00 00 00 00
       0.0 0.0 0.0
