src/ckpt/MountainCar-v0/indiv_78.pt (torch_old, 3954 bytes, 8 tensors)

layer1.weight f4 [16, 2]
000000 c4 37 e9 bf 6d 5b 58 bf 65 39 2f c0 8f c5 88 c0
       -1.8220143 -0.84514505 -2.737878 -4.274116
000010 df 0d 4a c0 d0 b3 80 3f 42 22 cd 3e 6a 10 e7 3f
       -3.1570966 1.0054874 0.400652 1.8051884
000020 70 ce 26 3e db 95 23 40 45 4e cd bf 8a 4d 3b 3d
       0.16289687 2.5560215 -1.6039511 0.045728244
000030 69 c6 b9 bf 95 40 0b be 82 9b 08 bf fd 7a 4a 3f
       -1.4513675 -0.13598855 -0.53362286 0.79093915
000040 72 f4 b7 3f 4e 1d fd bf df a3 26 3d 03 6e f7 3f
       1.4371474 -1.9774568 0.040683623 1.9330448
000050 26 42 36 40 9a 0f 6c 40 ca 2a 87 bf ef d3 80 bd
       2.8477874 3.6884522 -1.0559933 -0.06290423
000060 2a 7c 40 3e 34 28 55 c0 34 ec b2 3f 2d 8c 0b 40
       0.18797365 -3.3305788 1.3978333 2.1804307
000070 32 89 98 bf 33 63 88 40 a7 4d ca bf 7a ed aa 3e
       -1.1916869 4.2621093 -1.5804948 0.33384305

layer1.bias f4 [16]
000000 00 00 00 00 00 00 00 00 00 00 00 00 00 00 00 00
       0.0 0.0 0.0 0.0
000010 00 00 00 00 00 00 00 00 00 00 00 00 00 00 00 00
       0.0 0.0 0.0 0.0
000020 00 00 00 00 00 00 00 00 00 00 00 00 00 00 00 00
       0.0 0.0 0.0 0.0
000030 00 00 00 00 00 00 00 00 00 00 00 00 00 00 00 00
       0.0 0.0 0.0 0.0

layer2.weight f4 [16, 16]
000000 f2 28 2a bf 6e 49 9f 3f 3f d2 16 40 6f 5e 2c 40
       -0.6646873 1.2444284 2.3565824 2.6932638
000010 46 de c5 3f 78 5b d3 bf 79 3b cc 40 3a 0d 6a 40
       1.5458457 -1.6512289 6.38226 3.6570573
000020 52 02 20 40 c3 b7 6f bf a4 3a 13 40 fe ee 2c c0
       2.5001416 -0.93639773 2.3004541 -2.702087
000030 e0 9b 0f 3f f0 48 8f 3f 72 53 af 3e 39 54 cc 3f
       0.5609722 1.1194134 0.3424335 1.5963203
000040 7c 5f 06 c0 e6 f5 97 3f 9c 2c e1 3f 4f 79 72 40
       -2.099578 1.1871917 1.7591739 3.788654
000050 63 0d 8d c0 f2 36 f9 3e 35 a2 31 bf 1d 35 90 bf
       -4.407884 0.48674732 -0.69388133 -1.1266209
000060 f4 b2 d7 3f e9 c2 11 40 e7 3f 0d 3f 59 34 4b bf
       1.6851487 2.2775214 0.5517563 -0.7937675
000070 22 35 e4 3f a0 2e 90 bf 73 6c c2 bd 40 c3 69 be
       1.7828715 -1.1264229 -0.09493341 -0.22828388
000080 e9 45 03 bf e9 5d c7 bf 80 dc 2d 3e f9 df 00 bf
       -0.5127855 -1.5575534 0.16978645 -0.50341755
000090 d1 d8 d7 be e0 3a a3 bf a0 b5 40 c0 7f 7b e8 3f
       -0.42157605 -1.2752342 -3.0110855 1.8162688
0000a0 f0 50 1b c0 ff 34 9e bf df e1 7c 3f 80 08 27 3f
       -2.426815 -1.2359923 0.9878215 0.65247345
0000b0 00 70 4a 40 ec 9d 16 40 bb 6f f5 bf ed 4b 79 3f
       3.163086 2.3533888 -1.9174722 0.9738148
0000c0 ae ae ec bf 26 a5 cf bf 78 c2 9f bf ce 7c 16 3f
       -1.8490808 -1.6222274 -1.2481222 0.58784187
0000d0 09 29 4d 3f f3 af 09 40 c8 04 1f 3d 59 04 0e 3f
       0.8014074 2.151364 0.03882292 0.55475384
0000e0 fb f3 9b bd a2 4c 3a c0 35 9d d8 bf 3e 73 ed 3e
       -0.07614895 -2.9109273 -1.6922976 0.46376985
0000f0 9e ef d7 3f fb 97 12 3f de 61 56 3e 18 94 af bd
       1.687 0.57263154 0.20935771 -0.085731685
000100 a0 7e 73 be 06 5e 26 3f 25 86 20 c0 b8 19 88 3f
       -0.23778772 0.6498722 -2.5081875 1.0632849
000110 6b 94 d8 be 8e de 2c 40 6c 43 aa 3f 22 c4 93 3f
       -0.42300734 2.7010837 1.3301826 1.154423
000120 67 bc 62 3f 1b eb e1 bf 9c df cb be 02 07 be bf
       0.8856873 -1.7649873 -0.39819038 -1.4845889
000130 af f5 26 3e b4 5c 10 3e 0c a0 e5 be 7a e4 1f c0
       0.16304658 0.14097863 -0.4484867 -2.49832
000140 53 85 70 3f e0 88 21 40 56 ab 21 c0 1e 8c 01 c0
       0.93953437 2.5239792 -2.5260825 -2.024177
000150 ee f6 09 bf 09 df f4 3f 72 dd 76 c0 14 4b ee be
       -0.5389241 1.9130565 -3.857266 -0.46541655
000160 28 21 03 bf c7 3b 86 3f 27 6a 91 3f be ac c3 bf
       -0.5122247 1.0486993 1.136052 -1.5287092
000170 45 8a ae 3f 87 c2 d5 3f cc 04 3f bf d8 90 48 c0
       1.3635947 1.669999 -0.74616694 -3.1338406
000180 ca e6 87 3f 6c e5 c7 3e 0c 34 11 c0 a6 a7 38 bf
       1.0617306 0.39042222 -2.2688017 -0.7213081
000190 f3 8f 88 bf 05 18 70 c0 75 5b 58 c0 c9 1c c7 be
       -1.066893 -3.751466 -3.380582 -0.3888915
0001a0 4b 6d 02 c0 de c8 88 be 97 53 a9 bf 4e 2f 2d 40
       -2.0379207 -0.2671575 -1.3228635 2.7060122
0001b0 71 c2 3a 40 66 52 7d c0 0b 39 aa 3f 6e 82 27 c0
       2.9181178 -3.9581542 1.3298658 -2.6173358
0001c0 2b 3a 01 40 fd 7a 87 40 37 f8 a9 bf cc 61 6a bf
       2.0191753 4.233763 -1.3278874 -0.91555476
0001d0 49 d6 cb 3f ae af 33 c0 de 5f a7 3f f1 bf c3 3f
       1.592477 -2.8075976 1.3076131 1.5292951
0001e0 54 d0 7f 3f c9 8d 9e 3f 6b c1 f9 3f d8 01 1b 3e
       0.9992726 1.2387019 1.9512151 0.15137422
0001f0 f0 44 b7 3f 2e 03 40 3f 6e 8a f0 be 27 c7 b4 3e
       1.4317913 0.7500485 -0.46980613 0.3530819
000200 f9 4f 66 3f cb c3 0c 40 40 71 0f c0 8b 71 03 c0
       0.8996578 2.1994503 -2.2412872 -2.053805
000210 8f 64 af be a1 ca db bf f1 26 48 3b 5a fa 3f 40
       -0.34256408 -1.7171212 0.003054079 2.9996552
000220 ab 38 c0 bf 33 4a 94 3d 09 a5 ff 3f 42 15 8e bf
       -1.5017294 0.07240715 1.997224 -1.1100237
000230 5a 93 4f 40 60 1d ed 3f 58 77 99 3e 6b 66 10 c0
       3.2433686 1.852459 0.29973865 -2.256251
000240 c3 38 03 40 f8 64 7b c0 11 d3 75 3f 34 94 2f c0
       2.0503395 -3.9280376 0.96025187 -2.7434206
000250 81 a2 52 3e 20 93 58 40 58 13 05 40 73 0b f4 3f
       0.20569803 3.3839798 2.0793056 1.9065994
000260 9f 75 36 40 bb 3f 28 3f 08 86 61 40 cb cf 13 40
       2.850929 0.65722245 3.5238056 2.3095577
000270 4e e9 a0 bf 00 4d 91 40 67 35 0e 3f c1 81 39 40
       -1.2571199 4.5406494 0.55550236 2.8985445
000280 36 28 2e 40 de 1c 18 c0 7c f3 8e bd 98 4d 84 bd
       2.7212043 -2.376762 -0.06980035 -0.06460112
000290 74 63 b4 bf 95 c7 7a bf 36 03 3c c0 e3 03 ca bf
       -1.4092851 -0.9796079 -2.937696 -1.5782436
0002a0 89 bb a4 bf 4f 9f 26 3f 79 b3 55 40 75 8e 65 3e
       -1.2869731 0.65086836 3.3390791 0.22417624
0002b0 97 28 9b 3f fe bd 06 c0 5d 5f 09 3f 3f 65 53 c0
       1.2121762 -2.1053462 0.5366114 -3.3030546
0002c0 c3 23 f3 3f 35 51 61 40 53 6b 84 3e 77 6a eb 3d
       1.8995289 3.5205815 0.25863132 0.11494916
0002d0 a8 0a 15 40 8c 97 95 be 88 ef 83 bf e5 da f3 3f
       2.3287754 -0.29217184 -1.0307474 1.9051176
0002e0 3c 55 af 3e fe d9 2c bf b6 b8 d8 bf cb 95 76 3e
       0.34244716 -0.6752013 -1.6931369 0.24080579
0002f0 1b 0e 43 40 c4 31 a3 3f 8e e2 b3 3f 24 91 11 c0
       3.047736 1.2749562 1.4053514 -2.2744837
000300 47 3c a0 3f ad 1b cd be 74 51 e2 bf de 47 6b c0
       1.2518395 -0.40060177 -1.7681108 -3.6762614
000310 43 3e f1 3f 50 61 0a c0 bc b6 a5 bf c1 49 43 bf
       1.8847126 -2.1621895 -1.2946391 -0.76284415
000320 2a 8d b3 bf 15 af 28 bf 81 82 99 c0 c5 38 3e 3f
       -1.4027455 -0.65892154 -4.7971807 0.74305373
000330 14 c5 f4 3f b7 e5 8b bf 32 6d 09 c0 14 06 82 40
       1.9122643 -1.0929478 -2.1472898 4.063242
000340 f4 21 01 bf bc 6f 66 3f 25 04 f3 bd cc 36 1c c0
       -0.50442433 0.90014243 -0.11866025 -2.4408445
000350 03 e5 6c 3e fe fc e0 3e ec 2e 3b c0 a9 21 3f c0
       0.23134236 0.43943018 -2.924739 -2.9864295
000360 96 0d 36 3f be bb 26 40 f1 4c c7 bf aa b6 13 3f
       0.7111448 2.6052089 -1.5570356 0.577006
000370 5d 85 29 c0 91 3f 37 3f d4 57 80 be aa 1c e3 3e
       -2.6487648 0.7158137 -0.25067008 0.44357806
000380 80 b6 35 40 cd 6b b0 3f 96 45 5f 3f fe 4b 6d bf
       2.839264 1.3782898 0.87215555 -0.9269408
000390 94 af 55 3f 5e 6f 8d bf 8c bd c8 3e 47 94 12 c0
       0.83471036 -1.1049612 0.39207113 -2.2903001
0003a0 62 96 13 40 8d 5c 90 bf c9 b1 5b 40 7e 32 fa be
       2.3060536 -1.1278244 3.4327261 -0.48866647
0003b0 8a 2d 10 c0 e8 0c c5 be b9 9d f7 be d9 62 b0 3f
       -2.2527795 -0.3848641 -0.4836252 1.3780166
0003c0 80 69 82 3c ab 37 04 3f 1d 75 66 c0 51 3a b5 3f
       0.015919447 0.5164744 -3.600898 1.4158422
0003d0 51 03 f1 bf 5c d1 74 3e d0 4b dc 3e fb c2 ac 40
       -1.8829137 0.2390799 0.4302659 5.3988013
0003e0 01 68 4b c0 e0 47 18 3f 09 db 82 c0 7f fe 09 bc
       -3.178223 0.5948467 -4.0892377 -0.008422493
0003f0 c0 b7 5b 40 12 bd 1f 40 f4 5f 5e 3f 46 12 42 c0
       3.4330902 2.495915 0.8686516 -3.0323653

layer2.bias f4 [16]
000000 00 00 00 00 00 00 00 00 00 00 00 00 00 00 00 00
       0.0 0.0 0.0 0.0
000010 00 00 00 00 00 00 00 00 00 00 00 00 00 00 00 00
       0.0 0.0 0.0 0.0
000020 00 00 00 00 00 00 00 00 00 00 00 00 00 00 00 00
       0.0 0.0 0.0 0.0
000030 00 00 00 00 00 00 00 00 00 00 00 00 00 00 00 00
       0.0 0.0 0.0 0.0

layer3.weight f4 [16, 16]
000000 f6 72 e5 bf bc 87 97 bf cc 77 44 40 08 51 43 3d
       -1.7925708 -1.1838298 3.0698118 0.0476847
000010 a3 e7 54 40 e6 53 6f 3e a1 3c 10 40 cb be 6f bf
       3.326638 0.23371848 2.2537005 -0.936505
000020 f9 45 3d 3e 4c a5 bc bf 3f 6a d3 3d 96 69 cf 3e
       0.18483724 -1.4737945 0.10322999 0.40510243
000030 ce 99 4d be 8f 54 70 bf 53 4a 65 3e 0c a6 d2 3f
       -0.20078203 -0.93879026 0.22391634 1.6456923
000040 75 2c 1d 40 a5 8a 6f 40 a6 08 4e 40 a1 26 01 bf
       2.4558384 3.7428372 3.2192779 -0.5044957
000050 9c 32 2b 40 04 b0 77 be 32 d4 81 3f 56 be 74 c0
       2.674964 -0.24188238 1.0142882 -3.8241172
000060 90 d8 91 bf c5 a7 93 3d d5 da 2f c0 29 72 9d be
       -1.1394215 0.07209734 -2.7477314 -0.3075116
000070 ec c1 17 c0 14 fa 84 c0 68 75 d9 be 1a 1a 80 40
       -2.371211 -4.155527 -0.42472386 4.003186
000080 55 af 03 c0 c0 cc 93 bf c5 ef bb 3f 12 e4 d5 3f
       -2.0575764 -1.154686 1.4682547 1.6710227
000090 1f 92 a4 3f 79 fb 8c 3f 72 00 26 bf cd 51 83 bf
       1.2857093 1.1014243 -0.6484443 -1.0259339
0000a0 c4 40 3a 40 0e 3c 8c 40 b3 69 cc 3f 16 2d bd bf
       2.910203 4.382331 1.5969757 -1.4779384
0000b0 09 a4 c7 3f 90 10 bc c0 08 2f 40 c0 42 d0 bb 3f
       1.5596935 -5.877022 -3.0028706 1.467293
0000c0 21 41 a7 3f 01 0f 0e 40 06 49 44 3f c4 6c e5 bf
       1.3066751 2.2196658 0.76673925 -1.7923818
0000d0 48 55 02 40 bb 17 6d bf d1 c4 6c bf 93 d1 fc 3e
       2.0364552 -0.92614335 -0.9248782 0.49378642
0000e0 71 b8 1b 40 98 e5 04 3d aa 4d f8 be 60 9d 37 c0
       2.4331324 0.03244552 -0.48496753 -2.8689804
0000f0 bc 1e c0 bf 86 f9 33 3e 86 cc 1d 3f 02 a8 31 bf
       -1.5009379 0.17575654 0.61640203 -0.69396985
000100 1a 8d 8e 3f 84 83 59 40 53 93 a6 be ae 94 1a bf
       1.1136811 3.398652 -0.32534274 -0.6038312
000110 bd 0c d2 bf 9c cf 59 c0 26 7c d2 bf b6 0e 08 bf
       -1.6410137 -3.4032965 -1.6444137 -0.5314745
000120 95 68 1d c0 14 56 33 c0 66 c8 58 3f bc 25 17 c0
       -2.4595082 -2.8021288 0.84680784 -2.3616781
000130 64 b6 91 bf 05 b5 81 40 ea 63 4a 40 5f 06 a4 bf
       -1.1383786 4.053347 3.1623483 -1.2814444
000140 65 cf 5b be ae cd 1c 40 fa 41 f3 3f c0 d9 bb bf
       -0.21465833 2.4500537 1.900451 -1.4675827
000150 38 d5 9b bf 61 a1 f2 be d9 f3 91 40 eb f9 8d 3e
       -1.2174444 -0.47388747 4.5610166 0.27729735
000160 89 75 27 c0 48 46 bc bf b7 d3 18 c0 b5 96 7c 3d
       -2.6165488 -1.4708948 -2.387922 0.061667163
000170 1a fa 10 40 de d4 87 bf 57 5c 30 40 d5 76 15 c0
       2.265265 -1.0611837 2.755636 -2.335378
000180 0c eb b3 3f 07 68 a1 3b 32 13 03 c0 eb 08 24 40
       1.4056106 0.004925731 -2.0480466 2.5630443
000190 24 16 70 40 19 3a 36 40 90 52 00 c0 57 4f 53 c0
       3.7513514 2.847296 -2.0050392 -3.3017175
0001a0 d3 e8 7a bf c8 68 fb bd 47 68 2c c0 d3 70 01 c0
       -0.9801151 -0.12275845 -2.6938646 -2.0225112
0001b0 16 55 81 bf 21 3b cb 3e f6 51 14 c0 ad 82 da bf
       -1.0104091 0.3969355 -2.3175025 -1.7071129
0001c0 34 3e 11 c0 0f c9 5e 3e be 85 79 bf e9 fd 07 40
       -2.2694216 0.21756385 -0.974697 2.1248724
0001d0 cd 62 26 40 57 40 80 40 98 61 fc be 50 ca 96 40
       2.5997803 4.007854 -0.49293208 4.7121964
0001e0 2e 87 13 40 91 c8 17 bf 58 93 4e 3d ed 3b b6 bf
       2.3051257 -0.59290415 0.050433487 -1.4237038
0001f0 fd 3d 8c bf 68 89 11 c0 92 5c 29 3f 46 a5 71 3f
       -1.0956417 -2.2740116 0.66156876 0.9439281
000200 57 a5 87 c0 48 da b2 40 7f 0c 4d bf 19 f5 dc 3f
       -4.238933 5.5891457 -0.8009719 1.7262298
000210 29 fb d6 3f 30 50 b5 bf 8a d8 11 40 11 6d b9 be
       1.6795398 -1.4165096 2.2788415 -0.36216024
000220 df d1 8d 40 e5 b1 84 3f 60 02 26 c0 c7 ee fd 3f
       4.431869 1.0366789 -2.593895 1.9838494
000230 59 3d 82 3e b1 61 01 c0 5e 1a 34 3f 63 44 20 c0
       0.2543743 -2.0215876 0.70352733 -2.504174
000240 4f 46 2d 3f 75 13 6a 3f ce 44 20 bf 01 85 9a c0
       0.6768541 0.9143594 -0.6260499 -4.828736
000250 b9 78 45 3e d5 d2 8d 40 65 55 9f 3f 22 47 45 3f
       0.19284333 4.4319863 1.2447935 0.77061665
000260 fa 1e 10 c0 1a 8d a8 3f a4 f5 dd 3f c9 24 65 bf
       -2.2518907 1.3168061 1.7340589 -0.89509255
000270 eb 47 ee bd 27 98 eb be 8e c2 27 3e fe 60 54 40
       -0.11634811 -0.4601452 0.1638281 3.31842
000280 73 7d fe 3f cb 4e 0c 40 ab 0a 8c bf 27 eb 0c 40
       1.9882034 2.1923091 -1.0940756 2.2018526
000290 77 dd 00 3e b0 a7 72 40 91 18 50 40 c7 b8 4f 40
       0.12584482 3.7914848 3.2514994 3.245653
0002a0 5c d8 5a c0 ce b1 b1 bf bc e3 bb bf 81 73 65 40
       -3.4194555 -1.3882387 -1.4678874 3.5851748
0002b0 fd b2 05 c0 d0 61 2d 3e 8e 34 71 40 5d 98 be 3f
       -2.0890496 0.16931844 3.7688327 1.4890248
0002c0 0b d1 18 c0 c3 5f 8f 40 9d b2 4e bf ce 3d 00 40
       -2.387759 4.4804397 -0.8074129 2.0037723
0002d0 7a b1 71 bf b5 39 0d 3f 92 74 97 bf 77 19 4a be
       -0.9441143 0.5516618 -1.183245 -0.19736277
0002e0 62 25 c8 bf bc 88 e2 3e 8d 0c f8 3f 57 9d 80 40
       -1.5636408 0.44244945 1.937883 4.0192065
0002f0 1c ba 45 c0 2e 96 35 3f c7 cd 3f bf fc 89 b1 3e
       -3.0894842 0.7093228 -0.74923366 0.34675586
000300 5e ff 6b be d4 05 83 be 4e f8 3c bf ba 36 80 bf
       -0.23046634 -0.25590384 -0.7381638 -1.0016701
000310 d6 3c 18 c0 44 82 b5 3f 9a 9d 47 3f 14 fa 5a bf
       -2.3787131 1.4180379 0.77974856 -0.8553784
000320 9a 7d b8 3e 5d 33 70 c0 b5 9f 2c 40 3c 4e 66 40
       0.36033326 -3.753135 2.6972477 3.598525
000330 2c db 5b c0 1b 1d 42 3e 09 d2 0f 40 58 64 0d bf
       -3.4352522 0.18956415 2.2471945 -0.5523124
000340 91 c3 8e bf 9a d7 b4 3f 1b 5b d6 c0 0b 0f 2d c0
       -1.1153432 1.4128296 -6.6986213 -2.7040431
000350 de fa 35 bf 85 a1 e4 bf 46 8e 87 3f 0e 1c 55 bf
       -0.7108592 -1.7861792 1.0590293 -0.83245933
000360 6e db 95 3d 4d cf 0f 3e 39 8c 0b 40 33 a3 fe bf
       0.073172435 0.14043923 2.1804335 -1.9893554
000370 c5 ac 73 40 bd a4 d8 3f 47 bc 5e bc 07 f1 59 40
       3.80742 1.6925274 -0.0135946935 3.4053361
000380 f8 05 80 40 3f 7c d5 3f 84 ab b7 bf e0 e3 97 bf
       4.0007286 1.6678542 -1.4349217 -1.1866417
000390 19 ef ca 3e ee ae c2 bf 82 16 77 40 ab e7 0e bf
       0.39635542 -1.5209634 3.8607488 -0.5582225
0003a0 7a 91 3a 3f 98 3c 63 c0 e1 8f a0 bf 8c bc 64 bf
       0.7287823 -3.5505733 -1.2543908 -0.893502
0003b0 81 c9 02 c0 de ae 21 bc 8d 7e b1 bd 38 27 68 40
       -2.0435488 -0.009868352 -0.08666716 3.6273937
0003c0 7f 27 40 40 b5 72 29 3f 47 21 0c 40 f7 75 3d 3e
       3.0024107 0.66190654 2.189531 0.18502031
0003d0 2f f1 82 c0 b8 14 13 bf 81 83 95 3f 2f e5 6d bf
       -4.0919414 -0.5745349 1.1680757 -0.9292783
0003e0 ea c2 2b 3f fe 14 46 c0 7f a1 5a 3d 53 be 84 c0
       0.6709429 -3.0950313 0.05337667 -4.148233
0003f0 cc 8b 47 40 8b b1 9f 3f f6 5a ed bf ee c0 16 c0
       3.1179075 1.2476057 -1.8543384 -2.3555255

layer3.bias f4 [16]
000000 00 00 00 00 00 00 00 00 00 00 00 00 00 00 00 00
       0.0 0.0 0.0 0.0
000010 00 00 00 00 00 00 00 00 00 00 00 00 00 00 00 00
       0.0 0.0 0.0 0.0
000020 00 00 00 00 00 00 00 00 00 00 00 00 00 00 00 00
       0.0 0.0 0.0 0.0
000030 00 00 00 00 00 00 00 00 00 00 00 00 00 00 00 00
       0.0 0.0 0.0 0.0

out_layer.weight f4 [3, 16]
000000 32 ed 5b c0 db 61 3c bf fd 41 1f 3f 2e 01 6d bf
       -3.4363523 -0.73586816 0.62210065 -0.92579925
000010 cf 38 93 3d df 26 ed be 2d 8c 32 40 2b 62 1e bf
       0.0718857 -0.4631872 2.7898057 -0.6186854
000020 07 39 95 ba a8 55 66 bf c6 b1 d5 3f ae 97 a0 bf
       -0.0011384793 -0.8997445 1.6694877 -1.2546289
000030 1c 3d ef 3f 25 92 54 3f 2c 8c 13 40 97 bb d1 bf
       1.8690524 0.830355 2.3054304 -1.6385373
000040 f6 5c f7 3f 42 0a c0 40 84 05 60 c0 5b 0c 16 40
       1.9325244 6.001252 -3.5003366 2.344504
000050 bb 8e 92 3f c0 35 13 3f 30 0e 08 3f 4f 17 49 bf
       1.1449808 0.5750389 0.5314665 -0.7855119
000060 d7 3b 63 40 24 f9 48 bb 1d d9 32 3f 13 09 b3 bf
       3.5505273 -0.0030666078 0.6986254 -1.3987144
000070 cd 4a 0d 40 d3 cd 8c 40 cc ec 39 c0 f2 b3 7c bf
       2.2076905 4.400125 -2.905078 -0.98712075
000080 72 a4 b7 bf 6c f0 d6 3f 7f c6 e0 3e 01 ae a9 3e
       -1.434706 1.6792121 0.4390144 0.33140567
000090 71 50 11 40 c4 26 0a 3e 39 8d 18 bf 8f 30 ba bf
       2.2705348 0.1349135 -0.5959049 -1.4546069
0000a0 5f 17 20 3f 8f d0 86 c0 d5 58 18 c0 6b db 04 bf
       0.6253566 -4.212959 -2.3804219 -0.51897305
0000b0 c3 d5 d0 be ea 94 7d 40 bc f1 12 3e 49 73 32 c0
       -0.40788087 3.962214 0.14350027 -2.7882864

out_layer.bias f4 [3]
000000 00 00 00 00 00 00 00 00 00 00 00 00
       0.0 0.0 0.0
