src/ckpt/MountainCar-v0/indiv_0.pt (torch_old, 3954 bytes, 8 tensors)

layer1.weight f4 [16, 2]
0	0x3ff51f6c	1.9150214
1	0xbf585b6d	-0.84514505
2	0x401834ef	2.3782308
3	0xc088c58f	-4.274116
4	0x40999280	4.7991333
5	0x3f80b3d0	1.0054874
6	0x3db75f87	0.08953767
7	0x3fe7106a	1.8051884
8	0x3f98a532	1.1925414
9	0x402395db	2.5560215
10	0x3fa5e447	1.296029
11	0x3d3b4d8a	0.045728244
12	0x401c1372	2.4386868
13	0xbe0b4095	-0.13598855
14	0x3f45fc6c	0.7733829
15	0x3f4a7afd	0.79093915
16	0x3ff04695	1.877154
17	0xbffd1d4e	-1.9774568
18	0x3f210bd3	0.6290867
19	0x3ff76e03	1.9330448
20	0x3fdd17dc	1.7272906
21	0x406c0f9a	3.6884522
22	0x3f90b12a	1.1304066
23	0xbd80d3ef	-0.06290423
24	0xc0460628	-3.0941257
25	0xc0552834	-3.3305788
26	0xbe1a5546	-0.15071592
27	0x400b8c2d	2.1804307
28	0x40d1c284	6.5549946
29	0x40886333	4.2621093
30	0x3f05ae89	0.52219445
31	0x3eaaed7a	0.33384305

layer1.bias f4 [16]
0	0x00000000	0.0
1	0x00000000	0.0
2	0x00000000	0.0
3	0x00000000	0.0
4	0x00000000	0.0
5	0x00000000	0.0
6	0x3f4019e5	0.7503951
7	0x00000000	0.0
8	0x00000000	0.0
9	0x00000000	0.0
10	0x00000000	0.0
11	0x00000000	0.0
12	0x00000000	0.0
13	0x00000000	0.0
14	0x00000000	0.0
15	0x00000000	0.0

layer2.weight f4 [16, 16]
0	0xbf2a28f2	-0.6646873
1	0xbf3ab725	-0.72935706
2	0x3f585f29	0.845202
3	0x3da879dc	0.08226368
4	0x403682dd	2.8517373
5	0xbfd35b78	-1.6512289
6	0xbf8b6872	-1.0891249
7	0x406a0d3a	3.6570573
8	0x3fd177d6	1.6364696
9	0xbf6fb7c3	-0.93639773
10	0x40133aa4	2.3004541
11	0xc02ceefe	-2.702087
12	0x3f0f9be0	0.5609722
13	0x3f8f48f0	1.1194134
14	0x3eaf5372	0.3424335
15	0xc03d6528	-2.959299
16	0xc0065f7c	-2.099578
17	0xbf8b0c6e	-1.0863168
18	0x3fd67d8d	1.6757065
19	0x3ff85197	1.9399899
20	0x3f807f3c	1.0038829
21	0x3ef936f2	0.48674732
22	0xc050a993	-3.26035
23	0xbf90351d	-1.1266209
24	0xc031bf57	-2.7773035
25	0x4011c2e9	2.2775214
26	0x3f0d3fe7	0.5517563
27	0xbf4b3459	-0.7937675
28	0x3fe43522	1.7828715
29	0xbf902ea0	-1.1264229
30	0xbdc26c73	-0.09493341
31	0x3ff09d5d	1.8798023
32	0xbf0345e9	-0.5127855
33	0xc006627e	-2.0997615
34	0x3f951c0d	1.1649185
35	0x3fc8b2d6	1.5679576
36	0x3fcf5130	1.6196651
37	0xbfa33ae0	-1.2752342
38	0x401e76ca	2.4760003
39	0x3fe87b7f	1.8162688
40	0xbf00d594	-0.50325894
41	0xbf9e34ff	-1.2359923
42	0x3f7ce1df	0.9878215
43	0x3f270880	0.65247345
44	0x404a7000	3.163086
45	0x40169dec	2.3533888
46	0xbff56fbb	-1.9174722
47	0xbd824d4e	-0.06362401
48	0xbfecaeae	-1.8490808
49	0xbf9d50c6	-1.2290275
50	0xc0214699	-2.519934
51	0xbe46a81e	-0.19400069
52	0x3faa3c23	1.3299602
53	0x4009aff3	2.151364
54	0xbf2d73e7	-0.6775498
55	0x3f0e0459	0.55475384
56	0x3e8e5a2a	0.27803165
57	0xc03a4ca2	-2.9109273
58	0xbfd89d35	-1.6922976
59	0x3eed733e	0.46376985
60	0x3fd7ef9e	1.687
61	0x3f1297fb	0.57263154
62	0x3e5661de	0.20935771
63	0x401e3ee0	2.4725876
64	0xbe737ea0	-0.23778772
65	0x40afba4e	5.4914923
66	0xbf90e01c	-1.1318393
67	0xc044e094	-3.0762072
68	0xbfe50838	-1.7893133
69	0x402cde8e	2.7010837
70	0xbeda79d5	-0.42671075
71	0x3f93c422	1.154423
72	0x3efb3ab5	0.49068227
73	0xbfe1eb1b	-1.7649873
74	0xbecbdf9c	-0.39819038
75	0xbfbe0702	-1.4845889
76	0x3e26f5af	0.16304658
77	0x3e105cb4	0.14097863
78	0xbee5a00c	-0.4484867
79	0xc0194330	-2.3947258
80	0x3f708553	0.93953437
81	0xbf80bc5c	-1.0057483
82	0xbf02aa86	-0.5104145
83	0x4014cfa2	2.325173
84	0x3f3539f0	0.7079153
85	0x3ff4df09	1.9130565
86	0x3dfc1e82	0.123105064
87	0xbeee4b14	-0.46541655
88	0x3eb9b902	0.36273962
89	0x3f863bc7	1.0486993
90	0x3f916a27	1.136052
91	0xbfc3acbe	-1.5287092
92	0x3fae8a45	1.3635947
93	0x3fd5c287	1.669999
94	0xbf3f04cc	-0.74616694
95	0xbf806bce	-1.0032899
96	0x3f87e6ca	1.0617306
97	0x3effb8b0	0.49945593
98	0x3e2bcbfc	0.16777033
99	0x3d5f51c0	0.054521322
100	0x404b6d1f	3.1785352
101	0xc0701805	-3.751466
102	0xc0087bc2	-2.1325536
103	0xbec71cc9	-0.3888915
104	0x3e4228e2	0.18960908
105	0xbe88c8de	-0.2671575
106	0xbfa95397	-1.3228635
107	0x402d2f4e	2.7060122
108	0x403ac271	2.9181178
109	0xc07d5266	-3.9581542
110	0x3faa390b	1.3298658
111	0xc00bfff6	-2.1874976
112	0x40013a2b	2.0191753
113	0x3f0ea56e	0.55721176
114	0x3da4623b	0.080265485
115	0xbf43b458	-0.7644706
116	0xbf01a431	-0.5064116
117	0xc033afae	-2.8075976
118	0x3c9207f8	0.017826065
119	0x3fc3bff1	1.5292951
120	0x3e6cc27f	0.2312107
121	0x3f9e8dc9	1.2387019
122	0x3ff9c16b	1.9512151
123	0x3e1b01d8	0.15137422
124	0x3fb744f0	1.4317913
125	0x3f40032e	0.7500485
126	0xbef08a6e	-0.46980613
127	0x402d789d	2.7104867
128	0x3f664ff9	0.8996578
129	0xbfa6f796	-1.3044307
130	0xbeb7cd14	-0.3589865
131	0xbeeaf519	-0.4589012
132	0xc001c909	-2.0278952
133	0xbfdbcaa1	-1.7171212
134	0x40552557	3.330404
135	0x403ffa5a	2.9996552
136	0xbf070a2e	-0.5274991
137	0x3d944a33	0.07240715
138	0x3fffa509	1.997224
139	0xbf8e1542	-1.1100237
140	0x404f935a	3.2433686
141	0x3fed1d60	1.852459
142	0x3e997758	0.29973865
143	0xbfc74ad0	-1.5569706
144	0x400338c3	2.0503395
145	0xbfd88e62	-1.6918452
146	0xc01db0e3	-2.4639213
147	0xc05fdfe4	-3.4980402
148	0xbf93ed74	-1.155684
149	0x40589320	3.3839798
150	0x401ac07f	2.417999
151	0x3ff40b73	1.9065994
152	0xbfefaedd	-1.8725239
153	0xbe1b6381	-0.15174676
154	0x40618608	3.5238056
155	0x4013cfcb	2.3095577
156	0xbfa0e94e	-1.2571199
157	0x40914d00	4.5406494
158	0x3f0e3567	0.55550236
159	0xc0424930	-3.035717
160	0x402e2836	2.7212043
161	0xc056f393	-3.3586166
162	0xbf04e74f	-0.5191545
163	0xbfc0c977	-1.5061482
164	0xc012712d	-2.2881577
165	0xbf7ac795	-0.9796079
166	0xbf5b4432	-0.8565093
167	0xbfca03e3	-1.5782436
168	0x3eb0830e	0.34474987
169	0x3f269f4f	0.65086836
170	0x4055b379	3.3390791
171	0x3e658e75	0.22417624
172	0x3f9b2897	1.2121762
173	0xc006bdfe	-2.1053462
174	0x3f095f5d	0.5366114
175	0xbf51630e	-0.8179177
176	0x3ff323c3	1.8995289
177	0x3f220f60	0.6330471
178	0xc087ad55	-4.2399087
179	0x3e7a856e	0.24464962
180	0x4016698d	2.3501923
181	0xbe95978c	-0.29217184
182	0x3fc37c59	1.5272323
183	0x3ff3dae5	1.9051176
184	0x3fc969ce	1.5735414
185	0xbf2cd9fe	-0.6752013
186	0xbfd8b8b6	-1.6931369
187	0x3e7695cb	0.24080579
188	0x40430e1b	3.047736
189	0x3fa331c4	1.2749562
190	0x3f651e76	0.89499605
191	0x40860ad6	4.1888227
192	0x3fa03c47	1.2518395
193	0xc07af405	-3.9211438
194	0x40551c8e	3.3298678
195	0xbf63ef66	-0.8903717
196	0xc096044c	-4.6880245
197	0xc00a6150	-2.1621895
198	0xbfe60063	-1.7968868
199	0xbf4349c1	-0.76284415
200	0xc00d983b	-2.2124164
201	0xbf28af15	-0.65892154
202	0xc03e67d4	-2.9750872
203	0x3f3e38c5	0.74305373
204	0x3ff4c514	1.9122643
205	0xbf8be5b7	-1.0929478
206	0xc0096d32	-2.1472898
207	0xbed6b7f5	-0.41937223
208	0xbf0121f4	-0.50442433
209	0x3e8d4328	0.275903
210	0x3f5e04f3	0.867263
211	0xc02638a2	-2.5972066
212	0x40097389	2.1476767
213	0x3ee0fcfe	0.43943018
214	0xbe6d02f7	-0.23145662
215	0xc03f21a9	-2.9864295
216	0x3f9afc54	1.2108254
217	0x4026bbbe	2.6052089
218	0xbfc74cf1	-1.5570356
219	0x3f13b6aa	0.577006
220	0xc029855d	-2.6487648
221	0x3f373f91	0.7158137
222	0xbe8057d4	-0.25067008
223	0xbf7c1126	-0.98463666
224	0x4035b680	2.839264
225	0xbe9a7bac	-0.3017248
226	0xbfb4b626	-1.4118087
227	0xbeef4c54	-0.4673792
228	0x4070f68a	3.7650476
229	0xbf8d6f5e	-1.1049612
230	0xc069d828	-3.6538181
231	0xc0129447	-2.2903001
232	0xc02370df	-2.553764
233	0xbf905c8d	-1.1278244
234	0x405bb1c9	3.4327261
235	0xbefa327e	-0.48866647
236	0xc0102d8a	-2.2527795
237	0xbec50ce8	-0.3848641
238	0xbef79db9	-0.4836252
239	0xbf99821c	-1.1992831
240	0x3c826980	0.015919447
241	0x408996be	4.299651
242	0x3f3bf7d3	0.73425025
243	0xbea06972	-0.31330448
244	0xbe6f5f8d	-0.23376293
245	0x3e74d15c	0.2390799
246	0x3f99e73e	1.2023695
247	0x40acc2fb	5.3988013
248	0x4034a9d7	2.8228662
249	0x3f1847e0	0.5948467
250	0xc082db09	-4.0892377
251	0xbc09fe7f	-0.008422493
252	0x405bb7c0	3.4330902
253	0x401fbd12	2.495915
254	0x3f5e5ff4	0.8686516
255	0x405c8369	3.4455206

layer2.bias f4 [16]
0	0x00000000	0.0
1	0x00000000	0.0
2	0x00000000	0.0
3	0x00000000	0.0
4	0x00000000	0.0
5	0x00000000	0.0
6	0x00000000	0.0
7	0x00000000	0.0
8	0x00000000	0.0
9	0x00000000	0.0
10	0x00000000	0.0
11	0x00000000	0.0
12	0x00000000	0.0
13	0x00000000	0.0
14	0x00000000	0.0
15	0x00000000	0.0

layer3.weight f4 [16, 16]
0	0xbfe572f6	-1.7925708
1	0xbff851f2	-1.9400008
2	0x404477cc	3.0698118
3	0xbfcc5a76	-1.5965106
4	0x3f55b31f	0.8347644
5	0xbf8f7690	-1.1208057
6	0xc009d55f	-2.1536481
7	0x3f9d5728	1.2292223
8	0x3e3d45f9	0.18483724
9	0xbe55466e	-0.20827648
10	0x3dd36a3f	0.10322999
11	0x3ecf6996	0.40510243
12	0x3fe43808	1.7829599
13	0xbf70548f	-0.93879026
14	0xbfe2f500	-1.7731018
15	0xbfc8a6c8	-1.5675898
16	0x401d2c75	2.4558384
17	0xbf2cb3c4	-0.674618
18	0x404e08a6	3.2192779
19	0x3f80cd4a	1.0062649
20	0xc00db1f4	-2.2139864
21	0xbd82d933	-0.06389084
22	0xc0921349	-4.564854
23	0xc00f8214	-2.2423143
24	0xbf91d890	-1.1394215
25	0x4005dc39	2.0915663
26	0xc02fdad5	-2.7477314
27	0xbe9d7229	-0.3075116
28	0xbfe432b5	-1.7827975
29	0xc084fa14	-4.155527
30	0x3f4476f6	0.7674402
31	0xbf8bf7e8	-1.093503
32	0xc003af55	-2.0575764
33	0xbfca38c2	-1.5798571
34	0x3fbbefc5	1.4682547
35	0x3e7c9784	0.24667174
36	0xc023fba6	-2.5622344
37	0x3f559b12	0.83439744
38	0xbf4d1dde	-0.801237
39	0xc00d4748	-2.2074757
40	0x403a40c4	2.910203
41	0x40c87cc7	6.2652316
42	0x3fcc69b3	1.5969757
43	0xbfbd2d16	-1.4779384
44	0x400e5d4a	2.224444
45	0xc0bc1090	-5.877022
46	0x3f2d1430	0.6760893
47	0x3f92eb5f	1.147808
48	0x3fa74121	1.3066751
49	0x402d9772	2.7123685
50	0x3f444906	0.76673925
51	0x3fa1a339	1.2627937
52	0x3fe22c7f	1.7669829
53	0xbf2cd07e	-0.67505634
54	0x405502e8	3.3283024
55	0x3f903bfa	1.1268303
56	0x401bb871	2.4331324
57	0xbf8c7c3e	-1.0975416
58	0xbef84daa	-0.48496753
59	0xc0379d60	-2.8689804
60	0xbfe5684c	-1.7922454
61	0x3e33f986	0.17575654
62	0x400c0418	2.1877499
63	0x3fa34a1b	1.275699
64	0x3f8e8d1a	1.1136811
65	0xbfc3b7dd	-1.5290486
66	0xbea69353	-0.32534274
67	0xbf8bffb0	-1.0937405
68	0xbfa8a651	-1.3175756
69	0x3f758c52	0.95917237
70	0x3f955740	1.1667252
71	0xbfa7427c	-1.3067164
72	0xc01d6895	-2.4595082
73	0x401c1a74	2.4391146
74	0x3f58c866	0.84680784
75	0xc01725bc	-2.3616781
76	0x401d5745	2.4584515
77	0x4081b505	4.053347
78	0xbfd71ce9	-1.6805698
79	0xbf4a2e1b	-0.789766
80	0xbe5bcf65	-0.21465833
81	0xbf436e6e	-0.7634038
82	0x3ff341fa	1.900451
83	0x402a367d	2.6595757
84	0xc043bdbe	-3.058456
85	0x3fb0165c	1.3756824
86	0x3f6fd85a	0.936895
87	0xc051f22c	-3.280406
88	0xc0277589	-2.6165488
89	0x40600e96	3.5008903
90	0xc018d3b7	-2.387922
91	0x3d7c96b5	0.061667163
92	0xc0093b0b	-2.1442287
93	0xbf87d4de	-1.0611837
94	0xbe8a6adf	-0.2703466
95	0xbf9c03f6	-1.2188709
96	0x3fb3eb0c	1.4056106
97	0x40718cb0	3.774212
98	0xc0031332	-2.0480466
99	0x3de5c33e	0.1121888
100	0xc03a451f	-2.9104688
101	0x3f91d293	1.1392387
102	0xc048edd0	-3.139515
103	0xbf7101bf	-0.9414329
104	0xbf7ae8d3	-0.9801151
105	0xbfc85e54	-1.5653787
106	0xc02c6847	-2.6938646
107	0xc00170d3	-2.0225112
108	0x400df223	2.2179039
109	0x3ecb3b21	0.3969355
110	0xbfdd9184	-1.7310033
111	0xbf753797	-0.9578795
112	0xc0113e34	-2.2694216
113	0x3e6de08d	0.2323019
114	0xbf7985be	-0.974697
115	0x3f719d9f	0.94381136
116	0x4009db92	2.1540265
117	0xc0068635	-2.1019413
118	0x3fcab6d1	1.5837041
119	0x3f8325cd	1.0245911
120	0x4013872e	2.3051257
121	0xc027416a	-2.6133676
122	0x3d4e9358	0.050433487
123	0xbfb63bed	-1.4237038
124	0x402e8873	2.7270782
125	0xc0118968	-2.2740116
126	0x3f45bfe4	0.77245927
127	0x3fdb8167	1.7148865
128	0xc087a557	-4.238933
129	0x3f9e69cc	1.2376037
130	0xbf4d0c7f	-0.8009719
131	0xc071ea0f	-3.7799108
132	0x3f2d4c20	0.6769428
133	0x4076ad15	3.854314
134	0xc009f350	-2.1554756
135	0xc00f44db	-2.2385776
136	0x408dd1df	4.431869
137	0x3f65228f	0.8950586
138	0xc0260260	-2.593895
139	0x3ffdeec7	1.9838494
140	0xc0042ee6	-2.0653625
141	0xc00161b1	-2.0215876
142	0x3f0e1439	0.5549961
143	0x40b88d1e	5.767226
144	0x3f2d464f	0.6768541
145	0xbf392daf	-0.7233533
146	0xbf2044ce	-0.6260499
147	0xc03928ff	-2.8931272
148	0x40031460	2.0481186
149	0xc03b1042	-2.9228673
150	0xbe9d6967	-0.30744478
151	0xc0758909	-3.836489
152	0xc0101efa	-2.2518907
153	0xbf773b89	-0.9657522
154	0x3fddf5a4	1.7340589
155	0xbf6524c9	-0.89509255
156	0xbe29b876	-0.16574273
157	0xbeeb9827	-0.4601452
158	0xbfccd154	-1.6001382
159	0x3f88878d	1.0666367
160	0x3ffe7d73	1.9882034
161	0x40a2d392	5.0883265
162	0xbf8c0aab	-1.0940756
163	0xbe863d54	-0.26218665
164	0xc007f7ea	-2.1245065
165	0xc019c983	-2.4029243
166	0xbfb5104b	-1.4145597
167	0x3fb7c53b	1.4357065
168	0xc05ad85c	-3.4194555
169	0x3f8ab6c8	1.083703
170	0xbfbbe3bc	-1.4678874
171	0x40657381	3.5851748
172	0x3e572d6b	0.2101342
173	0x3e2d61d0	0.16931844
174	0xc002c6de	-2.043388
175	0x3e3e1a03	0.1856461
176	0xc018d10b	-2.387759
177	0x4004fb96	2.0778556
178	0xbf4eb29d	-0.8074129
179	0xbfffd755	-1.9987589
180	0xc03bc3fd	-2.9338372
181	0x3fb00ae9	1.375333
182	0xbf9cb15d	-1.2241627
183	0xbeebf82a	-0.46087772
184	0xbfc82562	-1.5636408
185	0xc04248bf	-3.03569
186	0x3ff80c8d	1.937883
187	0x40809d57	4.0192065
188	0xbfd65a45	-1.6746298
189	0x3f35962e	0.7093228
190	0x3f5e7fb2	0.869136
191	0x3e1d3f17	0.15356098
192	0xbe6bff5e	-0.23046634
193	0xbf6bb6c7	-0.9207577
194	0xbf3cf84e	-0.7381638
195	0x3f773bbb	0.96575516
196	0xbf5b8dee	-0.8576344
197	0xbec81b00	-0.390831
198	0xbf5f10bd	-0.87134916
199	0xbf3d9ad4	-0.74064374
200	0x3eb87d9a	0.36033326
201	0x3f611393	0.8792049
202	0x402c9fb5	2.6972477
203	0x40664e3c	3.598525
204	0xc0261ca2	-2.5954976
205	0x3e421d1b	0.18956415
206	0xbf40da11	-0.7533274
207	0x3ebfb8dc	0.37445724
208	0xbf8ec391	-1.1153432
209	0x3f8d1134	1.1020875
210	0xc0d65b1b	-6.6986213
211	0xc04979f3	-3.1480682
212	0xc0489935	-3.134351
213	0x3f17da74	0.5931771
214	0xbef9620b	-0.48707613
215	0xc0183f5f	-2.3788679
216	0x3d95db6e	0.073172435
217	0xc034b3e4	-2.8234797
218	0x400b8c39	2.1804335
219	0xbffea333	-1.9893554
220	0x3e9be0da	0.30444986
221	0x3fd8a4bd	1.6925274
222	0x3f0d022b	0.55081433
223	0xc06f1789	-3.7358115
224	0x408005f8	4.0007286
225	0x4065ac73	3.5886505
226	0xbfb7ab84	-1.4349217
227	0xc0862d07	-4.1929965
228	0x3f927096	1.1440609
229	0x403cbd3f	2.9490507
230	0xbf8a52b9	-1.0806495
231	0xc044c997	-3.074804
232	0x3f3a917a	0.7287823
233	0x3fbb685c	1.4641223
234	0xbfa08fe1	-1.2543908
235	0xbf64bc8c	-0.893502
236	0xbf1cc705	-0.6124118
237	0xbc21aede	-0.009868352
238	0x3ebf1e89	0.37327984
239	0x3e3b02a3	0.18262725
240	0x4040277f	3.0024107
241	0xbffc2549	-1.9698879
242	0x400c2147	2.189531
243	0xc044bdf8	-3.0740948
244	0x3f38969f	0.7210483
245	0xbecd0af6	-0.40047425
246	0xc0156e85	-2.3348706
247	0x4054841c	3.3205633
248	0x3f2bc2ea	0.6709429
249	0xc02dfe24	-2.7186365
250	0x3d5aa17f	0.05337667
251	0xc084be53	-4.148233
252	0x3e9c22f8	0.3049543
253	0x3f9fb18b	1.2476057
254	0xbe6bc047	-0.23022567
255	0x3e41238d	0.18861218

layer3.bias f4 [16]
0	0x00000000	0.0
1	0x00000000	0.0
2	0x00000000	0.0
3	0x00000000	0.0
4	0x00000000	0.0
5	0x00000000	0.0
6	0x00000000	0.0
7	0x00000000	0.0
8	0x00000000	0.0
9	0x00000000	0.0
10	0x00000000	0.0
11	0x00000000	0.0
12	0x00000000	0.0
13	0x00000000	0.0
14	0x00000000	0.0
15	0x00000000	0.0

out_layer.weight f4 [3, 16]
0	0xc05bed32	-3.4363523
1	0xbf3c61db	-0.73586816
2	0xbf1f26fb	-0.62168854
3	0xc00fe68a	-2.248446
4	0xc0041f94	-2.0644274
5	0xbeed26df	-0.4631872
6	0x40328c2d	2.7898057
7	0x3fc5c55c	1.5450854
8	0xbfe9e7bc	-1.8273845
9	0xbf6655a8	-0.8997445
10	0x3fd5b1c6	1.6694877
11	0xbfa097ae	-1.2546289
12	0x3fef3d1c	1.8690524
13	0x3f549225	0.830355
14	0x40138c2c	2.3054304
15	0xbfd1bb97	-1.6385373
16	0x3ff75cf6	1.9325244
17	0x40c00a42	6.001252
18	0xbfdec8a5	-1.7404982
19	0x4022cfb4	2.5439272
20	0xbf8cfd74	-1.1014848
21	0x3f1335c0	0.5750389
22	0x3f080e30	0.5314665
23	0xbf49c6d3	-0.78819007
24	0x3f373c4f	0.715764
25	0xbb48f924	-0.0030666078
26	0x3f32d91d	0.6986254
27	0xbfb30913	-1.3987144
28	0x400d4acd	2.2076905
29	0x408ccdd3	4.400125
30	0xc039eccc	-2.905078
31	0xbf7cb3f2	-0.98712075
32	0xbfb7a472	-1.434706
33	0x401183c0	2.2736664
34	0x3fe00d8e	1.7504137
35	0x406bb14f	3.682697
36	0x3f9169bc	1.1360393
37	0x3e0a26c4	0.1349135
38	0xbf188d39	-0.5959049
39	0xbfc24ec0	-1.5180283
40	0xbfe36374	-1.7764726
41	0xc086d08f	-4.212959
42	0xc01858d5	-2.3804219
43	0xbf04db6b	-0.51897305
44	0xbed0d5c3	-0.40788087
45	0x407d94ea	3.962214
46	0x3e12f1bc	0.14350027
47	0xc0327349	-2.7882864

out_layer.bias f4 [3]
0	0x00000000	0.0
1	0x00000000	0.0
2	0x00000000	0.0
